checkpoint_actor.pth (torch_old, 31190 bytes, 12 tensors)

bn.weight f4 [24]
000000 af 1f 86 3f c9 dc 8d 3f f8 ef 88 3f c3 2a 95 3f
       1.0478419 1.1083003 1.0698233 1.1653675
000010 34 94 a2 3f d2 7b 98 3f ba 35 7b 3f c2 7b 8a 3f
       1.2701478 1.1912787 0.98128855 1.0819018
000020 6f e0 8e 3f 04 b5 8c 3f 83 d7 89 3f ea 21 a2 3f
       1.1162242 1.0992742 1.0768894 1.26666
000030 d4 b9 a1 3f 40 ac 8f 3f 6c 3c 6f 3f 05 ce 8b 3f
       1.2634835 1.1224442 0.9345157 1.0922247
000040 8f d6 9d 3f 29 4a 8e 3f f1 67 9f 3f f8 59 93 3f
       1.2331103 1.1116382 1.2453595 1.1511831
000050 5b 3c a4 3f 93 ec af 3f eb 27 9a 3f c9 cb 89 3f
       1.2830919 1.3744072 1.2043432 1.0765315

bn.bias f4 [24]
000000 3e 85 8e 3d b1 b9 0e 3c 3f f6 66 3d 47 ba ee 3c
       0.06959008 0.0087112645 0.056387182 0.029141558
000010 15 b8 26 3e ef d6 e7 3d 49 5b 71 bc b5 60 23 3d
       0.16281159 0.11320292 -0.014731237 0.03988715
000020 32 e2 86 3b 49 ea 2c be 44 b8 75 3d d9 c3 fe 3d
       0.00411632 -0.16886248 0.059990183 0.12439699
000030 d5 bf 86 3e cc 99 8e bc b7 0e 00 be 95 52 48 3e
       0.2631823 -0.01740732 -0.12505613 0.19562753
000040 bc 7b 5b 3d bb 32 b0 3b 48 42 87 bd 2b f5 81 3d
       0.0535848 0.0053771413 -0.06604439 0.0634559
000050 e1 77 c4 3c ea f0 35 3d d3 03 f7 bd 18 85 b8 bc
       0.023982944 0.044419207 -0.12061276 -0.022524402

bn.running_mean f4 [24]
000000 08 49 ae c0 55 61 98 be e8 e9 c5 40 8a 18 0c 3e
       -5.446415 -0.29761758 6.184803 0.13681236
000010 8e 21 27 3c 1e 9c 5f 40 e8 e9 c5 40 8a 18 0c 3e
       0.010200871 3.4939036 6.184803 0.13681236
000020 f8 b3 b0 c0 07 d8 9c be d7 35 d6 40 28 a0 13 3e
       -5.521969 -0.30633566 6.6940722 0.14416564
000030 27 98 bc 3b 54 6a 5e 40 d7 35 d6 40 28 a0 13 3e
       0.0057554427 3.4752398 6.6940722 0.14416564
000040 40 52 b3 c0 c4 6c a3 be ee 19 e0 40 c2 80 db 3d
       -5.6037903 -0.3191892 7.0031652 0.10717918
000050 e7 9d 02 3c c8 90 5c 40 ee 19 e0 40 c2 80 db 3d
       0.007972217 3.4463367 7.0031652 0.10717918

bn.running_var f4 [24]
000000 c2 d8 8b 41 57 d7 5a 3f 91 79 c4 43 09 78 67 41
       17.480839 0.8548483 392.94974 14.466805
000010 60 c9 fb 41 63 28 47 40 91 79 c4 43 09 78 67 41
       31.473328 3.11184 392.94974 14.466805
000020 a2 5a 8a 41 c3 02 60 3f 0d d6 c6 43 07 63 6a 41
       17.294254 0.87504214 397.67227 14.649177
000030 04 43 03 42 e1 bf 53 40 0d d6 c6 43 07 63 6a 41
       32.815445 3.3085864 397.67227 14.649177
000040 5d 3d 88 41 bb f6 64 3f cf 32 cb 43 ec 3b 6f 41
       17.029963 0.8943898 406.39694 14.952129
000050 a5 01 09 42 4e f1 6a 40 cf 32 cb 43 ec 3b 6f 41
       34.251606 3.670978 406.39694 14.952129

fc1.weight f4 [32, 24]
000000 3a 7b df 3d 2f 1e dd bd 0d 91 5f 3d 43 3c 64 3e
       0.109121755 -0.10796773 0.05458169 0.22288613
000010 a3 75 28 be cf 57 5a 3b e4 de 86 3d 7d 58 6f 3e
       -0.16451125 0.0033316498 0.06585482 0.233736
000020 3d 91 b8 3d 0c 73 96 3c 24 69 ef 3d 94 ad 04 3e
       0.09012077 0.018365405 0.11689976 0.1295684
000030 f5 b0 29 3d 20 45 36 be 14 16 5a 3d c1 b3 ce 3d
       0.041428525 -0.17799807 0.05324371 0.10092879
000040 52 90 cb 3d 33 96 38 3d 41 bb 63 3e 2c 35 c5 3d
       0.09939636 0.045065116 0.222394 0.09629282
000050 76 f1 1f be aa 3e 3b be 96 11 7e 3c 8d 61 43 bd
       -0.15619454 -0.18285623 0.0155071225 -0.047700454
000060 ff 07 14 be 32 29 fc bd 8b 46 ad 3c 17 1d 85 3e
       -0.14456175 -0.12312545 0.021151802 0.25998756
000070 44 98 92 be 1e 5d 2f 3e 3c eb 22 bd 73 ab ac 3e
       -0.28631794 0.17125365 -0.03977512 0.33724555
000080 12 a3 30 3e d1 07 91 be a7 0c 11 be 79 5d 03 be
       0.17249706 -0.28326276 -0.14164983 -0.12828626
000090 e9 73 67 3e f3 df 22 3e 77 48 07 3e 4c 79 00 be
       0.2260281 0.15905742 0.13211237 -0.12546271
0000a0 b0 fe b3 3e b0 c3 2b be bf 0f 81 3e ec 12 25 be
       0.3515525 -0.16773868 0.25207326 -0.161205
0000b0 fb b5 af bd 0a 3e d5 3e 21 82 65 bc c1 74 d4 bd
       -0.08579632 0.41648895 -0.014008076 -0.103738315
0000c0 c5 5d 4d 3d 13 57 b7 3c 07 3a 5c be 6d 20 38 bc
       0.050138254 0.022380387 -0.2150651 -0.0112382
0000d0 7c 57 d5 3d 2f 0c ff bd 45 41 3f 3e de 72 81 3e
       0.10417077 -0.12453496 0.18677242 0.2528295
0000e0 65 73 4c bd 91 da 1d be be 81 85 bc 85 f2 02 3e
       -0.049914736 -0.15415408 -0.016297217 0.12787826
0000f0 bd e2 30 be e3 a5 ae bb 4e 9f be bb c4 73 80 3e
       -0.17273994 -0.005329834 -0.0058173304 0.25088322
000100 75 87 5c be 29 66 21 3c db 2a 32 be f9 c9 d8 3d
       -0.21536048 0.009851017 -0.1739916 0.10585398
000110 5b 62 42 be f6 f0 f1 be b4 b9 5a bd 1a 5d 64 3c
       -0.18982832 -0.4725415 -0.053399757 0.013938213
000120 ed 8a 4c 3d fa 5e 2f 3e d6 b2 e4 3d fa da f6 3d
       0.049937177 0.17126074 0.11166923 0.12053485
000130 aa 3f f7 3d 9a 62 21 3e 5b 5a 26 be 56 15 33 3e
       0.1207269 0.1576027 -0.16245405 0.17488608
000140 a6 08 64 bd 22 f6 30 bc b3 4b f8 3d 1a 23 92 3d
       -0.05567231 -0.01080087 0.121238135 0.07135601
000150 b0 df 98 3e a8 ed 4f be 9e f4 c2 bd 4b 90 86 3e
       0.2985816 -0.20305502 -0.09519313 0.26281962
000160 59 d2 44 3d d0 e8 5a 3e 67 b8 df 3d 00 96 6a be
       0.048052166 0.21377873 0.10923844 -0.22908783
000170 5b 17 a0 3e ea 62 b1 bd 52 93 ec bd 1a c6 4a be
       0.3126782 -0.086614445 -0.115515366 -0.19802132
000180 01 e4 73 3e 20 d3 3e 3e 2e 63 11 3e f0 f2 bc bc
       0.23817445 0.18635225 0.1419799 -0.02306506
000190 33 d3 da 3e 21 c0 08 3d e1 ed a9 3e eb 02 01 3e
       0.42739257 0.033386353 0.331893 0.1259877
0001a0 ce 97 a9 3d a8 28 a6 bc 88 dd 91 3d 7d ad c7 3d
       0.082809076 -0.020283058 0.07122332 0.09749887
0001b0 dc 99 f1 3e 1f e9 69 bd b6 ff 8a bd b0 82 75 3e
       0.47187698 -0.057107087 -0.06787054 0.23975635
0001c0 59 a3 8a 3e f3 e7 84 bd 9a c7 14 bd d7 29 57 3d
       0.2707775 -0.06489553 -0.036323167 0.052530136
0001d0 80 9d 10 3f 08 86 75 3d 05 2a 66 be 36 e3 8c be
       0.56490326 0.059942275 -0.22476967 -0.27517098
0001e0 e3 f9 0c bd 7f 3f d8 3d 1c 90 7e 3e 3b df 1c be
       -0.034417998 0.10558986 0.24859661 -0.1531953
0001f0 3c 33 2a 3e fe a1 9d be a4 8e 1b be 2d 89 81 bd
       0.16621107 -0.30787653 -0.15191132 -0.06324992
000200 86 ef 4b 3e a5 d9 a0 3e 3f 97 09 be 73 94 1a 3e
       0.1991559 0.3141605 -0.13436602 0.15095691
000210 87 5d d8 3d 53 ea 87 bd 8a 1c e7 3d d9 15 84 3e
       0.10564714 -0.06636491 0.1128474 0.25797918
000220 b2 d3 43 3e 6d 87 28 3e 31 f7 1c bc bc 6d 83 be
       0.19123724 0.16457911 -0.009580419 -0.25669658
000230 45 fb 80 be fe 95 8e bd 33 7a 75 bb 08 c8 19 bc
       -0.25191703 -0.069622025 -0.003745687 -0.00938607
000240 68 72 ec bd 24 f8 20 be b0 e7 75 bc 56 eb fa bc
       -0.11545259 -0.15719658 -0.015008852 -0.030629795
000250 4e 2d d1 3d 41 83 2c 3c 98 e2 25 be 83 b7 cc 3d
       0.10213719 0.01052934 -0.1619972 0.099959396
000260 a9 1e 22 be 14 9a 27 be 68 f9 3a be 00 a2 1b be
       -0.15832008 -0.1636737 -0.18259203 -0.15198517
000270 6e 2f 86 be 6e 20 a7 3c 62 56 1b 3e 8b 1c b8 bd
       -0.2620806 0.020401206 0.15169671 -0.08989819
000280 67 bb 87 be 97 02 95 bd 0c 88 f6 bc ec 40 f6 3d
       -0.26510164 -0.072758846 -0.03009417 0.120241016
000290 99 9f 93 be fb 1e 9a 3e 99 c9 2d be 94 78 6f bd
       -0.288327 0.3010176 -0.16971435 -0.0584646
0002a0 e8 96 2c be f1 e6 47 be 78 21 ba bd ea 4f a3 3d
       -0.16854441 -0.19521691 -0.09088415 0.07974227
0002b0 20 0d a4 3d d6 d1 56 3d 0d ec 31 3e 6b 16 3d 3e
       0.08010316 0.05244621 0.17375202 0.18465583
0002c0 40 7f 70 3e a9 8c 14 bd f1 99 24 bd 3d ca 22 3e
       0.23486042 -0.036266956 -0.040185872 0.1589746
0002d0 6a 6e f9 3c ef 22 5d be d5 dd 98 bd 09 17 29 bd
       0.030448157 -0.21595357 -0.07464186 -0.041281734
0002e0 10 ec 10 be 53 32 09 3e 1d e6 cb be 96 4d 70 be
       -0.1415255 0.13398103 -0.39824 -0.23467097
0002f0 db 9a 84 3d 02 81 cf be 65 8d 14 be 47 69 2e be
       0.06474849 -0.40528113 -0.14507063 -0.17032348
000300 0e 15 d0 bd e5 8a 48 bd 49 7b 87 3d c1 8e bf be
       -0.10160266 -0.048960585 0.06615312 -0.374136
000310 5f a8 10 3c 72 f0 dc 3e a9 02 d0 3d cb b9 c1 be
       0.008829205 0.43152195 0.101567574 -0.3783706
000320 ef f8 b2 3d 42 bf 66 be 19 d8 1c 3e e6 ce 5c be
       0.087388866 -0.22533897 0.1531681 -0.215633
000330 54 47 1f 3d 64 38 16 3e 7c bd 86 bd 5a 6b 0a be
       0.038886383 0.14669949 -0.0657911 -0.13517514
000340 8e af 10 3e 9e ee 1b 3d a0 3d 26 3e 78 60 21 3e
       0.14129469 0.03806936 0.16234446 0.15759456
000350 7c 0a a5 be 1f 08 60 3e ec fa 98 3e 36 9a 75 3e
       -0.3223456 0.21878098 0.29878938 0.23984608
000360 84 58 41 3e 08 27 b6 bd 5d e2 91 bd 9d ba 3d 3e
       0.18881422 -0.08894163 -0.071232535 0.18528219
000370 28 38 88 be 3f f9 87 3d bb af 1d be 55 43 0c be
       -0.26605344 0.06639337 -0.15399067 -0.1369756
000380 a2 32 9d 3c ea b7 2b be 00 39 f6 bc 19 8d 58 3e
       0.019189183 -0.16769376 -0.030056477 0.21147574
000390 4d e5 74 bc 04 74 28 3e d6 72 71 bc b6 8a c6 bd
       -0.014947248 0.16450506 -0.014736852 -0.09694426
0003a0 0c ed f0 3d 01 c1 48 bd d4 a5 89 3d b3 52 3a 3e
       0.11763963 -0.049012188 0.06721082 0.1819561
0003b0 67 58 c3 be 14 87 aa 3d 1f 4d 96 3e c7 7f c3 bc
       -0.38153383 0.08326545 0.29355714 -0.02386464
0003c0 95 e8 d9 bc 4f 3a 86 bd 35 65 97 3d 68 4b 8c 3c
       -0.026600162 -0.0655409 0.073923506 0.0171258
0003d0 fb b2 8d 3e aa b3 86 be b5 09 55 be f6 25 f1 bd
       0.27675614 -0.26308948 -0.20804484 -0.117748186
0003e0 e3 c5 02 be 5f 83 0c 3e ac 4f 98 3d 20 cd 0b be
       -0.127708 0.13721989 0.07437071 -0.13652468
0003f0 10 81 8f 3e 4b cf 25 3d 1f 89 95 bd d7 a7 27 be
       0.28028154 0.040480893 -0.073015444 -0.1637262

fc1.bias f4 [32]
000000 b4 70 50 bd a7 44 10 3e fb 70 14 be 5a 38 89 3e
       -0.050888732 0.14088689 -0.14496224 0.26800805
000010 fa a0 0e bc d7 da 3b 3e 2f 61 52 3e f2 d9 f9 bb
       -0.008705372 0.183452 0.20544885 -0.007624858
000020 79 ff 7d 3e a9 2b f5 bd 03 19 ce bd 2c ce b3 bd
       0.24804486 -0.11971218 -0.10063364 -0.087795585
000030 04 94 f5 3c 9d 78 62 3d a1 d6 ca bd 92 91 0d bd
       0.029977806 0.055290807 -0.099042185 -0.034562655
000040 c7 db 2c be 19 3c c2 bd a7 44 27 be dd b8 cb bd
       -0.16880713 -0.09484119 -0.16334783 -0.09947369
000050 2d 44 8a 3e 06 a2 14 bd a7 14 83 bd 09 9d 46 3d
       0.2700514 -0.03628733 -0.064004235 0.048489604
000060 f6 70 97 3d 79 7b dc 3d 14 65 70 3e 87 2f a6 bd
       0.073945925 0.10765738 0.23476058 -0.08114534
000070 37 ed 19 3d 5d 9c c6 bc 93 81 d7 3d 7b bb e5 3b
       0.03757974 -0.024244482 0.10522761 0.007010875

fc2.weight f4 [64, 32]
000000 d5 3a 9d 3c 8e a2 81 3e 7a 68 04 3e 00 53 96 3d
       0.019193092 0.25319332 0.1293048 0.0734005
000010 c7 89 92 bd 05 c6 5d 3d e9 2d 0a be e3 ae f1 3d
       -0.07155185 0.054143924 -0.13494076 0.11800935
000020 92 2d 33 be d8 b9 0e bd f2 ec b9 3d 13 27 43 bd
       -0.17497852 -0.034845203 0.09078397 -0.047644686
000030 41 5c ef bc e9 ad 7d bd 3e 48 86 bc ec d6 d5 3d
       -0.029218795 -0.06193343 -0.01639187 0.10441384
000040 fd 9e 4a 3e c2 82 3a 3e bd 30 d5 3b 0d dd 2a 3e
       0.19787212 0.18213943 0.006506054 0.16685887
000050 d1 4d 3a 3e 66 a6 37 3e 20 cf 06 be 20 bf 09 3d
       0.18193747 0.1793457 -0.1316495 0.033629537
000060 60 16 87 3d 57 3b 82 bd 59 c0 14 be 01 5f 28 bd
       0.065960646 -0.063589744 -0.145265 -0.041106228
000070 7e b1 d2 bd c3 e0 6c bd e0 c8 34 3e dc 62 27 3d
       -0.1028776 -0.057831537 0.17654753 0.040865764
000080 62 ab 6e bd 94 17 44 be f7 3b 21 3e 10 d1 1c 3e
       -0.058268912 -0.1914962 0.15745531 0.15314126
000090 d5 54 b0 3e 9f a6 63 be 51 de 11 3d e2 42 9d 3e
       0.34439722 -0.2223153 0.035612408 0.3071509
0000a0 5b 70 2e 3e 7d 15 b6 bd f6 72 8b bd 90 c9 a6 3b
       0.17035048 -0.08890817 -0.068090364 0.005089946
0000b0 51 fd 5d 3e ea 9a 0c bd 14 19 0b be 4c 23 62 bd
       0.21678664 -0.034327425 -0.13583785 -0.055209443
0000c0 8b 24 4d bd 8c 68 9c 3d 9b cb e8 bd ae 8e 0d 3e
       -0.05008368 0.07637128 -0.1136696 0.13823959
0000d0 ce e2 8d bc 89 74 ef 3d ba 19 3a bc 0d e2 62 3e
       -0.017320063 0.11692149 -0.011358673 0.22156544
0000e0 59 ad b0 bd 4d d8 66 be 85 f3 2d 3d a8 e8 03 be
       -0.086268134 -0.2254345 0.042468566 -0.1288172
0000f0 e4 ee 39 3e 7d 78 3e bd e9 26 e0 bd a2 7f b4 3e
       0.18157536 -0.046501625 -0.109449215 0.35253626
000100 7d 01 cd 3c 4e 88 58 3e 51 c0 96 3a 30 fd 37 bc
       0.025025124 0.21145746 0.0011501407 -0.011229798
000110 6f 04 2b 3e 1e 4b 70 3e 87 f1 7f be 8a a4 a2 bd
       0.1670091 0.23466155 -0.24994479 -0.079415396
000120 25 f7 8d 3d 8b d0 c4 3d 6d 20 d1 3d 15 d2 50 3c
       0.06931905 0.09610089 0.10211263 0.0127454
000130 30 eb 23 be 22 70 cf 3c 92 9d 0d 3c 2f 74 80 bc
       -0.16007686 0.025322024 0.008643525 -0.0156804
000140 0d fb c2 bc c5 b8 3e be fb bb dd 3d 60 44 1c 3e
       -0.023801351 -0.18625171 0.1082687 0.15260458
000150 7a fc 45 3e 01 2b b0 3c b4 c8 2c 3e 05 a0 3b 3e
       0.19334593 0.02150488 0.16873437 0.18322761
000160 9f 89 00 3e db 33 00 3e 58 bc 0d 3e 95 f4 2b 3e
       0.12552498 0.12519781 0.13841379 0.1679252
000170 2d 70 61 3e 48 2e 21 3e 11 ed d9 bc 48 4d a9 3d
       0.22015448 0.15740311 -0.0266023 0.08266693
000180 cb d3 97 3c f5 cc 8d 3e 30 25 36 bd 5b ba 9c 3d
       0.018533608 0.27695432 -0.04446906 0.07652732
000190 52 2d 0b be 03 d4 9f bd 9c 14 04 bc e1 fb dd bd
       -0.13591507 -0.0780411 -0.008061554 -0.10839058
0001a0 8c 18 53 3e 6d 2c 70 ba a4 02 86 3d c5 de ad 3b
       0.20614833 -0.00091618934 0.065434724 0.005306097
0001b0 0a 84 3e bc 2f a5 dd 3b ee be 94 bc 93 58 b8 3d
       -0.01162816 0.006764076 -0.018157449 0.09001269
0001c0 bd 9e fa 3d c6 12 dd 3d f2 70 c1 3c 17 b7 5c 3e
       0.12237308 0.107945964 0.023613427 0.21554218
0001d0 67 43 1f 3e 33 b6 5d 3d 32 58 ab bd 8d 66 1e be
       0.15553056 0.054128837 -0.08366431 -0.15468808
0001e0 4c 1a 78 3d 3b 74 e2 3d 69 6c 2d be e7 01 6d 3e
       0.060571954 0.110573255 -0.16935886 0.23145257
0001f0 11 85 81 3d 7c db a3 bd 6d b8 e9 3d 33 d1 01 be
       0.063242085 -0.08000848 0.114121296 -0.1267746
000200 e1 a2 01 3d 8f 4a 1b 3e 50 a5 9a 3d 4a 00 2b be
       0.031649474 0.1516516 0.07551062 -0.16699329
000210 fb 39 d3 3c d8 4d 12 3e a4 cf 90 bd 33 09 7e 3d
       0.025784483 0.14287508 -0.07070854 0.06202049
000220 bf 1a 22 3d 01 f7 27 3d 27 b6 59 bd 57 e9 5c bd
       0.03957629 0.041007046 -0.05315223 -0.053933468
000230 2a 2c 29 be 57 97 86 3e fb d5 8a 3e f5 ac 11 3d
       -0.16520754 0.26287338 0.2711638 0.035565335
000240 ea 05 64 3e ee f2 dd 3d 0a d7 48 be 94 12 49 bd
       0.22267881 0.10837351 -0.19613281 -0.049089983
000250 41 f2 9a bd 1a d2 20 3c 67 03 e9 3d 55 5f 89 be
       -0.075657375 0.009815717 0.11377602 -0.26830545
000260 cc c8 9a bb 7e 1d 4f 3e cf 30 11 be af ed 3b bc
       -0.004723644 0.20226094 -0.14178775 -0.011470242
000270 b6 97 46 3e d3 24 cc 3d c2 81 e0 3d af bb 7f bc
       0.1939381 0.09967961 0.10962249 -0.015608712
000280 07 6e 2b 3d 21 9b 39 be bf e4 9d be f4 2f b6 bd
       0.041852977 -0.18125583 -0.30838582 -0.08895865
000290 fb 85 66 3e 29 e1 48 3e 29 a8 a9 3d de e7 6f bd
       0.22512047 0.19617142 0.08284027 -0.058570735
0002a0 80 ef cc 3e 48 d3 65 be bf c7 34 bc f6 5c 40 3e
       0.40026474 -0.22443879 -0.011033951 0.18785462
0002b0 27 e3 34 be b0 56 92 be 23 8e b6 bc ee a7 f2 bd
       -0.17664777 -0.28581762 -0.022284573 -0.11848436
0002c0 4e 38 f0 3d 5c b0 12 be 0e c1 1f bd 23 59 74 3e
       0.11729489 -0.14325088 -0.03900247 0.23862128
0002d0 be 2a 16 3d ee e6 21 3d 84 bd 0e bd dc af 93 3e
       0.036661856 0.039526872 -0.034848705 0.28845108
0002e0 a3 39 eb bd 91 fb b0 bd 46 5c 6e 3d 5d 4d 91 3d
       -0.11485603 -0.086417325 0.058193468 0.07094834
0002f0 ec df 5c be c0 a2 1b 3d fd 49 a4 3d f0 83 73 3e
       -0.21569794 0.037997007 0.08021925 0.23780799
000300 c9 64 84 3e a2 fb e7 3c 3c c4 3d bd 60 34 ae 3e
       0.25858143 0.02831823 -0.04632972 0.34024334
000310 c4 75 52 3e ad dd 52 be df f3 59 3d 7a a0 92 3e
       0.20552737 -0.20592375 0.05321109 0.2863806
000320 1f ed e6 3d 86 a3 8d 3d d6 e5 18 3d 4c cf 8d bd
       0.11275696 0.06915955 0.037328564 -0.06924304
000330 a1 5e 4e 3e 04 08 16 3e 4f d8 5f 3e 95 fc 9a bd
       0.20153286 0.14651495 0.21859859 -0.075677074
000340 6b a0 8d 3d eb fc c0 bd 0d 77 4b 3e 1d c6 c6 3e
       0.06915363 -0.0942324 0.19869633 0.38823023
000350 e9 b5 2c 3e 47 a8 f5 3d dd ac 00 bd e6 c7 7d 3d
       0.16866268 0.11994987 -0.031414855 0.061958216
000360 bf 58 19 3e a8 8c 5b bb 19 d6 96 3d 11 c9 40 3d
       0.1497526 -0.0033500586 0.07365055 0.047066752
000370 13 21 fe bc 38 6b 70 3d 41 47 04 3e 51 52 5e bd
       -0.03102163 0.058696 0.12917806 -0.05427772
000380 2e c8 97 bc 85 85 bc bd ab ab b3 3d af 30 93 be
       -0.01852807 -0.09205154 0.087729774 -0.2874808
000390 50 35 96 be a6 29 81 3d d5 ac 05 bd 40 28 13 be
       -0.2933755 0.06306772 -0.03263553 -0.14370823
0003a0 02 bb cb 3d ef 29 c7 3d 94 9c 66 3e 1f 5c 57 3d
       0.09947778 0.09724795 0.22520667 0.052578088
0003b0 eb 3d b6 bd ac f5 6f 3d cd 5a 23 be 77 47 80 3e
       -0.08898529 0.0585839 -0.15952606 0.25054523
0003c0 af 14 95 be 2c 19 87 3e 5f 8d 91 be 8e c8 22 3e
       -0.29117343 0.26386392 -0.2842817 0.15896818
0003d0 88 41 27 3e 0d fd 97 3e 5b d9 89 3e 5a 61 ba 3d
       0.16333592 0.2968525 0.26923642 0.091005996
0003e0 2e ef 8a be f8 cf 98 bd b1 d2 15 bd 33 33 7e be
       -0.27135605 -0.07461542 -0.036577884 -0.24824218
0003f0 4d 12 29 3e d9 91 2c 3e 39 f6 b8 3d 61 a4 0a 3d
       0.16510887 0.16852511 0.09031338 0.03384817

fc2.bias f4 [64]
000000 4a 54 09 be eb 41 68 3e 9e 59 8b bd 23 f6 fd bc
       -0.1341106 0.22681396 -0.068042025 -0.031001156
000010 26 17 ad bd 15 a0 12 be ed 37 62 3d a6 62 35 bc
       -0.08451681 -0.14318879 0.055229116 -0.011070883
000020 02 51 b4 3d 32 16 b8 3c 05 ae a8 3d e0 20 4f 3e
       0.088045135 0.022471521 0.082363166 0.20227385
000030 2f 3a 09 bd 54 bd 01 3e 58 32 10 be dd 66 38 bd
       -0.033502754 0.12669879 -0.14081705 -0.045019973
000040 e8 fc 2e bd a8 06 ce bd 1c 70 aa bd 4a 11 fc bd
       -0.04272166 -0.10059863 -0.083221644 -0.12307985
000050 f5 26 21 3e 90 8e ae 3c 08 62 d6 3d 33 6c 49 be
       0.15737517 0.021308213 0.10467917 -0.19670181
000060 6a 6b a6 3a 3d 73 b6 bc 45 ba bf bd 75 97 a0 3d
       0.0012696807 -0.022271747 -0.093617 0.07841388
000070 03 85 01 3e 83 f4 5f 3d f8 1a af 3d fa c2 f0 3c
       0.12648396 0.054676544 0.08550066 0.029389847
000080 f4 16 2c 3e 4d a2 03 be 5c 5a 3f bc 3f 96 03 3e
       0.16805631 -0.12854882 -0.011679258 0.12850283
000090 13 2c 49 3e d2 e8 18 3e 17 25 ea bd 3d d7 05 be
       0.19645719 0.14932564 -0.114328556 -0.13070388
0000a0 6b 9f 70 3e af 2b 70 bc 39 2e be bc 51 45 2d bd
       0.23498313 -0.0146588525 -0.0232154 -0.042302433
0000b0 ba 5a e1 3d 00 d5 a8 3d 96 ef 1e 3e 59 4b 11 3d
       0.11003633 0.082437515 0.15521082 0.035472248
0000c0 f4 ae ad 3c b1 cf 21 bc d2 f6 78 3e af a3 bf bd
       0.021201588 -0.009876178 0.24312904 -0.09357392
0000d0 61 45 14 3e d6 45 81 bd d9 71 99 bc bd a2 35 3e
       0.14479591 -0.06312148 -0.018731045 0.17737861
0000e0 f6 39 17 bd 48 c4 6a bd 66 4d bc 3b 0f c8 08 3e
       -0.03692051 -0.057316095 0.0057465313 0.13357566
0000f0 21 af cb 3d 99 f4 c2 bd 8e 35 43 3d 33 b2 77 bc
       0.099455126 -0.095193096 0.047658496 -0.01511817

fc3.weight f4 [64, 64]
000000 fc 0a cf 3b f9 4d 94 bd c2 63 f7 3c 99 f9 02 be
       0.006318448 -0.072414346 0.030198935 -0.12790526
000010 e8 68 ac bd f3 99 7d bd e2 b1 a1 3d 6b df ce 3c
       -0.08418447 -0.061914396 0.078952566 0.025253018
000020 d8 ab a7 bd ce 52 37 3c f5 fd ec 3d 39 a0 f0 bd
       -0.081870735 0.011189176 0.11571876 -0.1174931
000030 eb eb c5 3d 32 88 b2 3d 3b cf 79 bb b5 9a 83 bd
       0.096641384 0.087173834 -0.0038117904 -0.064259924
000040 3b 0d 6a 3d 71 81 46 3d 32 50 5e bd 4a c5 98 bd
       0.057141524 0.04846329 -0.0542757 -0.07459505
000050 da 1b aa bd 59 6f 56 bd b2 4d a0 3c ed 68 5d 3d
       -0.083060935 -0.052352283 0.019568298 0.054055143
000060 e4 6e 8d bc 69 4c ca 3d 74 ee de 3c 49 85 35 3d
       -0.01726479 0.09877855 0.027213313 0.044316564
000070 57 15 95 bd b3 23 32 bd 47 b9 9f 3d 69 0c 6e 3d
       -0.07279461 -0.043491077 0.07799011 0.058117304
000080 67 43 85 bc ea 8d aa bd b2 07 00 be 19 ef 6f 3b
       -0.016267492 -0.08327849 -0.12502936 0.003661102
000090 a7 d6 b5 bd 59 ec ea bc 60 8c aa bc 6b 86 f4 bd
       -0.08878832 -0.028677152 -0.02081889 -0.11939701
0000a0 cb a3 9e 3d fd 2f d3 bc c5 5d fe bd 25 ba e9 bd
       0.07746085 -0.025779719 -0.12420229 -0.114124574
0000b0 a5 89 d7 bd 65 c6 5a bd 2e 40 46 bc bb 2c 2c 3d
       -0.105243005 -0.05341186 -0.012100263 0.042034846
0000c0 ef a0 49 bc 98 39 fc bd e3 3f d2 bd 57 ed 83 bd
       -0.012306436 -0.12315673 -0.10266092 -0.06441753
0000d0 39 6f c9 3d 59 12 04 bc 86 82 ec bd 23 4e 57 bd
       0.09835667 -0.008061015 -0.11548333 -0.05256475
0000e0 bd dd b5 bd d7 05 02 3c a3 b4 a8 bc a1 b6 03 bd
       -0.08880184 0.007935963 -0.020593947 -0.03215659
0000f0 fa 7d b3 3d d4 5d a3 bd 17 61 08 3c 97 5b 3e bd
       0.087642625 -0.07976881 0.008323929 -0.046474066
000100 76 ee 50 3d c5 33 bb bd 87 86 d2 bb 3e 62 80 3d
       0.051008664 -0.09140734 -0.0064247283 0.06268738
000110 ba 65 bd bd 22 18 89 bd ef 40 d4 3c 17 f1 03 be
       -0.092479184 -0.06694056 0.025909869 -0.12884937
000120 7a 78 29 bd 01 17 d9 bb c1 17 56 3b 95 f9 17 bd
       -0.04137466 -0.0066250567 0.0032667967 -0.037103254
000130 13 74 8a 3c 65 4b 98 bd 36 75 b1 3b 59 14 d6 bd
       0.016901052 -0.07436255 0.005415584 -0.104531
000140 19 90 da 3d ae 8c 18 3e 29 d8 c9 bd 48 aa e5 bd
       0.10672016 0.14897415 -0.098556824 -0.11214119
000150 09 32 04 3e 09 4d 4a 3e 56 96 cf 3d 68 25 65 bd
       0.12909712 0.19755949 0.10136096 -0.055943877
000160 8d 44 53 3d 31 5e 0f 3d b2 48 09 3e fb ef aa 3d
       0.051579047 0.035001937 0.13406637 0.08346554
000170 2e 54 6c 3d 43 64 b7 3d 80 7f 7f bd 2e 56 18 3d
       0.057697468 0.0895467 -0.062377453 0.037191562
000180 59 d7 d6 bd dc f9 dd 3d 91 b6 e1 bd a9 bc a3 bd
       -0.10490293 0.108386725 -0.1102115 -0.079949684
000190 18 fb d6 bd 16 1a e7 bc 66 5b 4b 3b 6b 3f 88 3b
       -0.10497111 -0.028210681 0.003102982 0.0041579506
0001a0 27 bc 8e 3d 6f 2a 0f bc 6f ab 4f bd 5a cb a9 bc
       0.06969481 -0.008738144 -0.0507006 -0.020726848
0001b0 30 b6 da bc ac e8 98 bc df 16 ab 3d 90 88 98 3d
       -0.026698202 -0.018665634 0.08353972 0.07447922
0001c0 0e 2d 9f bd 61 a1 e1 bb 81 31 fb ba 6a 47 62 3d
       -0.077722654 -0.006885693 -0.0019164534 0.055243887
0001d0 0f 9b 5b bd 3b 02 85 3c 51 54 29 be ec 57 0f 3d
       -0.053614672 0.016236415 -0.1653607 0.03499596
0001e0 c9 1a 09 3e 1e 50 7a bd a3 e2 2b bc 82 35 18 bd
       0.13389124 -0.061111562 -0.010491046 -0.037160404
0001f0 ed 2d 2a 3c 8c 50 9b bd a3 1d 93 3d 69 5d 83 bd
       0.010386926 -0.075837225 0.07183387 -0.06414301
000200 14 8e fe bd fb 1f ac 3e 85 2d 9a bd 37 39 14 3d
       -0.12429443 0.3361815 -0.075282134 0.036187377
000210 36 00 46 bd ea 25 bb 3e 7e e2 75 bb fb bb 5d be
       -0.048340045 0.36552364 -0.0037519033 -0.2165374
000220 db 74 37 3d e0 47 14 be bc 16 e3 bd 17 c0 95 3d
       0.044789176 -0.14480543 -0.110883206 0.07312029
000230 0f e5 a6 3d da 5a 35 be ff 85 2c bb b2 26 72 3e
       0.08149158 -0.17710438 -0.0026324985 0.23647574
000240 48 2b f4 3d 9f 1c 95 bd f8 95 a8 3e 6d 6d 39 3c
       0.11922318 -0.0728085 0.32926917 0.011317593
000250 e8 ab cc bc e2 fd 8f 3e 85 f4 a8 3e ec 7e 6c be
       -0.024984315 0.28123385 0.32999054 -0.23095292
000260 a9 9b c7 bc 59 ff 99 3d ba 35 e6 3d 08 b6 ce 3d
       -0.024366217 0.07519407 0.11240716 0.100933135
000270 28 96 b5 3d 14 8c 9d bc 86 cb 89 3d 12 61 6e bd
       0.08866531 -0.019231834 0.06728272 -0.058198042
000280 bb 10 9c 3e 11 96 0d be a7 52 c2 bd 16 03 f6 3d
       0.30481514 -0.13826777 -0.09488421 0.12012307
000290 1f d9 47 3d 6e c2 47 3e 14 06 33 bd 84 2d 15 bd
       0.048791047 0.19507763 -0.04370697 -0.03642036
0002a0 f3 69 87 bc 53 6c e7 bd 05 77 02 3c e7 2c 2c 3e
       -0.016530013 -0.11299958 0.007962947 0.16814004
0002b0 f2 f6 8b 3d 61 81 f8 3d ac 91 35 3c 00 9b 42 3d
       0.068342105 0.12134052 0.011082094 0.0475111
0002c0 fe 2f 9c bd 93 5f 33 be df 37 f5 3d 75 16 43 3e
       -0.07626341 -0.17516927 0.11973547 0.19051535
0002d0 10 c7 95 bd fc 03 90 bd 95 c1 f8 bd 13 b1 4d 3d
       -0.07313359 -0.0703201 -0.12146298 0.0502177
0002e0 a0 39 a9 bd 3d 30 48 be c5 3d b7 3c 0b 47 10 3e
       -0.08262944 -0.19549651 0.022368321 0.140896
0002f0 9e 1a 63 bd bf 2a 16 bd 16 63 86 bd ce aa bd 3a
       -0.055445306 -0.03666186 -0.06561868 0.001447046
000300 29 b0 de 3c a5 21 8e bd 7c 20 ee 3d 61 61 1e bd
       0.02718361 -0.06940011 0.1162729 -0.038667087
000310 19 b7 ed 3d eb 3d 2d 3c eb 7f 9d bd 32 9b be 3b
       0.11607189 0.010573844 -0.07690414 0.0058168406
000320 b1 33 6d 3e a7 f4 9e 3d d8 0e a5 3d 88 97 a8 3d
       0.2316425 0.077615075 0.08059472 0.08232027
000330 e4 ac c5 3d 79 e2 68 bd fb ca b7 3d d3 6f 98 3d
       0.09652117 -0.056856606 0.08974262 0.07443204
000340 ad c7 7b 3e 85 ae 31 3e 90 88 dd 3d 16 98 5d 3d
       0.24587889 0.1735173 0.10817063 0.05410012
000350 51 fa bc 3d 76 81 12 3e c8 03 80 bd b1 46 f3 bb
       0.092274316 0.14307198 -0.06250721 -0.0074241986
000360 f5 80 4e bd bf af 11 3e 1e 47 d8 3e 6d db 89 3d
       -0.05041595 0.14227198 0.42241758 0.06731305
000370 59 24 3f bd ff de 24 3e 22 99 1c 3e e0 ed e8 3b
       -0.046665523 0.16100691 0.1529279 0.007108435
000380 e2 41 77 bd 11 eb 64 3c 2f 5b 3c 3e d4 dc 4e bd
       -0.060365565 0.01397206 0.18394159 -0.050503567
000390 81 43 09 3c f8 c1 4e 3c df b9 c4 3e 1c 82 a2 bc
       0.008377911 0.012619488 0.38423058 -0.019837432
0003a0 3b 57 fe bd 60 8e a3 3d 89 54 81 3d 13 d4 d2 be
       -0.12418982 0.0798614 0.06314952 -0.41177425
0003b0 2d 4c ca bd e7 3c 0a be 31 c3 e5 3d d8 f1 0e 3e
       -0.098778106 -0.13499795 0.112188704 0.13959444
0003c0 59 d2 31 3e 2e bf 1c be a9 32 bd 3c 47 1f 0b be
       0.17365398 -0.15307304 0.023095446 -0.1358615
0003d0 21 a8 13 3d c6 f7 04 3d 07 aa 86 3c 52 b9 a4 be
       0.036049012 0.032462858 0.016438497 -0.32172638
0003e0 78 35 80 bd f1 a1 ae bd 00 50 f4 3d be ef d9 3d
       -0.06260198 -0.085269816 0.11929321 0.1064143
0003f0 ac f2 82 bd be fa 12 bd db 9f 48 3e 1a 5e b5 3d
       -0.06393942 -0.035883658 0.1959223 0.08855839

fc3.bias f4 [64]
000000 4e 68 00 be 57 18 47 bb 19 9d c7 3d f8 84 aa bc
       -0.12539789 -0.0030379498 0.09746761 -0.020815358
000010 d0 2a 03 3d f2 23 c9 3d 63 4f 9a 3d 1d b9 50 3d
       0.03202325 0.09821309 0.07534673 0.050957788
000020 eb eb 99 bc 73 57 da 3d b5 c4 7e 3d e0 19 91 bd
       -0.018789252 0.10661211 0.062199313 -0.070850134
000030 50 fb 8b bd 53 de 7a 3d dc 73 24 3e 16 ef bf bc
       -0.068350434 0.06124718 0.16059822 -0.023429435
000040 db ad 8b 3d b1 00 e3 3d ad 7f 1e 3c 9b 93 f6 3d
       0.0682027 0.11084116 0.009673995 0.12039872
000050 f0 4d 37 3e 7b 1a d7 3d 38 1c 00 3e 2a aa 55 bd
       0.17900825 0.105030976 0.12510765 -0.052164234
000060 67 c6 e2 bd 47 54 04 bd db 5e 23 3c c6 ce 69 3d
       -0.110729985 -0.032306936 0.009971346 0.05708196
000070 f5 b2 8b bc a9 12 29 3d e1 2b c0 bd c9 e8 0f 3e
       -0.017053107 0.04127756 -0.09383369 0.14053644
000080 d2 f3 1a be af f2 0e 3e e9 37 06 3e 25 74 89 3d
       -0.15132073 0.13959764 0.13107266 0.06711606
000090 22 68 ce 3d 85 3b af 3d 75 ca a1 3d b6 50 d0 3d
       0.100784555 0.08556274 0.07899944 0.101716444
0000a0 48 41 bb 3c f0 5e dd 3d b6 47 d3 3d 8f 96 dc 3d
       0.022858277 0.108091235 0.10316412 0.10770904
0000b0 2b a8 ac bd 80 4b 69 3d c4 97 9a 3d 94 d8 cc 3d
       -0.08430513 0.056956768 0.07548478 0.100022465
0000c0 5c d1 ee 3d 69 ce f1 3c ed 15 6f bd 5b 68 fa 3c
       0.11661026 0.02951737 -0.05837052 0.030567339
0000d0 60 0a 44 3d 42 95 18 3e 22 f0 55 bc 14 62 2a bd
       0.047861457 0.14900687 -0.01305774 -0.04159744
0000e0 d2 65 6b bd 5d 23 ae 3c 4f 43 14 3e 17 41 25 3e
       -0.05747015 0.021257097 0.14478801 0.16138111
0000f0 69 1c c7 3c 92 ce c9 3d fa 7d 33 3d 62 da 3b bc
       0.02430554 0.09853853 0.043821312 -0.011465641

fc4.weight f4 [2, 64]
000000 3b e3 8e bd 66 b6 5d 3d f4 fa 55 3c 32 30 65 3e
       -0.069769345 0.054129027 0.01306032 0.22381666
000010 f5 e4 4e 3e c8 93 0c 3e 3a b2 8b 3e ba 24 f8 bd
       0.20204528 0.13728249 0.27284414 -0.1211638
000020 03 a3 60 3e 86 c3 8a 3e fd fb ea bd 18 a0 37 3e
       0.21937184 0.27102298 -0.11473844 0.17932165
000030 a6 2c 68 3e 3f bc 55 bd d3 3f cc 3b 57 fe 2f bd
       0.22673282 -0.05218148 0.0062331944 -0.042967167
000040 59 1e a3 3e 46 37 15 be 3b 30 f1 be b0 97 aa be
       0.3185909 -0.14571866 -0.4710711 -0.33318853
000050 24 12 b9 be b0 b3 74 bd e5 fe 9a be d0 09 d0 be
       -0.36146653 -0.059741676 -0.30272594 -0.40632486
000060 b6 6a 8e 3e cf c6 10 be 0a 47 b6 be ca 80 47 3e
       0.2781579 -0.1413834 -0.35601074 0.19482723
000070 12 9c bc bd 3f eb 3c 3e 06 76 b4 bd 7c 53 a8 be
       -0.092094555 0.18449114 -0.08811574 -0.32876194
000080 93 37 e2 3d f2 4a 00 3d a6 db 5c be 5b 5a 97 be
       0.11045756 0.031321473 -0.21568164 -0.29561123
000090 ce bd 06 3d 08 44 e9 3c ba ed 62 bd cc 63 27 3e
       0.032895856 0.028474823 -0.055402495 0.16346663
0000a0 36 97 da be 91 f2 7f bd 6a 3a 42 3e 87 09 05 be
       -0.4269349 -0.06248719 0.18967596 -0.12991916
0000b0 bb 47 fb 3d 45 40 0b 3e 05 95 72 be 2e f4 72 3e
       0.12269541 0.13598736 -0.23689659 0.2372596
0000c0 46 b6 39 3e 1a e9 81 3e c6 d4 1d 3e 81 4c 93 3e
       0.18135938 0.25373155 0.15413198 0.28769305
0000d0 11 3c 39 3e 72 b8 f3 3d 93 a0 43 be 20 ac ca be
       0.1808932 0.119004145 -0.19104223 -0.39584446
0000e0 4f 04 2e be 0a 56 e7 bd cf be 56 be ac 15 02 be
       -0.16993831 -0.112957075 -0.20971225 -0.1270358
0000f0 10 16 73 be b7 6d 49 3e aa 5a c7 be 7c e5 97 3d
       -0.23738885 0.19670759 -0.3893636 0.074168175
000100 04 f0 9b bd 47 4a 13 be 5b d6 b2 3e 4e 19 82 bb
       -0.07614139 -0.14383803 0.34929165 -0.0039703017
000110 55 cf 6b be 11 6c 38 be cb 0a c5 bd 00 67 7d 3e
       -0.2302831 -0.18009974 -0.09621199 0.24746323
000120 85 41 3d 3d 58 c6 08 be ad f2 48 3e 0a a8 3d be
       0.046205062 -0.13356912 0.19623823 -0.18521133
000130 2b 04 78 be 0d 2a 64 3e ea af 9c 3e e5 20 4c 3f
       -0.2422034 0.22281666 0.30602962 0.79737693
000140 58 1c d5 3e 70 1c 42 be ea 7c 3f 3e 85 02 89 3e
       0.41623187 -0.1895616 0.18699995 0.26759735
000150 08 9a 78 3e be 8e a7 be a5 47 97 be e2 ca b5 3e
       0.24277508 -0.3272609 -0.29546848 0.3550635
000160 e8 7d f4 3e 81 26 e6 be e3 1d fc bd cd f1 0d 3e
       0.4775231 -0.4495125 -0.12310388 0.13861771
000170 75 b2 9e be 25 d9 9c bd 40 28 83 3d 9b 1a 25 3e
       -0.30995527 -0.076586045 0.064041615 0.1612343
000180 85 9d 40 be 1d cc 36 3e f3 66 98 3e 1e 19 c0 3d
       -0.18810089 0.178513 0.29766044 0.09379791
000190 b7 25 7e be 32 f3 90 be bf f1 66 3e e7 dd e3 3d
       -0.24819075 -0.28310543 0.22553156 0.11126309
0001a0 bf f8 98 3e 1e 24 9b 3e 6c a5 7a be af 9c 80 3e
       0.29877278 0.30300993 -0.24477166 0.2511954
0001b0 b5 20 ef bd f9 65 49 be 1b 11 9e 3e c7 be d8 bd
       -0.1167616 -0.19667806 0.30872425 -0.10583263
0001c0 d9 d9 90 bd 58 4a 36 3d 2a c3 69 be 82 3c 12 bc
       -0.07072801 0.044504493 -0.22828355 -0.008925559
0001d0 6a a7 40 be 7a fb 3d 3e ac 92 56 3e b2 01 23 3d
       -0.18813863 0.18552962 0.20954388 0.03979654
0001e0 cb e3 d6 be 98 d7 04 be 71 a3 77 bf 7a da 80 3e
       -0.41970667 -0.12972867 -0.96733767 0.25166684
0001f0 be ad 6e 3e d7 27 83 3d 29 15 ee bd 7c f6 90 be
       0.23308465 0.06404083 -0.1162513 -0.28313053

fc4.bias f4 [2]
000000 cf 3c 21 3c a5 3f 13 3e
       0.009841158 0.14379747
