checkpoint_critic.pth (torch_old, 46756 bytes, 9 tensors)

fcState.weight f4 [32, 24]
-0.018919202 0.09743933 0.038943045 0.11255528 0.76756436 0.06936625 -0.04049462 -0.042045888
0.06935695 0.009714059 0.01076741 -0.017833428 0.30047554 0.030521855 -0.002437697 0.053247087
0.1256475 0.20772628 -0.027906545 0.07069122 -0.591262 0.2618191 0.034388766 0.019168554
0.072616 -0.055345993 0.08936979 0.16004425 -0.24365517 -0.122244574 -0.08625901 0.14187029
0.075361796 0.06272327 0.02007673 0.14287202 0.051754504 -0.14604987 -0.03519593 0.12453812
0.031789783 -0.22610076 0.07309306 0.08915936 0.24148957 0.13711123 0.07250944 0.018820008
0.044279963 0.5628578 0.081708856 -0.21792856 0.44234684 0.20141731 -0.07697902 -0.3641346
-0.08350451 0.76293504 -0.014044121 0.033301342 0.3068048 -0.15756243 0.022999141 0.040514573
0.18242243 0.5489357 0.12316885 -0.3919995 0.049907036 -0.08461735 -0.13049752 -0.022688732
-0.1905007 -0.09965475 0.022143722 0.27539048 -0.10526588 -0.46829063 -0.013974435 0.1103913
0.13448174 -0.074020684 -0.11603648 0.20249243 0.1589702 -0.29263026 0.06806495 0.24129824
-0.1625937 -0.2775212 -0.08435156 -0.38720244 0.4334402 0.060819954 0.057468053 -0.13457741
-0.129264 -0.19869028 0.039858237 -0.17282261 0.017474275 0.08908084 -0.017994752 -0.021016164
0.2513027 0.15153813 -0.015615692 0.1971412 -0.09714868 -0.06687508 0.044020403 -0.10413428
0.026681902 0.101913296 -0.12239609 -0.2205608 0.028511893 0.12037986 -0.008248245 -0.07139604
0.07718757 0.23498517 -0.052805822 0.028716844 0.16336648 -0.17682007 0.051922828 0.014657787
-0.14519352 -0.18673322 -0.10774318 0.06288244 -0.12799989 -0.18841532 0.10972842 0.10252831
-0.001234018 -0.14158121 0.027775243 -0.023134353 -0.48307964 -0.18092597 -0.03765931 0.08627151
0.010518632 0.5526327 -0.11424989 0.17367728 0.19287136 -0.081975244 0.11577204 -0.00087060255
-0.17800319 0.53151596 -0.1257596 -0.0959506 0.041843142 -0.4239864 0.13188319 0.15148419
-0.3103256 0.5047152 0.06563166 0.055673156 0.2846059 -0.9278123 -0.07115018 0.24574167
-0.049416468 -0.26017487 0.03645937 0.048006956 0.105934255 0.033159617 -0.031126123 0.025762271
-0.20757718 0.0022897057 0.02979156 0.055868674 -0.14705636 -0.039945405 -0.039813638 0.024126383
-0.21391295 0.10694567 -0.08985693 0.09286778 0.44479537 -0.032307874 0.05944331 -0.15535754
0.3479576 0.09255694 -0.11773022 0.046957914 0.27344942 -0.3820244 0.030770456 0.3010083
0.024588412 -0.18878716 -0.053916316 0.0692533 0.10382479 -0.016813306 0.10728394 0.17823943
0.09944178 -0.21902801 -0.040530503 0.033353727 0.2763739 -0.088324964 -0.028678203 0.14869413
-0.098335825 -0.28470477 -0.05448247 0.20308009 -0.13217652 0.09899582 0.0783835 0.1613204
0.0036992473 -0.25885 -0.051530425 0.25629625 0.07140048 -0.3458903 0.042746082 0.12017393
0.109161206 -0.15987536 -0.022337545 -0.1606358 -0.0326958 -1.0732636 -0.016693028 -0.25333536
-0.0874376 0.0060998704 -0.14546104 -0.21198885 0.2831886 0.36922872 0.14001459 0.07120026
-0.1662221 -0.10577105 0.010204173 -0.053189892 0.1438161 -0.21828325 -0.007383482 0.07459092
00000000: 71fc 9abc 458e c73d be82 1f3d 6283 e63d
00000010: 197f 443f e40f 8e3d b0dd 25bd 4f38 2cbd
00000020: 040b 8e3d b727 1f3c ca69 303c 6917 92bc
00000030: eed7 993e f808 fa3c c5c1 1fbb 9e19 5a3d
00000040: bda9 003e 33b6 543e 449c e4bc 8fc6 903d
00000050: f25c 17bf 270d 863e 3cdb 0c3d 5f07 9d3c
00000060: b3b7 943d 7bb2 62bd 8207 b73d a4e2 233e
00000070: be80 79be 5d5b fabd 90a8 b0bd 7246 113e
00000080: 4957 9a3d 0f75 803d f477 a43c 0b4d 123e
00000090: 88fc 533d 198e 15be 9c29 10bd d80d ff3d
000000a0: 0136 023d f586 67be d0b1 953d 2f99 b63d
000000b0: 0b49 773e e366 0c3e d47f 943d 6b2c 9a3c
000000c0: e85e 353d 7317 103f f956 a73d aa28 5fbe
000000d0: 497b e23e 5740 4e3e 2da7 9dbd da6f babe
000000e0: 6a04 abbd b64f 433f 5019 66bc fd66 083d
000000f0: 8515 9d3e 0c58 21be b268 bc3c 9cf2 253d
00000100: f2cc 3a3e 0d87 0c3f f33f fc3d 29b4 c8be
00000110: 526b 4c3d dc4b adbd 24a1 05be b8dd b9bc
00000120: 9e12 43be ca17 ccbd c066 b53c fbff 8c3e
00000130: a395 d7bd cac3 efbe 07f5 64bc d514 e23d
00000140: 95b5 093e 2898 97bd 89a4 edbd 2d5a 4f3e
00000150: 16c9 223e a2d3 95be a365 8b3d e316 773e
00000160: f77e 26be 4217 8ebe 83c0 acbd 663f c6be
00000170: e0eb dd3e 581e 793d 9f63 6b3d a9ce 09be
00000180: c85d 04be 7775 4bbe 6442 233d 69f8 30be
00000190: 3626 8f3c 0470 b63d bb69 93bc 172a acbc
000001a0: bfaa 803e d02c 1b3e f6d8 7fbc 62df 493e
000001b0: e3f5 c6bd cdf5 88bd bd4e 343d 5a44 d5bd
000001c0: 0194 da3c ebb7 d03d cdaa fabd b1da 61be
000001d0: c691 e93c b789 f63d a623 07bc 1638 92bd
000001e0: 8414 9e3d f49f 703e eb4a 58bd 963f eb3c
000001f0: 8b49 273e 5210 35be 08ad 543d 3727 703c
00000200: 9cad 14be fe36 3fbe 75a8 dcbd 82c8 803d
00000210: 6712 03be f2ef 40be 4bb9 e03d 5dfa d13d
00000220: c6be a1ba aafa 10be e888 e33c 4184 bdbc
00000230: 3756 f7be a844 39be a640 1abd 1eaf b03d
00000240: 5756 2c3c 5679 0d3f d9fb e9bd 75d8 313e
00000250: 1280 453e a3e2 a7bd e419 ed3d 2639 64ba
00000260: 7846 36be 6e11 083f 20c7 00be c081 c4bd
00000270: b763 2b3d bf14 d9be 630c 073e ac1e 1b3e
00000280: ffe2 9ebe 0435 013f e469 863d 8909 643d
00000290: ddb7 913e 1b85 6dbf 30b7 91bd b4a3 7b3e
000002a0: ec68 4abd a435 85be 6c56 153d f1a2 443d
000002b0: 0ff4 d83d 61d2 073d 36fc febc 660b d33c
000002c0: 1d8f 54be e30e 163b 6e0d f43c 8dd6 643d
000002d0: f195 16be cb9d 23bd a013 23bd b1a4 c53c
000002e0: ff0b 5bbe 5506 db3d e906 b8bd 7631 be3d
000002f0: 38bc e33e 4355 04bd d47a 733d 0c16 1fbe
00000300: 8027 b23e 7e8e bd3d 8b1c f1bd f156 403d
00000310: 9001 8c3e b498 c3be 5312 fc3c c31d 9a3e
00000320: a36d c93c 6c51 41be 5bd7 5cbd add4 8d3d
00000330: 17a2 d43d 0fbc 89bc afb7 db3d 6684 363e
00000340: 22a8 cb3d e148 60be 5003 26bd eb9d 083d
00000350: e180 8d3e b8e3 b4bd 8dee eabc 4643 183e
00000360: 4b64 c9bd d3c4 91be 0329 5fbd 3af4 4f3e
00000370: 4859 07be 52be ca3d 8787 a03d 2d31 253e
00000380: 126f 723b fd87 84be 9111 53bd 4339 833e
00000390: 6a3a 923d 8918 b1be 8416 2f3d c01d f63d
000003a0: e98f df3d 5eb6 23be 3afd b6bc b67d 24be
000003b0: 08ec 05bd b460 89bf d1bf 88bc 2cb5 81be
000003c0: 7c12 b3bd 6ce1 c73b bdf3 14be 9b13 59be
000003d0: 19fe 903e 8c0b bd3e fc5f 0f3e 71d1 913d
000003e0: 2036 2abe 7e9e d8bd 672f 273c a5dd 59bd
000003f0: 8744 133e a585 5fbe 23f1 f1bb 20c3 983d

fcState.bias f4 [32]
0.4090572 -0.19073223 0.33309257 0.18838482 -0.038953166 -0.2645655 0.71496207 -0.16164862
-0.17600845 0.71363276 0.4241341 -0.18624367 -0.104828894 -0.14879538 0.34764537 0.4245911
-0.50051284 -0.15597512 0.3011688 0.19878292 -0.3502546 -0.24253355 -0.39602545 0.15572537
-0.23081897 -0.21390557 0.2421831 0.004123791 -0.0065856082 -0.60887986 -0.08964581 -0.39547604
00000000: f26f d13e 4f4f 43be 1c8b aa3e f3e7 403e
00000010: 5b8d 1fbd 2175 87be c107 373f 3787 25be
00000020: 8f3b 34be a3b0 363f 1b28 d93e a9b6 3ebe
00000030: 88b0 d6bd d15d 18be 93fe b13e 0164 d93e
00000040: 9c21 00bf f1b7 1fbe cc32 9a3e c08d 4b3e
00000050: 9254 b3be b75a 78be d9c3 cabe 7976 1f3e
00000060: cf5b 6cbe 100a 5bbe d9fe 773e de20 873b
00000070: 16cc d7bb 8ddf 1bbf 3998 b7bd d67b cabe

fcAction.weight f4 [16, 2]
-0.85899657 0.28613168 -0.4535953 -0.13552028 -0.35780695 -0.07931019 0.9012453 0.05698734
0.6998292 0.78066313 0.6651537 -0.2436904 -0.7363298 -0.41255254 -0.3708446 0.25681967
-0.11463005 -0.50340897 0.09124223 -0.45005065 0.52736956 0.47915804 -0.20756081 0.4222362
0.14732246 0.25265175 0.15251817 -0.04552285 -0.38021 0.16606857 -0.048810527 0.2830025
00000000: 33e7 5bbf da7f 923e a53d e8be d4c5 0abe
00000010: 7932 b7be 626d a2bd 03b8 663f 8f6b 693d
00000020: 0228 333f 8ad9 473f 8347 2a3f fa89 79be
00000030: 1c80 3cbf 163a d3be 58df bdbe de7d 833e
00000040: 29c3 eabd 69df 00bf 35dd ba3d 0a6d e6be
00000050: b101 073f 3454 f53e d28a 54be 582f d83e
00000060: b3db 163e 925b 813e b92d 1c3e 2b76 3abd
00000070: e3aa c2be e10d 2a3e 8ced 47bd b4e5 903e

fcAction.bias f4 [16]
-0.49721792 0.68995655 0.5159975 -0.15995978 -0.9227891 0.38059545 -0.16951123 0.73374224
-0.65381974 0.56158626 -0.0629467 0.21445155 0.6426646 0.6479327 0.1603337 -0.3682464
00000000: 5993 febe fea0 303f 6a18 043f 7fcc 23be
00000010: e83b 6cbf 68dd c23e 5a94 2dbe 88d6 3b3f
00000020: bb60 27bf 1ec4 0f3f 33ea 80bd 3099 5b3e
00000030: ab85 243f ebde 253f 842e 243e cb8a bcbe

fc2.weight f4 [128, 48]
-0.41041073 -0.07127982 0.39936623 0.04580118 0.033579 0.13121235 0.30807972 0.060537484
0.035602286 0.007285801 0.121422745 -0.1107463 -0.1678353 -0.53365684 -0.06948385 -0.2656009
-0.70948946 0.2765692 0.46358898 0.15236777 0.050036095 -0.07723829 -0.7363959 -0.05442141
0.054552678 -0.4388864 0.118896544 -0.3294205 0.020567682 -0.32154566 0.10408545 -0.054662995
-0.034593474 -0.11653418 0.0198888 -0.3126757 -0.521056 0.07568838 -0.23209605 -0.076667145
-0.025519036 0.03582694 0.028157763 -0.19821201 0.13007306 -0.030824658 -0.3019304 0.064933315
0.13412625 -0.09110733 -0.3704546 -0.18622449 -0.03606237 -0.33996645 0.013021654 0.010545762
-0.12944318 -0.10023942 -0.116887145 0.046047177 -0.2164757 0.399587 -0.13582012 -0.49117813
0.12822218 -0.50633425 0.2562832 -0.7136252 -0.11153178 -0.49293953 -0.19715478 -0.4573106
-0.1383602 0.114887945 -0.01842764 -0.5079997 0.17898092 0.10991704 -0.15924363 -0.23061445
0.5805884 -0.025522113 0.006829254 0.11211286 -0.15313084 -0.3973526 -0.2557758 0.007353952
0.09293407 -0.27152365 -0.020400906 0.14328364 0.010662293 -0.114091404 -0.2189713 -0.08367572
0.360147 0.03316787 0.0032413378 0.020451786 0.07143636 -0.3561289 0.037057705 0.020402052
0.061115295 0.21003199 0.0008529587 0.004300353 -0.04604518 -0.5740778 -0.056736898 -0.0400343
0.23132122 0.18062726 0.02092684 -0.11362498 -0.016343428 0.072111614 -0.0885024 -0.252357
0.00552637 -0.053904004 -0.056528978 -0.13106765 0.23711057 0.11773535 -0.07831177 0.041590996
0.21585919 0.020065095 0.06387721 0.037946064 -0.048324544 0.09790029 -0.15011218 0.15297277
0.101806626 0.097161666 0.044891372 -0.11248223 0.13431709 0.21032214 0.10749327 0.04404198
-0.6113933 -0.17021154 -0.043378968 0.36850145 0.022347474 0.074651174 -0.06535475 -0.38171247
0.26076928 -0.05249286 0.2165004 -0.25663057 -0.19478053 -0.22109534 -0.19174866 -0.16940951
-0.036885258 0.29063934 -0.08256285 -0.19579498 -0.2507544 -0.2857264 -0.17376469 -0.59996134
-0.25161773 -0.16601764 0.14165336 -0.2835138 0.27928647 -0.2705377 -0.15041311 -0.2804887
0.122278176 0.27839878 0.23021714 0.03946406 -0.50627536 0.32702798 -0.072774984 0.16253708
-0.0132422 0.45849648 -0.23341765 0.20990771 0.22523125 0.21533732 -0.5359699 0.06432074
0.261087 -0.20543464 -0.16660298 -0.094394706 -0.06362232 -0.13268794 0.15561649 0.020537194
0.14847724 -0.36436275 0.110518776 -0.0808664 -0.06086949 -0.28709272 -0.2255905 -0.014752474
-0.9740524 0.4300191 -0.10166905 -1.640873 -0.27811038 0.13750453 0.09515147 0.019907178
-0.081449255 -0.30329004 -0.08044539 -0.30807278 -0.4369893 -0.11299097 -0.21849349 0.094894625
-2.1276245 0.0057638166 -0.08831513 -0.31155273 0.34051841 0.02135418 -0.864081 -0.01905045
0.06876939 0.22693977 0.10564098 0.052638326 0.23477465 0.21056794 -0.595961 0.10385509
-0.21136566 -0.3115695 -0.2704191 0.0040758858 -0.19629447 -0.09594819 0.25895247 0.008377544
-0.09636586 0.10238466 0.20348494 -0.22649376 -0.20587435 -0.22664505 -0.0534648 -0.05333949
00000000: 5b21 d2be 27fb 91bd bb79 cc3e 059a 3b3d
00000010: 228a 093d 885c 063e a0bc 9d3e 27f6 773d
00000020: b4d3 113d bbbd ee3b 7dac f83d f5ce e2bd
00000030: 04dd 2bbe bc9d 08bf 8c4d 8ebd d7fc 87be
00000040: 1aa1 35bf 7a9a 8d3e 895b ed3e 4c06 1c3e
00000050: a6f2 4c3d 1c2f 9ebd 7184 3cbf fce8 5ebd
00000060: a172 5f3d b8b5 e0be 0880 f33d cea9 a8be
00000070: 8e7d a83c a2a1 a4be c12a d53d 4ee6 5fbd
00000080: e3b1 0dbd 79a9 eebd d6ed a23c 0817 a0be
00000090: ed63 05bf 8202 9b3d 96aa 6dbe aa03 9dbd
000000a0: 4c0d d1bc 45bf 123d 1cab e63c 17f8 4abe
000000b0: df31 053e fe83 fcbc 9f96 9abe c2fb 843d
000000c0: 6458 093e 7b96 babd 3aac bdbe a2b1 3ebe
000000d0: 23b6 13bd 1510 aebe c758 553c 22c8 2c3c
000000e0: c18c 04be 534a cdbd 8762 efbd f79b 3c3d
000000f0: ceab 5dbe ab96 cc3e 6e14 0bbe b37b fbbe
00000100: ad4c 033e 1f9f 01bf 8d37 833e 24b0 36bf
00000110: c66a e4bd 9262 fcbe f1e2 49be 9d24 eabe
00000120: 4cae 0dbe 5f4a eb3d 90f5 96bc 450c 02bf
00000130: c646 373e 2f1c e13d c310 23be 3226 6cbe
00000140: 71a1 143f c013 d1bc efc7 df3b 6d9b e53d
00000150: 55ce 1cbe cd71 cbbe 0cf5 82be 6cf9 f03b
00000160: 3854 be3d 2605 8bbe cd1f a7bc f2b8 123e
00000170: e6b0 2e3c c1a8 e9bd 033a 60be 2d5e abbd
00000180: 3065 b83e 08db 073d a06c 543b 818a a73c
00000190: 3a4d 923d 8756 b6be d2c9 173d 3422 a73c
000001a0: 0854 7a3d a012 573e 1799 5f3a fae9 8c3b
000001b0: df99 3cbd c3f6 12bf f364 68bd 02fb 23bd
000001c0: 78df 6c3e 5af6 383e c46e ab3c 37b4 e8bd
000001d0: a7e2 85bc 41af 933d bf40 b5bd f034 81be
000001e0: 8d16 b53b 72ca 5cbd ee8a 67bd 9936 06be
000001f0: 1dcd 723e 3b1f f13d ec61 a0bd 525b 2a3d
00000200: 310a 5d3e 8e5f a43c 0ed2 823d 556d 1b3d
00000210: f5ef 45bd f27f c83d 02b7 19be e5a4 1c3e
00000220: fe7f d03d b2fc c63d 04e0 373d 155d e6bd
00000230: 6b8a 093e b05e 573e 6e25 dc3d 5d65 343d
00000240: 4584 1cbf ef4b 2ebe 25ae 31bd 39ac bc3e
00000250: 0d12 b73c b7e2 983d b6d8 85bd d16f c3be
00000260: 8d83 853e c102 57bd 48b2 5d3e 1565 83be
00000270: 8c74 47be d166 62be c359 44be b079 2dbe
00000280: ff14 17bd aece 943e b616 a9bd 7b7e 48be
00000290: e162 80be bb4a 92be 5fef 31be 1197 19bf
000002a0: 0ad4 80be 8700 2abe 940d 113e b928 91be
000002b0: a3fe 8e3e eb83 8abe e505 1abe 379c 8fbe
000002c0: fb6c fa3d 498a 8e3e 0bbe 6b3e 11a5 213d
000002d0: 439b 01bf 3670 a73e 0d0b 95bd 1f70 263e
000002e0: d0f5 58bc 0dc0 ea3e 0905 6fbe 0cf2 563e
000002f0: 05a3 663e 6381 5c3e 5335 09bf 98ba 833d
00000300: 32ad 853e 755d 52be f999 2abe 0352 c1bd
00000310: 6b4c 82bd 59df 07be ee59 1f3e 9e3d a83c
00000320: 6b0a 183e c18d babe ab57 e23d 489d a5bd
00000330: 4952 79bd d1fd 92be 3201 67be 5cb4 71bc
00000340: 805b 79bf 772b dc3e dd37 d0bd 2008 d2bf
00000350: 7c64 8ebe fdcd 0c3e c6de c23d 6114 a33c
00000360: dece a6bd d548 9bbe 8dc0 a4bd b7bb 9dbe
00000370: 10bd dfbe cf67 e7bd c2bc 5fbe 1d58 c23d
00000380: 002b 08c0 66de bc3b 90de b4bd d783 9fbe
00000390: 6e58 ae3e f6ee ae3c 6a34 5dbf b00f 9cbc
000003a0: f7d6 8c3d e662 683e 4c5a d83d 499b 573d
000003b0: c468 703e 1f9f 573e e690 18bf fab1 d43d
000003c0: 3d70 58be 0a86 9fbe 5f74 8abe 028f 853b
000003d0: 6b01 49be 7c80 c4bd 6b95 843e f741 093c
000003e0: 775b c5bd 0caf d13d 5b5e 503e fbed 67be
000003f0: bad0 52be a415 68be e8fd 5abd 827a 5abd

fc2.bias f4 [128]
-0.095369734 -0.19091709 0.20086777 0.35692185 0.009728627 0.16346356 0.085200414 -0.07291701
-0.0063683353 0.15861483 -0.16846895 0.040355522 -0.2590576 0.0157 -0.12461642 -0.07818629
-0.03906603 0.07674335 -0.015642326 0.21306154 0.17112789 -0.087808326 -0.018860504 -0.079881005
-0.18803084 -0.100692116 -0.016480573 -0.100147925 -0.18690361 0.104284704 -0.03614794 0.15868881
0.049609844 -0.046369728 -0.023745447 -0.040128004 0.06323839 0.11299607 -0.1002371 0.2873105
-0.00965376 0.27776822 0.13619106 0.14866458 -0.017090622 -0.15932286 -0.061353207 0.16788442
0.08103482 -0.03793367 0.067264006 -0.10649656 0.09717519 -0.14792724 0.29898506 -0.1349721
-0.21760018 -0.12589207 -0.06441573 -0.12964723 -0.07475166 -0.053478174 0.21868314 -0.022927549
0.21849546 -0.21659039 -0.17428921 0.11586497 0.06943478 -0.06448198 0.10521118 0.1744847
-0.18242842 -0.29451552 0.10135174 -0.15464522 -0.17111197 0.13535728 0.22855465 0.0072543165
0.18820703 0.27931717 0.06462965 0.11269427 0.053450022 -0.00092382025 -0.18913716 0.12380654
0.061335582 -0.2636043 0.026379578 0.0518949 -0.13073531 -0.045146726 0.06566858 0.10411623
-0.31014562 -0.18797977 -0.026085395 0.09073168 0.13863531 0.101921946 0.112760216 0.12894884
-0.032393 0.031769153 -0.17685734 -0.14285707 -0.0954562 0.11324475 -0.17524715 0.081093095
0.21948114 0.15700792 0.05354803 0.13885702 0.1156546 0.034671858 -0.039729528 -0.17866978
-0.3280567 -0.026765253 -0.11747418 -0.13546982 0.13287206 -0.15898585 0.04612885 0.12572728
00000000: 3551 c3bd c57f 43be 48b0 4d3e 76be b63e
00000010: d264 1f3c fe62 273e 8e7d ae3d 8355 95bd
00000020: 78ad d0bb ed6b 223e 2083 2cbe d54b 253d
00000030: 33a3 84be 499d 803c e536 ffbd 2220 a0bd
00000040: b403 20bd 9e2b 9d3d 5624 80bc ce2c 5a3e
00000050: 263c 2f3e dad4 b3bd 5881 9abc a798 a3bd
00000060: 288b 40be ab37 cebd 4402 87bc 5b1a cdbd
00000070: a963 3fbe 3893 d53d dd0f 14bd 527f 223e
00000080: b133 4b3d 2fee 3dbd d085 c2bc 435d 24bd
00000090: 2183 813d 7c6a e73d 1c49 cdbd 5d1a 933e
000000a0: ce2a 1ebc a337 8e3e ab75 0b3e 873b 183e
000000b0: a201 8cbc 8825 23be 804d 7bbd e5e9 2b3e
000000c0: 95f5 a53d 5660 1bbd b6c1 893d de1a dabd
000000d0: c903 c73d 3d7a 17be 9214 993e 2036 0abe
000000e0: 95d2 5ebe dae9 00be 65ec 83bd 3ec2 04be
000000f0: 6617 99bd ee0b 5bbd 79ee 5f3e 8ed2 bbbc
00000100: 46bd 5f3e dfc9 5dbe df78 32be 9d4a ed3d
00000110: d233 8e3d 210f 84bd f678 d73d 1eac 323e
00000120: 84ce 3abe bdca 96be 8091 cf3d 515b 1ebe
00000130: fa37 2fbe 199b 0a3e 3b0a 6a3e 9eb5 ed3b
00000140: 58b9 403e a902 8f3e 8d5c 843d 41cc e63d
00000150: 69ee 5a3d 872c 72ba 2cad 41be 498e fd3d
00000160: 053b 7b3d 25f7 86be fc19 d83c bf8f 543d
00000170: 7adf 05be c6eb 38bd 407d 863d e43a d53d
00000180: 68cb 9ebe c57d 40be 0ab1 d5bc 88d1 b93d
00000190: 6af6 0d3e 74bc d03d d4ee e63d 2a0b 043e
000001a0: 86ae 04bd 5f20 023d 171a 35be 2049 12be
000001b0: 8a7e c3bd ddec e73d fd73 33be 2314 a63d
000001c0: aabf 603e afc6 203e 2e55 5b3d 8930 0e3e
000001d0: 52dc ec3d 1404 0e3d 6ebb 22bd 36f5 36be
000001e0: 0cf7 a7be ce42 dbbc 4e96 f0bd 9ab8 0abe
000001f0: 9d0f 083e 30cd 22be 9bf1 3c3d a7be 003e

fc3.weight f4 [32, 128]
-0.6781629 -0.022643227 -0.013422484 0.36824626 0.053818002 -0.2476154 -0.016726064 0.062359396
-0.22671981 -0.018934019 0.08441485 -0.20819871 0.0026919073 -0.034278143 -0.1477425 -0.03659112
-0.2760902 -0.33332327 0.09275895 0.29440898 -0.14228009 0.048608515 -0.20478047 -0.19137578
-0.2056832 0.023825396 -0.114846565 -0.11650442 -0.15397313 -0.08033635 -0.32176948 -0.038903236
0.015895694 -0.20921175 -0.06337567 -0.39538094 -0.11226051 -0.05655858 -0.07840448 -0.12335034
-0.06319857 0.06969978 0.10616825 0.10905228 0.07663102 -0.052666955 -0.11507512 -0.08853294
0.02247059 -0.004796812 -0.18089406 -0.027014025 0.019829765 -0.0974205 -0.012109233 0.20254388
0.019786363 -0.01767437 -0.17502208 0.08656172 -0.18008569 -0.03846295 -0.004843937 -0.14501524
-0.007853894 -0.014957904 -0.047387503 -0.3262316 -0.19283262 -0.029849311 -0.121011555 0.0024743222
-0.54468995 0.057453133 0.073791206 0.04933327 -0.056793515 -0.056794878 0.050218694 -0.19288243
-0.256429 -0.0365485 -0.31494653 -0.13520876 -0.10086764 -0.049625557 -0.11317759 0.036420338
-0.20338008 -0.43490514 0.033677142 0.018890046 -0.116081245 -0.077674344 -0.081341825 0.03132803
-0.0034076283 -0.027951047 -0.04704968 0.13642184 0.05025428 0.036480464 -0.07836866 0.075616874
-0.03703042 -0.15802062 -0.19946547 0.07889967 -0.13195893 -0.072138466 -0.10555648 -0.027554138
-0.1002993 -0.06116761 -0.071360245 -0.009839606 0.23045628 0.08312676 0.13428937 -0.037516154
0.051067613 -0.4761011 -0.2634078 -0.058659583 -0.13202344 -0.20458871 -0.035087895 0.010300154
-0.043012094 -0.068324834 -0.16518383 0.05248558 0.013662117 -0.08535708 -0.20302525 0.033625033
-0.034917906 -0.15910296 0.07577453 0.025291359 0.09729413 0.09881012 0.07814384 -0.008370534
0.0755049 0.0045386925 0.008066148 -0.2803597 0.07932149 -0.16053292 0.068255484 0.07270815
-0.006012839 -0.011522582 -0.024039509 -0.09865389 0.19916698 -0.12534846 0.019320173 0.042776592
-0.35569108 -0.08628496 0.034591347 0.034118682 0.014266152 -0.09369648 -0.14966372 0.08949702
0.02541333 -0.22415933 0.027936028 -0.11767431 0.044747274 -0.07186266 0.011749637 -0.14698222
0.094456464 0.08723564 -0.05577012 0.12025005 0.016529934 0.0037801678 -0.16268213 0.041136984
-0.027007189 -0.036392156 -0.053990938 -0.020581987 -0.29772115 0.06573583 -0.06367866 -0.1238782
-0.16700843 0.041156318 -0.05213137 -0.017862529 -0.107694365 0.06492295 -0.08690949 -0.039051395
-0.27704024 -0.015377086 0.011059311 -0.06419081 0.01765389 -0.03733007 -0.041231018 0.042938843
-0.13219096 0.08071872 -0.07069951 -0.012695907 0.10291255 0.021635884 -0.027514983 -0.013229461
0.034569666 -0.13680564 0.07843888 -0.06151516 -0.06802119 0.064557366 -0.07427424 0.10878194
-0.036889993 0.0130572105 -0.02373955 -0.02357773 0.016664796 0.0064537115 -0.22044896 -0.13522226
0.032010693 -0.03959909 0.06055671 0.055164896 -0.054247353 -0.0653273 0.043623164 -0.05175015
-0.08970804 -0.07617166 -0.38098484 0.106322065 0.120504335 -0.08813712 0.08111817 0.015681652
-0.05824593 -0.14907059 -0.13224901 0.002451884 -0.015185096 -0.0240236 -0.1664999 -0.14838094
00000000: 159c 2dbf 4a7e b9bc fae9 5bbc c68a bc3e
00000010: 4470 5c3d e48e 7dbe 1905 89bc 916c 7f3d
00000020: 3d29 68be 841b 9bbc b1e1 ac3d 0b32 55be
00000030: b66a 303b 3d67 0cbd cf49 17be 92e0 15bd
00000040: b25b 8dbe 59a9 aabe 68f8 bd3d c6bc 963e
00000050: dfb1 11be b919 473d f9b1 51be 03f8 43be
00000060: 9e9e 52be 7a2d c33c ad34 ebbd df99 eebd
00000070: 22ab 1dbe 6287 a4bd f8be a4be 0059 1fbd
00000080: b037 823c 9b3b 56be 1acb 81bd 5f6f cabe
00000090: d7e8 e5bd f8a9 67bd 8792 a0bd 1a9f fcbd
000000a0: 406e 81bd c2be 8e3d bd6e d93d cd56 df3d
000000b0: b9f0 9c3d 4eb9 57bd 81ac ebbd c250 b5bd
000000c0: 3e14 b83c 932e 9dbb 4b3c 39be 844c ddbc
000000d0: 0872 a23c 6684 c7bd ce65 46bc aa67 4f3e
000000e0: 0317 a23c d7c9 90bc fd38 33be 4547 b13d
000000f0: 6268 38be 548b 1dbd e3b9 9ebb e07e 14be
00000100: 9ead 00bc ff11 75bc 6619 42bd d407 a7be
00000110: ea75 45be 8b86 f4bc e8d4 f7bd 3d28 223b
00000120: cd70 0bbf fa53 6b3d d81f 973d af11 4a3d
00000130: 51a0 68bd bfa1 68bd 1eb2 4d3d f982 45be
00000140: a94a 83be e1b3 15bd ac40 a1be 2a74 0abe
00000150: b193 cebd 2b44 4bbd a7c9 e7bd 7e2d 153d
00000160: de42 50be e3ab debe 0bf1 093d 4cbf 9a3c
00000170: 01bc edbd ba13 9fbd 8b96 a6bd d251 003d
00000180: 8452 5fbb 98f9 e4bc 2ab7 40bd 2bb2 0b3e
00000190: 6fd7 4d3d 8a6c 153d bf7f a0bd 05dd 9a3d
000001a0: 36ad 17bd 28d0 21be ad40 4cbe 2696 a13d
000001b0: 3e20 07be 55bd 93bd ff2d d8bd 37b9 e1bc
000001c0: b869 cdbd e38a 7abd 5225 92bd 4c36 21bc
000001d0: bbfc 6b3e 5d3e aa3d 2783 093e 8aaa 19bd
000001e0: 462c 513d 86c3 f3be 63dd 86be 0845 70bd
000001f0: 2731 07be b47f 51be 53b8 0fbd fac1 283c
00000200: 732d 30bd e4ed 8bbd f325 29be 1ffb 563d
00000210: 12d7 5f3c b1cf aebd dae5 4fbe 67ba 093d
00000220: 1406 0fbd e3eb 22be ad2f 9b3d d32f cf3c
00000230: 2542 c73d f65c ca3d e109 a03d 9024 09bc
00000240: 50a2 9a3d 50b9 943b e027 043c 4e8b 8fbe
00000250: 4e73 a23d be62 24be 88c9 8b3d 03e8 943d
00000260: 5907 c5bb 36c9 3cbc 81ee c4bc 0d0b cabd
00000270: 6ef2 4b3e 595b 00be 5745 9e3c 8236 2f3d
00000280: 241d b6be 2bb6 b0bd a8af 0d3d 08c0 0b3d
00000290: 94bc 693c f1e3 bfbd 7241 19be 374a b73d
000002a0: 9e2f d03c 068a 65be 19da e43c 3bff f0bd
000002b0: eb48 373d bb2c 93bd 8d81 403c 8282 16be
000002c0: 6472 c13d 99a8 b23d 366f 64bd a945 f63d
000002d0: c969 873c b1bc 773b 2596 26be 417f 283d
000002e0: 2e3e ddbc f10f 15bd 9a25 5dbd 8e9b a8bc
000002f0: e86e 98be 82a0 863d f569 82bd dbb3 fdbd
00000300: 4204 2bbe 8793 283d b487 55bd 7054 92bc
00000310: dd8e dcbd 53f6 843d 9afd b1bd 5bf4 1fbd
00000320: 38d8 8dbe 2cf0 7bbc 1d32 353c 7976 83bd
00000330: e49e 903c 6ae7 18bd dbe1 28bd a4e0 2f3d
00000340: 115d 07be db4f a53d e8ca 90bd 7e02 50bc
00000350: d1c3 d23d bd3d b13c 1a67 e1bc 62c0 58bc
00000360: ec98 0d3d c716 0cbe 90a4 a03d 52f7 7bbd
00000370: b24e 8bbd a736 843d 181d 98bd 11c9 de3d
00000380: f619 17bd e9ed 553c 7279 c2bc 1526 c1bc
00000390: 9c84 883c a879 d33b 5fbd 61be b477 0abe
000003a0: a51d 033d a832 22bd 500a 783d 96f4 613d
000003b0: 7932 5ebd 52ca 85bd 34ae 323d f7f7 53bd
000003c0: d9b8 b7bd e3ff 9bbd 7210 c3be 62bf d93d
000003d0: faca f63d 3c81 b4bd 4821 a63d cf76 803c
000003e0: 4993 6ebd f6a5 18be 496c 07be caaf 203b
000003f0: e9ca 78bc 24cd c4bc f37e 2abe 2cf1 17be

fc3.bias f4 [32]
0.11725454 0.09848176 -0.20472047 0.25178495 -0.045872822 -0.16044876 -0.017757598 0.0071181296
0.030487625 -0.051866062 -0.06210281 -0.009925681 -0.010671381 -0.07094768 0.18181413 -0.014966115
0.12897295 -0.03558701 0.17028008 -0.02834736 0.013193478 0.035783138 -0.13758545 0.0097672455
0.006857496 -0.15550084 0.06413221 -0.16754699 0.115456924 -0.0131312655 0.14174446 0.0129487105
00000000: 2623 f03d ceb0 c93d 3ea2 51be f5e9 803e
00000010: 24e5 3bbd ae4c 24be 6278 91bc 333f e93b
00000020: 2fc1 f93c 8271 54bd 845f 7ebd 539f 22bc
00000030: 04d7 2ebc 044d 91bd 7c2d 3a3e 7034 75bc
00000040: 7c11 043e afc3 11bd e75d 2e3e b938 e8bc
00000050: 7529 583c 5791 123d 33e3 0cbe cc06 203c
00000060: d9b4 e03b 9d3b 1fbe c057 833d 7091 2bbe
00000070: ae74 ec3d 8524 57bc 7625 113e d426 543c

fc4.weight f4 [1, 32]
0.075004384 0.08727698 0.022674398 0.04628703 0.077538826 0.050428674 0.103105366 -0.07999041
-0.02176578 0.11490578 -0.02340863 -0.026775291 -0.03362539 0.06509038 0.026681166 -0.04895948
0.48788968 -0.08527283 0.077071324 0.0019497748 0.027258022 0.029423755 -0.027061103 0.08005741
-0.106768556 -0.010017286 0.040473383 0.045261715 -0.04372221 -0.0022638934 0.052432183 0.011872173
00000000: e69b 993d 46be b23d a9bf b93c 7897 3d3d
00000010: adcc 9e3d 4c8e 4e3d e828 d33d 03d2 a3bd
00000020: 264e b2bc b953 eb3d 75c3 bfbc db57 dbbc
00000030: c7ba 09bd 1b4e 853d 7692 da3c bc89 48bd
00000040: adcc f93e 86a3 aebd 92d7 9d3d 968f ff3a
00000050: 374c df3c 160a f13c 3faf ddbc 24f5 a33d
00000060: 79a9 dabd 8b1f 24bc 6bc7 253d 5964 393d
00000070: 0f16 33bd d45d 14bb 21c3 563d 8183 423c
