DDPG_agent_0.pth (torch_old, 372533 bytes, 86 tensors)

bn.weight f4 [24]
000000 0c 23 85 3f a4 30 ab 3f c3 63 9f 3f d6 26 93 3f
       1.040132 1.3374219 1.245232 1.1496227
000010 2b 5b a5 3f b0 1f a1 3f ef ef a2 3f e2 bc 87 3f
       1.2918447 1.2587795 1.2729472 1.0604517
000020 20 19 99 3f 05 08 89 3f 8f de 92 3f e5 f1 a1 3f
       1.1960793 1.0705572 1.147417 1.2651945
000030 44 0c ab 3f 2d 7a 8f 3f f6 a2 9b 3f 45 7d 8d 3f
       1.3363118 1.120916 1.2159107 1.1053854
000040 7a 56 9e 3f 72 22 a0 3f 66 71 b9 3f 45 16 96 3f
       1.237014 1.2510512 1.4487731 1.1725546
000050 43 23 a9 3f d2 29 9c 3f 27 b1 9c 3f 17 45 7d 3f
       1.3213886 1.2200263 1.2241563 0.9893355

bn.bias f4 [24]
000000 55 a9 b5 bd 9f ba 85 3c af 08 fb 3d c5 e9 c7 bb
       -0.08870188 0.01632434 0.12257516 -0.0061008655
000010 b1 c8 a5 3d 82 34 f9 3d 3c 00 15 39 55 a3 d5 3d
       0.080949195 0.12168218 0.00014209835 0.10431544
000020 41 a9 d5 bc c4 47 c4 bc f2 47 db bd 14 2a d2 bb
       -0.026081683 -0.023960002 -0.10707082 -0.0064137075
000030 f2 b6 e4 3d f7 f1 08 3d 24 38 40 be b9 7c 03 3e
       0.111677065 0.03343388 -0.18771416 0.12840547
000040 9b cf 11 3c fe 05 89 3d 17 a5 c9 3d 20 53 d9 bd
       0.008899595 0.06690596 0.098459415 -0.10611558
000050 cc d0 5f bd 16 46 73 3d c1 ee e4 bc 52 3f 4d bd
       -0.054642484 0.05939301 -0.027945878 -0.050109215

bn.running_mean f4 [24]
000000 35 c1 d9 c0 4f 2a 7d be 38 3d 18 40 cb 6b 04 3e
       -6.804835 -0.2472317 2.3787365 0.12931745
000010 b2 e6 f7 3c 25 59 73 40 38 3d 18 40 cb 6b 04 3e
       0.030261371 3.802316 2.3787365 0.12931745
000020 49 7c dd c0 be 4b 85 be cc a9 27 40 a3 27 8e 3d
       -6.9214215 -0.2603435 2.6197386 0.06941154
000030 35 dc fb 3c 34 d7 73 40 cc a9 27 40 a3 27 8e 3d
       0.030744651 3.81001 2.6197386 0.06941154
000040 ce 1c e1 c0 21 9b 8d be e8 39 2f 40 79 2c 19 3d
       -7.034766 -0.27657416 2.7379093 0.037395928
000050 6a 15 c7 3c 14 0c 73 40 e8 39 2f 40 79 2c 19 3d
       0.024302203 3.7976122 2.7379093 0.037395928

bn.running_var f4 [24]
000000 2e 1b 66 41 54 b2 5d 3f 4c 70 c8 43 03 b5 74 41
       14.381636 0.8660023 400.87732 15.294192
000010 f7 a9 fb 41 58 e0 3e 40 4c 70 c8 43 03 b5 74 41
       31.45799 2.9824429 400.87732 15.294192
000020 10 32 5c 41 1c 7f 62 3f e9 3f cb 43 21 8b 7b 41
       13.762222 0.88475204 406.4993 15.721467
000030 ce e4 04 42 ee a7 40 40 e9 3f cb 43 21 8b 7b 41
       33.223442 3.0102496 406.4993 15.721467
000040 4f e0 52 41 5b f1 67 3f b6 a0 cf 43 e5 cf 80 41
       13.179763 0.90602654 415.25555 16.101511
000050 a0 c6 0c 42 d4 45 4d 40 b6 a0 cf 43 e5 cf 80 41
       35.19397 3.207387 415.25555 16.101511

fc1.weight f4 [32, 24]
000000 0e 7c 35 ba df 70 be be 60 de 82 bd 07 21 19 3e
       -0.00069230876 -0.3719549 -0.06390071 0.14954005
000010 f8 03 a9 be 91 de 74 3e 16 b3 92 bd 63 6e 1d 3e
       -0.3301084 0.23913027 -0.07163064 0.1537414
000020 7d 0a 6c 3d d4 af 8d be 93 7d f2 3d a3 38 0e 3e
       0.05762719 -0.2767321 0.11840358 0.13888793
000030 79 b9 8f bd 79 9e e7 3d e3 89 5d 3d 0b 3b d6 3d
       -0.07017798 0.11309523 0.054086577 0.1046048
000040 dc 27 61 3e 0a 63 8f be 96 7f a6 3e df 7e 85 3d
       0.21987861 -0.28005248 0.32519215 0.06518339
000050 8b 61 56 be 0c 99 b0 3d e1 69 d0 3d 5e 05 c6 bd
       -0.20935647 0.086229414 0.10176445 -0.096689925
000060 a4 9a 6f 3d 72 22 5a bd 84 08 16 3e b9 5e e3 3d
       0.058497086 -0.053255506 0.14651686 0.11102051
000070 d8 fb 9c be 5d 8d 1e 3e 3f e7 9b 3d 8c f1 47 3e
       -0.30660892 0.15483613 0.07612466 0.19525737
000080 d7 aa 9f 3e 43 23 6c be 86 8b ea 3c 3e 7d ef bd
       0.31185028 -0.23060326 0.028630983 -0.1169381
000090 fd c3 97 3c 2a e2 24 3c 83 88 9f 3e 60 7d dc bd
       0.018526072 0.010063687 0.31158838 -0.10766101
0000a0 a2 13 a5 3e 73 3d 16 be d5 68 a0 3c 42 75 29 bc
       0.3224154 -0.14671879 0.019581238 -0.010342898
0000b0 fc 3f a3 be c8 62 85 3e 3f d2 82 be 40 c0 16 3d
       -0.31884754 0.26051927 -0.2555103 0.036804438
0000c0 90 23 bf 3c 76 48 fe 3d f9 06 91 be b8 d8 8a bd
       0.023332387 0.124161646 -0.28325632 -0.06779617
0000d0 97 ac 2b 3e d8 95 af 3d c5 0b ed 3d 19 61 43 3e
       0.16765057 0.08573502 0.115745105 0.19080009
0000e0 4c 4d 8f 3c 5b be ca bd e4 1d f7 3c 67 3d b6 3d
       0.017492913 -0.09899589 0.03016562 0.0889843
0000f0 bc 1c 9f be e5 3a c8 3e 7b 97 e4 3c 58 2b 54 3e
       -0.3107661 0.39107433 0.027904263 0.2071966
000100 f0 18 05 be 42 31 a3 3d 63 aa 31 be ef de 77 3d
       -0.12997794 0.079683796 -0.17350154 0.06051534
000110 9b 73 c0 be f2 c0 fc 3d 74 4a 62 bd 27 72 ce bc
       -0.375882 0.12341489 -0.055246785 -0.025200916
000120 ae 4a 35 3b 8e e0 bd bc a2 8a ed 3c ee 97 3d bd
       0.002766292 -0.023178365 0.02899677 -0.04628747
000130 1a 1c d4 ba 42 2d 2b 3e 9f 06 81 be fc e5 cc 3c
       -0.0016182691 0.16716483 -0.25200364 0.025012009
000140 1b 94 5e be 4e 6d 76 be 9d 32 20 be 80 61 d3 bc
       -0.21736185 -0.24065134 -0.15644307 -0.025803328
000150 1b 1a 32 3e c2 38 97 bd 2e 80 b6 be 4f ff 30 3e
       0.17392771 -0.073838726 -0.35644668 0.17284892
000160 41 be 8c bd 92 5a 68 3d b1 6d 5c 3e 69 dd cc bd
       -0.068722256 0.056727 0.21526219 -0.10003168
000170 4b 78 c6 3c 2c 3d 05 3e 6d e8 e4 bc 39 2c 2d bd
       0.024227282 0.13011616 -0.02794286 -0.042278502
000180 f1 39 26 3e 4a 05 ac 3e 1c 3a b2 bc c4 26 79 be
       0.1623304 0.33597785 -0.021756224 -0.24331194
000190 ff 0c 2a 3e e0 bc 24 bd a1 3a 34 3e 81 8e c3 bd
       0.1660652 -0.040219188 0.1760049 -0.09548665
0001a0 29 88 70 bd 60 47 01 bd ff ff e4 3c d0 a6 82 be
       -0.058723602 -0.03156221 0.0279541 -0.25517893
0001b0 59 04 a0 3e 76 3e c3 3d d3 45 d6 bd 7f 90 0b be
       0.31253317 0.09533398 -0.10462537 -0.1362934
0001c0 50 88 61 3e bb 60 bd bd 49 a3 09 3e c5 1a 9e 3d
       0.22024655 -0.092469655 0.13441195 0.0771995
0001d0 8a 88 d2 3e c7 33 ee 3d da 85 42 bd af 52 70 be
       0.41119796 0.116309695 -0.047490932 -0.23469041
0001e0 4b 12 23 be 11 f2 c7 3c 57 fc e6 3d fc e0 99 be
       -0.15924947 0.024407418 0.11278599 -0.30054462
0001f0 d1 25 49 3e a0 2f 78 3c b1 21 9b be 42 3c 50 be
       0.19643332 0.015148073 -0.30299142 -0.20335487
000200 01 5b c4 3d c5 78 48 3e 16 31 28 bd 0a 64 2d be
       0.0958767 0.1957732 -0.041062437 -0.16932693
000210 74 e4 62 3e a3 33 43 3e 4f 2a 51 3e d0 4d 5f bd
       0.2215746 0.19062667 0.20426296 -0.054517567
000220 6e bb f2 3d 39 21 36 3c b9 91 1b bd 30 69 a3 be
       0.118521556 0.011116319 -0.03798077 -0.3191619
000230 7b b5 13 be 38 42 a4 3d b4 ff 43 bd 6a 01 84 bd
       -0.14424698 0.08020443 -0.04785128 -0.06445582
000240 50 37 7d be 77 75 95 3b d6 7a 26 bb b0 5f 50 3e
       -0.24728131 0.004561122 -0.0025402806 0.20349002
000250 51 d5 7a 3d 49 1c 64 3e 5c b2 22 be 5b 67 b1 3e
       0.06123859 0.22276415 -0.15888351 0.34649166
000260 66 db 40 be 46 be c8 3d 0b 02 ee bd 29 d7 a3 be
       -0.18833694 0.09801917 -0.116214834 -0.32000092
000270 26 be 19 be ca 70 15 be 74 96 58 3e 28 f7 72 be
       -0.15013942 -0.14593807 0.21151143 -0.23727095
000280 85 aa f3 be cc 56 c4 3d ac 42 82 bd f9 fe 67 3e
       -0.47591034 0.09586868 -0.06360373 0.22655858
000290 3c cb e2 bd 34 10 08 bd 25 f1 5c be 73 11 40 3d
       -0.1107392 -0.033218578 -0.21576364 0.04689164
0002a0 3b c0 fc bd 3a f7 1c be 7d d8 88 3d ea d1 05 3c
       -0.123413526 -0.15328684 0.06681917 0.008167723
0002b0 00 8a 29 be 4c fb 2b 3e b4 5e a7 3e a0 71 06 3e
       -0.16556549 0.16795081 0.3268944 0.13129282
0002c0 36 f6 20 3e 77 b5 d8 bc 7b 87 22 be 5b 4a a2 3e
       0.15718922 -0.026453717 -0.15871994 0.31697354
0002d0 f6 7a 26 be 8e cb 99 3d 8f 2e 4a be 77 f3 f2 3d
       -0.16257843 0.07509528 -0.19744323 0.118628435
0002e0 aa e2 50 be 56 39 5f 3e a2 ac e3 be cf e5 70 3d
       -0.20398965 0.21799216 -0.44467646 0.058812913
0002f0 30 73 40 bd 2d d5 a2 bd 80 8f 3b be ef 02 06 3e
       -0.04698485 -0.07950816 -0.1831646 0.13087057
000300 02 13 ab bd 43 a6 79 3d b1 54 db 3e f8 b8 db bc
       -0.08353235 0.060949575 0.42838052 -0.026821598
000310 4c 72 81 3e 45 72 99 3d 3d d4 ef 3e b6 22 a5 bc
       0.25282514 0.07492498 0.46841612 -0.020158153
000320 80 6d 43 3d 38 68 e7 bd a3 e1 5b 3e 14 a9 9d 3b
       0.04771185 -0.11299175 0.21472792 0.0048114154
000330 ba 88 8c 3e 2f e0 49 3d 68 6a b0 3c ed cd af 3d
       0.27448064 0.049286064 0.021535113 0.08584199
000340 ce 20 58 3d b6 b6 08 3e d3 e4 69 3d 0f 81 a2 ba
       0.05276566 0.13350949 0.05710299 -0.0012398082
000350 da 63 aa bd 1e 97 a1 3e 87 4b 1c 3e 2f 94 c2 3d
       -0.083198264 0.31560606 0.15263186 0.0950092
000360 59 82 79 3d c1 a3 a5 be 49 49 a5 bd 12 df 7d 3d
       0.060915325 -0.32351497 -0.08070619 0.061980315
000370 3c 7f 9c be 0d b3 34 3e df ac 3a be 9c b0 83 be
       -0.30565822 0.17646427 -0.18230008 -0.2572068
000380 c6 50 7c bd 8d 08 d2 be bc 00 de bd 66 2a 18 3e
       -0.06160047 -0.4102215 -0.10839984 0.14859924
000390 14 8d 00 3e bc b6 91 3e e1 5d d2 bd 25 3e 1b be
       0.12553817 0.28459728 -0.10271812 -0.15160425
0003a0 d4 68 83 3d e7 04 99 be 3b 83 ed bd 3c 9c c9 bd
       0.06416479 -0.29886553 -0.11597296 -0.098442525
0003b0 bc 1f 8f bd 50 f9 54 3e 72 6f 92 3d 50 36 a1 be
       -0.06988475 0.2079823 0.07150163 -0.3148675
0003c0 e4 84 d9 bd 15 d4 c5 3d 4e 1e 98 3d 46 11 db 3d
       -0.1062105 0.09659592 0.07427655 0.10696654
0003d0 d7 81 48 be 5f 4c 81 be ab 47 60 be 78 67 14 bd
       -0.1958078 -0.2525358 -0.21902339 -0.036231488
0003e0 9f f7 ad bd 31 bb 6c 3e b4 e9 38 3e 6f 95 5b 3d
       -0.084944956 0.23118283 0.180579 0.053609308
0003f0 3e 07 0a 3e bd ec 21 3e f3 ea b5 3c c1 79 4d 3c
       0.13479325 0.15812965 0.02220676 0.012541235

fc1.bias f4 [32]
000000 ff 4e 15 bc 06 91 23 3e 32 aa 92 bd dc f4 9d 3e
       -0.009113072 0.15973291 -0.071613684 0.30850875
000010 02 35 27 be 3d 81 aa 3e 0e a8 ad 3e 67 c3 3b bc
       -0.16328815 0.33301726 0.33917278 -0.011460162
000020 f2 2b 7f 3e 53 29 df 3c 4f f9 24 bc 9f ce 8a bd
       0.24919108 0.027241385 -0.010069205 -0.06777691
000030 b3 2d 33 be 89 86 e6 3d f4 e2 24 bd 3a 1a 12 be
       -0.17497902 0.11256129 -0.040255502 -0.14267817
000040 07 4f 6a bd ff c3 44 3d 9d e1 bc bd 4c 2e cc bd
       -0.057204273 0.04803848 -0.0922272 -0.09969768
000050 ae e0 8e 3e 04 0f d7 3d d1 64 37 bc 82 f9 91 bd
       0.27905792 0.10500911 -0.01119347 -0.07127668
000060 76 62 12 3e e0 61 d0 3d 3a e2 99 3e 34 40 93 3d
       0.14295372 0.10174918 0.3005541 0.0718998
000070 85 bc 29 3e 71 94 1c be 41 1c 7b 3d f8 c9 3e bd
       0.1657582 -0.15291001 0.061306242 -0.04657933

fc2.weight f4 [64, 32]
000000 a1 4e 12 3e 40 13 9d 3e 41 51 cd bb 71 f9 d9 3d
       0.14287807 0.3067875 -0.0062657897 0.1064328
000010 45 23 bb bd d5 15 6d be 53 bf c3 3d ac 9f 5e 3e
       -0.091375865 -0.2315286 0.095579766 0.21740597
000020 a2 27 f8 bd 60 b4 8d 3d a8 6d 5f 3e 3b e2 c8 bd
       -0.12116934 0.069191694 0.21819174 -0.09808775
000030 dc da 86 be 1c 4d ee bc 36 9b a2 3d c8 17 ea 3d
       -0.2633885 -0.029089503 0.079397604 0.11430317
000040 c1 b6 3c 3e 84 1a ad 3d b6 af 63 3d 01 ba ac bc
       0.1842909 0.08452323 0.055587493 -0.021084787
000050 d0 7f 23 3e fd 1d 28 3e 2a e1 b0 bd 81 05 5e 3d
       0.15966725 0.1641769 -0.08636697 0.054204468
000060 e5 c0 14 3d cd 26 8a bd 04 65 21 be 65 12 17 3d
       0.03631677 -0.06745682 -0.1576119 0.036882777
000070 38 26 05 be 54 8b 8e 3a 70 8c 18 3e 64 94 56 bc
       -0.1300286 0.0010875263 0.14897323 -0.0130969025
000080 ff b4 83 bd ea b6 64 bd b2 7b 9f 3e e4 40 dc 3d
       -0.06431007 -0.055838503 0.3114906 0.107545644
000090 e3 91 0f bc a8 aa 02 be 7b ab 1e 3e 42 a9 1d 3e
       -0.008762809 -0.12760413 0.15495102 0.15396598
0000a0 31 a6 d3 3d c4 70 9f 3c 67 e1 9d be c8 b2 8b 3d
       0.10334433 0.01946295 -0.3083603 0.06821209
0000b0 2b e7 32 3e 72 c3 2d 3d e0 7d 92 be eb 04 7f 3a
       0.17470996 0.04242272 -0.2861166 0.0009728211
0000c0 74 33 b8 bd 30 6f 8b 3e 22 de fa bd f7 71 73 3e
       -0.08994189 0.27233267 -0.122494 0.23773943
0000d0 bd 63 51 bd 08 2b 1c bd 57 70 0b 39 db 96 23 3e
       -0.05112051 -0.038126975 0.00013297923 0.15975516
0000e0 90 71 36 3d ab 7c 4b be f6 2b b8 bc ed 60 81 be
       0.044541895 -0.19871776 -0.0224819 -0.2526926
0000f0 3d 8d 64 3e f3 c9 a0 be bc 00 b5 be 19 b9 81 3e
       0.22319503 -0.31404075 -0.35352123 0.2533653
000100 5d 1e 1a be 65 ad 23 3c b1 07 59 3c f8 e7 8c 3d
       -0.15050645 0.009990071 0.013246463 0.06880182
000110 cc ca 9c bd 37 ed 9f 3e de bb 1e be bb 55 ad 3d
       -0.07655868 0.31235668 -0.15501353 0.084636174
000120 bd 6c bb bd 44 8d b1 bd 48 3c a2 3d 41 ee b6 bc
       -0.091515996 -0.086695224 0.07921654 -0.022330405
000130 c9 eb d2 bd b9 ad 2f 3e 16 cf e3 bd 74 25 7b bd
       -0.10298879 0.17156114 -0.11123483 -0.061315015
000140 5a 4b 1f be 07 ec a2 bd 5b f4 eb 3d b5 d0 76 3e
       -0.15556088 -0.07955175 0.115212165 0.24103053
000150 7b 52 41 3e db b5 b5 bd 0f 73 e4 3d 21 ee ae 3e
       0.1887912 -0.08872577 0.11154758 0.34166053
000160 11 0d a6 3d 19 7c cc bc 71 53 5f 3e 7a e0 65 3e
       0.08107961 -0.024961518 0.21809174 0.22448912
000170 e6 e8 0a 3e 15 22 77 3d 9d e2 74 be 56 85 1e be
       0.13565406 0.060335238 -0.23914571 -0.15480551
000180 f9 0b 5e bd 29 6c 38 3e 91 ad 1e 3b 95 47 89 3d
       -0.054210637 0.1801001 0.002421234 0.06703106
000190 3f 72 35 bd 38 7a 98 3d 51 90 bd 3c 27 b5 f2 bd
       -0.044298407 0.074451864 0.023140104 -0.11850958
0001a0 39 3e d7 3d f2 d0 0a bd 13 d1 0d 3d 2f 50 db 3b
       0.10509915 -0.033890672 0.034623217 0.0066929082
0001b0 d6 8b 26 be 2d db 58 3e 60 98 9c bd 1f 6d 0f ba
       -0.1626428 0.21177359 -0.07646251 -0.00054712774
0001c0 fd 0e df 3d 42 71 55 3e 5b b1 1a 3d aa 36 06 3e
       0.10891531 0.20843986 0.037766796 0.1310679
0001d0 2f 93 52 3e c4 41 88 3d b9 a9 0c 3d 3c b3 04 3d
       0.20563959 0.06653169 0.034341548 0.032397494
0001e0 01 c5 a2 3d 1e ca 97 3d 82 4d 99 3c 69 4f 3e 3e
       0.07947732 0.07411598 0.018713716 0.1858498
0001f0 ac 39 f5 3d e9 24 1f be ea 1f 40 3d 78 f8 0f 3e
       0.11973891 -0.15541424 0.046905436 0.14059627
000200 d6 dc 0c 3e 5c 5d 1e 3e 6e 41 2b 3e 9d 02 cd be
       0.13756117 0.15465301 0.16724178 -0.40041056
000210 cb ee 6f be bc e2 04 3e bc eb 78 3b cb 82 08 3d
       -0.23430936 0.12977117 0.0037982306 0.03332786
000220 67 75 0d 3e 88 90 88 bd 2b 0d eb be d6 f3 b6 3d
       0.13814317 -0.06668192 -0.45908484 0.08933227
000230 07 06 ab be 44 dc 35 3e 45 27 16 bd 49 93 4b 3c
       -0.33403036 0.17759806 -0.036658544 0.012425252
000240 ed 34 7a 3d 0e cc f6 3c 47 a4 42 3d b4 38 43 bd
       0.06108563 0.030126598 0.04751995 -0.0476615
000250 50 62 aa bb ef 25 a4 bc 64 d1 66 3e 0d 14 2b be
       -0.005199708 -0.02003762 0.22540814 -0.16706868
000260 52 61 c3 bd f0 02 41 3e 49 72 0a bf 6e 13 12 be
       -0.09540047 0.18848777 -0.54080635 -0.14265224
000270 e8 8f 6e 3e 70 ea 1c 3e 47 7e 4e 3e 7f 4c 2d bd
       0.23297083 0.15323806 0.20165358 -0.04230928
000280 90 ab 51 bd 01 b5 2c be ff f5 88 be 6c a5 7f bd
       -0.051189005 -0.16865923 -0.2675018 -0.062413618
000290 02 4c 78 3e e1 50 32 3e aa f6 50 3e 17 3b 4d be
       0.24247745 0.17413665 0.20406595 -0.20042072
0002a0 e4 89 a4 3e 4b 1f 8d bd 68 5e 94 3e 63 22 c6 be
       0.32136452 -0.06890734 0.28978276 -0.3869811
0002b0 b8 aa 9b be 05 04 74 bd f5 b0 18 be a1 f3 ed bd
       -0.30403686 -0.059574146 -0.14911254 -0.11618734
0002c0 6a fb 89 3d 3c 0e 63 bd 87 0e 48 3e 9c 3d 4f 3d
       0.067374066 -0.055433497 0.19536792 0.050595865
0002d0 ea ff 55 be 64 44 e8 3d 43 6f d4 3c 02 08 cb 3d
       -0.20898405 0.113411695 0.02593196 0.09913637
0002e0 48 92 94 bd 46 42 25 3d b4 94 01 3e 68 43 23 3e
       -0.072544634 0.040346406 0.12654382 0.15943682
0002f0 f1 7c 71 be 34 d9 8e bd cb 8d 40 3e 4b de a1 bc
       -0.23582818 -0.06975022 0.1880409 -0.019759318
000300 19 bc a1 3d 5e d4 15 be 63 b7 cf bc 58 a7 70 3d
       0.07897205 -0.14631793 -0.025356 0.05875334
000310 69 f6 2f be ed d1 ad be a7 28 26 3e 38 e1 e8 3d
       -0.17183842 -0.33949223 0.16226445 0.11371082
000320 28 54 14 bf f7 69 6b bc 32 9d 64 be a5 b4 20 bd
       -0.5794091 -0.014368526 -0.2232559 -0.039234776
000330 35 c1 a4 be 2d 6f f6 3d 9c 90 4c 3e 38 84 9a bd
       -0.32178655 0.12032924 0.19977039 -0.0754475
000340 4b 60 65 bc de 88 ef 3d c7 96 8a 3d 19 8d 28 bc
       -0.014000009 0.11696027 0.0676704 -0.010287547
000350 3e b3 6c 3e 9d 89 38 3e 58 9d ed 3b 31 f3 cf bd
       0.2311525 0.18021245 0.007251423 -0.10153807
000360 cd 19 96 bc 13 d6 7c be 65 30 f6 bd 46 cb 54 bb
       -0.01832285 -0.24691038 -0.12020949 -0.0032469793
000370 02 b1 29 bd b5 e7 ac 3d 53 1f c7 be e3 d7 c6 bd
       -0.041428573 0.08442632 -0.38891086 -0.09709146
000380 3d 96 1e 3e cb 25 50 3e 7d 9c e7 3d e8 b5 31 3d
       0.15486999 0.20326917 0.11309145 0.04338637
000390 c8 2d 80 be f8 52 c8 3d ba 18 0e be 34 73 22 be
       -0.25034928 0.0978145 -0.1387662 -0.15864259
0003a0 5b 52 38 3e 73 f7 28 3a 09 8f 3a 3d d3 3b 64 bd
       0.18000166 0.0006445564 0.045546565 -0.055721115
0003b0 e9 18 e8 3d 03 63 13 3e 22 9b 98 be 96 63 36 bd
       0.11332876 0.14393239 -0.29805857 -0.044528566
0003c0 68 0f 91 be 54 c7 e5 3d 4d a8 e5 be 7b f9 0d 3e
       -0.28332067 0.112196594 -0.44854966 0.138647
0003d0 be 01 f6 3d b5 3a 9b 3d 78 50 40 3e 8e aa 1c 3d
       0.12012051 0.07579557 0.18780696 0.03824859
0003e0 d6 6d d8 3d 54 89 ac 3d dd 79 f5 bd f5 67 64 be
       0.105678245 0.08424631 -0.11986134 -0.22305281
0003f0 23 37 59 3e 97 61 35 bd 22 ca 09 3e ba d4 4c 3e
       0.21212439 -0.044282522 0.13456014 0.20003024

fc2.bias f4 [64]
000000 5a 7d 40 bd e0 90 73 3e df 0d de bd 18 c8 76 3c
       -0.046994545 0.23785734 -0.108424895 0.0150623545
000010 23 c0 05 be a0 0d 27 bc 2a 2b d2 bd f4 69 54 3d
       -0.13061576 -0.01019612 -0.10262139 0.051858857
000020 25 34 de 3d 2e eb 90 3d 3f be 24 3e f3 c1 62 3e
       0.108497895 0.07076107 0.16088198 0.22144298
000030 bb f4 48 3d 2f 99 b8 3d 4f ee 8d bd ef 35 31 bd
       0.04906152 0.090135925 -0.069302194 -0.043264326
000040 20 a9 16 be 35 29 b9 bd 02 cb 7d bd fd 15 16 be
       -0.14712954 -0.09041063 -0.06196118 -0.14656825
000050 62 e0 93 3e 1b 0f 1f 3e a0 75 d6 3d 40 f0 28 3b
       0.28882128 0.15533106 0.10471654 0.0025777966
000060 79 80 af 3c d8 de 66 bd 6e 43 8f bd c9 61 eb 3d
       0.021423565 -0.056364864 -0.06995283 0.114932604
000070 9c b3 47 3e 52 1c a0 bd 44 f3 87 3d 70 55 e2 3d
       0.1950211 -0.07817902 0.06638196 0.11051452
000080 71 e5 e4 3d fb 68 87 bd fe da 01 bd 25 74 ac 3d
       0.11176575 -0.0661182 -0.031702988 0.0842059
000090 12 5a 75 3e 11 dc 6a 3e 36 1f 01 be 30 20 b1 bd
       0.2396014 0.22935511 -0.12609562 -0.086487174
0000a0 ae 05 4b 3e 68 0b 45 bd f8 c3 ae bd c7 4c 23 bd
       0.19826385 -0.04810658 -0.08533472 -0.039868142
0000b0 87 c8 1c 3e c0 94 9d 3d 34 9b ff 3d cc 23 dc 3c
       0.1531087 0.076943874 0.124807745 0.026872538
0000c0 37 d6 2e 3d 94 11 83 3d f4 6e 51 3e 57 26 0f be
       0.04268476 0.06399837 0.20452482 -0.13979469
0000d0 7e 06 37 3e b8 dd ab ba a7 ab b8 3d 58 67 68 3e
       0.1787357 -0.0013112342 0.09017115 0.22695673
0000e0 a2 b2 af bd 8b e6 de bc 25 79 b2 bc b2 b4 22 3e
       -0.085789934 -0.02720954 -0.021786282 0.15889242
0000f0 53 9b 57 3e 6e ec d3 bd 9c ee 10 3e 4e 21 75 bd
       0.21055345 -0.1034783 0.14153522 -0.059846215

fc3.weight f4 [64, 64]
000000 c7 2e 66 3c da 55 46 3e 5f 94 a7 bb 17 fe 5f bc
       0.0140492385 0.19368687 -0.0051141228 -0.01367142
000010 4d 7a 91 bd d4 be 2e be ab 8c d9 bd ed f5 a4 3e
       -0.07103405 -0.17064983 -0.106225334 0.32218876
000020 63 3a a7 be 3c 31 d3 3d 52 1b 47 3e 06 7c 74 be
       -0.32661733 0.10312125 0.19444016 -0.23875436
000030 8c 50 82 3e 95 b3 b3 3e 65 e0 c3 bd df 9e 20 be
       0.25452077 0.35097948 -0.09564284 -0.15685605
000040 58 2e a0 3e c7 25 0b 3e 0f ca 32 be c0 33 b3 3d
       0.31285357 0.1358863 -0.17459892 0.08750105
000050 4d f9 6e bd 71 f1 54 be 86 bb 08 3e 34 84 4d 3d
       -0.05834322 -0.20795228 0.13352785 0.050174907
000060 2e 43 21 3d 2f 2e 17 3d 51 2a 20 bd e2 ab 25 3d
       0.03937071 0.03690928 -0.039102856 0.040447123
000070 09 1b 5c bd fa eb 73 3e 9d 16 47 3e ff 1c e3 3d
       -0.05373672 0.23820487 0.1944222 0.11089515
000080 9c f8 c6 3d ef 9f 49 3e 48 6d a4 be 4a b0 68 3e
       0.09715387 0.19689916 -0.32114625 0.22723499
000090 2f db 97 bb 5a e3 f5 3d 9d 4c a9 3d 62 7c 8c be
       -0.004634283 0.120062545 0.08266566 -0.27438647
0000a0 ae f2 86 3e a8 5e d9 be bb 23 be bd 79 a0 49 be
       0.26357025 -0.4245503 -0.09284159 -0.19690122
0000b0 00 f7 ae bc 20 31 66 3e 44 9c 1d 3e 1c cd 91 3e
       -0.021358013 0.22479677 0.15391642 0.284768
0000c0 ed e2 80 3d 7c 21 bb be 3f e3 5e bd cb 10 c7 3d
       0.06293283 -0.36548984 -0.054415938 0.0972
0000d0 fe f7 59 3e 33 a2 3a bd 2f 6e c2 be 1e 84 08 3d
       0.21286008 -0.04556484 -0.37974688 0.03332912
0000e0 54 5f 95 3c b5 64 e8 3d 58 30 38 be b7 2a 93 bc
       0.018233933 0.11347333 -0.17987192 -0.017964704
0000f0 d8 7c 78 3e b7 ed 4d 3e 42 1e 36 3d 51 1c 20 3d
       0.24266374 0.20110212 0.04446245 0.039089505
000100 e4 2f 0e 3e 88 04 00 bd 96 7f 42 3e 3f a3 d9 3d
       0.13885456 -0.03125432 0.18993983 0.1062684
000110 3c e8 30 bd 8c a4 4f 3d c6 e0 4b 3e 99 a0 24 bd
       -0.043190226 0.050694034 0.19909963 -0.04019222
000120 ad 9a fa 3b 02 b1 3f 3e df 07 3f 3d b3 f4 5d be
       0.0076478333 0.18719867 0.046638366 -0.21675377
000130 41 7a ad 3c 1e 73 0d be 27 73 d6 3d cb f4 e2 bd
       0.02117646 -0.13813445 0.10471182 -0.11081847
000140 3e 10 04 be fa d7 90 3e 4a e9 a4 be c5 79 2e be
       -0.12896821 0.28289777 -0.32209235 -0.17038639
000150 31 88 45 3e cd 83 2e 3e 43 0f c3 bc 23 a1 1f be
       0.19290234 0.17042466 -0.023810988 -0.15588813
000160 1e 71 02 3e b0 a0 b6 3d 91 3d 27 3e 5d 31 09 3e
       0.12738463 0.089173675 0.1633208 0.13397737
000170 9e 5f 4e 3d f9 a7 30 3d 97 5f 05 bd 37 fb 7d 3e
       0.050384156 0.04312894 -0.032561865 0.24802862
000180 ea 55 ef be 55 87 03 be 90 ae ce ba 29 28 39 3e
       -0.46745235 -0.12844594 -0.0015768576 0.18081726
000190 46 fc cd bb ae 3d 1d be b1 86 c7 3d b8 07 22 bd
       -0.006286177 -0.1535556 0.09742487 -0.039558142
0001a0 42 a2 2a 3e ec 04 92 be 97 e2 e6 bd 7f 45 43 bc
       0.16663459 -0.2851938 -0.11273687 -0.011918425
0001b0 9e 0b 18 3d ff e5 bb be 7d bb 04 bd ba 4a 02 3f
       0.037120454 -0.3669891 -0.032405365 0.50895274
0001c0 a8 d5 0f bc 3c e0 43 be 03 d6 3a 3d da 3f 81 3c
       -0.008778967 -0.19128507 0.045614254 0.015777517
0001d0 68 d5 ff bd 1f 86 09 3e 5f a5 ca bd a6 56 11 3e
       -0.12491876 0.1343007 -0.09894823 0.1419321
0001e0 bf c7 77 3d ef 13 84 be 22 03 9e 3d 68 12 e8 3c
       0.060493227 -0.25796458 0.07715441 0.02832909
0001f0 59 97 9f bc 70 55 c5 be 2d b3 69 3c ca 08 aa 3d
       -0.019481348 -0.38541746 0.01426391 0.08302458
000200 77 1a d2 bd 79 a2 c4 3e 53 1c 6f 3e dd 36 11 3e
       -0.10258954 0.38405207 0.23350649 0.14181085
000210 94 1a 3e bc 84 46 2b 3e 14 09 37 bd 02 f0 53 3e
       -0.011603016 0.16726118 -0.044686392 0.20697024
000220 ba a1 0d bd c2 1f 69 3e 84 e7 d3 3d 02 2a 71 bc
       -0.034578063 0.22766021 0.103468925 -0.014719488
000230 ee 41 b9 3d e8 10 60 bd de 06 48 3e ed 85 bf 3d
       0.09045778 -0.054703623 0.1953387 0.09351716
000240 8a 10 38 bd c0 e2 60 3e 61 8a 5b be f6 d2 ba 3d
       -0.044937648 0.21961498 -0.21439506 0.09122269
000250 d5 df c8 3d 23 d2 2c 3d 42 70 ce bd 9e 15 f8 3b
       0.098083176 0.04219259 -0.10080005 0.0075709363
000260 74 78 8a bd f5 67 4b bc 1e 9e 40 3e 97 01 10 3e
       -0.06761256 -0.012414922 0.18810317 0.14063106
000270 14 04 ab bd ed e9 49 3e 51 b4 17 3e ad 1d f5 3d
       -0.08350387 0.19718142 0.14814879 0.11968551
000280 6c a5 96 3b 41 dd 66 bd 07 80 5b be 4f 0f 8e 3e
       0.0045973565 -0.056363348 -0.21435557 0.27746055
000290 bd 84 b3 3a 0d 0a a2 3d 7a 04 8b be 79 30 41 bc
       0.0013696175 0.07912073 -0.27151853 -0.011791342
0002a0 c6 d4 cf 3d 2d 07 18 be 3e d2 60 be 1b 53 79 be
       0.10148005 -0.14846487 -0.21955201 -0.24348108
0002b0 9f 5c de 3d 99 b1 90 bd e6 68 bc 3d 78 2a c8 3e
       0.1085751 -0.07065124 0.09199695 0.390949
0002c0 06 f4 67 3e 10 71 22 be ed 0b dc bc 44 9d ed bc
       0.22651681 -0.15863442 -0.026861155 -0.029005654
0002d0 58 7b bf bb 1d 22 02 3e 1b ed 09 bd 07 d2 c1 3d
       -0.005843561 0.12708326 -0.033673387 0.09463888
0002e0 26 4d 16 3e 36 d3 7e be cb dd 6a be 69 81 f5 3d
       0.14677867 -0.24885258 -0.2293617 0.11987574
0002f0 d8 38 2c 3d a8 77 0c bd 8f fc ef bd ab 17 46 3e
       0.042046398 -0.0342938 -0.117180936 0.19344966
000300 89 77 30 3d 2d 8b 76 bd 34 6c 33 3e 8f 31 9c bd
       0.043082748 -0.060191322 0.17521745 -0.0762664
000310 04 d2 29 3e d7 bd 2d 3e d4 50 fb 3d 78 8d 2d be
       0.16584021 0.1696695 0.12271276 -0.16948497
000320 fb 07 a1 3e 4c 22 19 3e 59 3b 8b 3d fd d6 ab 3d
       0.314514 0.1495449 0.06798429 0.08390615
000330 24 b7 b4 bd e1 de 4c be e1 b9 0d 3e 55 4a 57 3d
       -0.08823994 -0.20006897 0.13840438 0.052561123
000340 77 ba c5 be 74 89 86 3c 46 15 57 bc 7c ca 99 bd
       -0.38618824 0.016422965 -0.013127631 -0.07509324
000350 db 2e a2 3d 96 8a 09 3e 8d 17 9f bd fe 62 dc 3d
       0.07919093 0.13431773 -0.07768164 0.10761069
000360 d1 1b ec 3b d6 fb 55 3e d3 8d 16 3e 68 81 b1 3d
       0.0072054644 0.20896849 0.14702539 0.086672604
000370 c7 ba c0 3c 67 cc aa bd cc 53 0c 3e 4d 6f 5f 3d
       0.023526562 -0.08339768 0.13703841 0.054549504
000380 dd 73 d7 bc de fb 75 be e8 34 91 3e 4e c0 69 bd
       -0.026300365 -0.24021861 0.28360677 -0.05706816
000390 e8 20 d0 3d d3 e7 51 bd bc 23 9f 3d 4b 72 3f 3e
       0.10162526 -0.051246475 0.07770488 0.18695943
0003a0 9d 9b 57 bd 5f 92 41 3e 00 af 2c 3d a7 ca 57 3c
       -0.05263864 0.18903492 0.04215908 0.013170875
0003b0 95 79 11 3d f5 83 9f be 23 d2 63 3d 9e da f5 3c
       0.03551634 -0.31155363 0.055620324 0.030011471
0003c0 e2 71 a5 bd 82 2c 75 3e 06 da 6b 3d 89 f2 b5 3d
       -0.08078362 0.2394276 0.05758097 0.088841505
0003d0 11 3d da 3c f7 49 72 3e 17 13 6a 3e 62 25 92 bd
       0.026640447 0.23661028 0.22858845 -0.071360365
0003e0 ec bd 46 be 65 15 03 bd a9 c1 78 3e 8b 9c 2b 3e
       -0.19408387 -0.032002825 0.24292625 0.16758935
0003f0 e7 9c 27 bd 13 2d 92 be 8b 9c 80 3e 2b c5 8a 3d
       -0.040921118 -0.28550014 0.25119433 0.06775888

fc3.bias f4 [64]
000000 07 6d 2d bd b7 f3 71 3d e6 34 12 3d a2 5b 03 3d
       -0.042340305 0.059070315 0.03569498 0.03206981
000010 b7 4f 2e 3d e4 0a f0 3d 19 98 fe 3d f2 35 aa 3c
       0.04255649 0.11720827 0.12431354 0.020777676
000020 50 4f 46 3d 17 91 f5 3d 69 63 63 3d f9 82 75 bd
       0.048415482 0.11990564 0.055514727 -0.05993936
000030 23 0f 89 3c af e0 95 3d 4c c4 0f 3e 11 c7 68 3d
       0.01673085 0.073182456 0.14039725 0.05683047
000040 da e4 12 3e 6d 58 00 3e 4a 94 02 bc 6a ed dc 3d
       0.14345112 0.12533732 -0.007969925 0.10787471
000050 ec 9d 1b 3e 5f 8c ff 3d bd c5 07 3e fa 58 37 bd
       0.15196961 0.124779455 0.13259025 -0.04476259
000060 ed d3 04 3d f3 d9 91 3a 4d 2f f4 3c dc 33 7a 3d
       0.03242867 0.0011127576 0.029807711 0.061084613
000070 0e 3c 83 3c 57 d0 d4 3d b8 2e 4b bd 4b bb de 3d
       0.016019847 0.103913 -0.0496051 0.10875567
000080 d5 1d f8 3a 2a 58 b1 3d 38 4b 02 3e c9 86 94 3a
       0.0018929789 0.08659394 0.12724006 0.0011331673
000090 02 be 13 3e 42 75 0a 3e f8 1c 33 b9 fb ec ba 3d
       0.14427951 0.13521293 -0.00017081562 0.09127232
0000a0 7f 42 82 3d 3c 8b 86 3d a1 0a f3 3d 33 29 a7 3d
       0.063603394 0.065695256 0.11867262 0.08162155
0000b0 dc 75 57 bd 3b 0a f3 3d 9c 83 80 3d dc 7d 11 3e
       -0.052602634 0.11867186 0.062751025 0.14208168
0000c0 20 96 16 3e fa d9 48 3d 88 d1 78 3c dd 3a b3 3d
       0.14705706 0.049036004 0.015186675 0.08751462
0000d0 c7 88 be 3d d2 e0 f8 3d 17 b7 07 bc 5c d5 90 bd
       0.09303432 0.12152256 -0.008283398 -0.07071945
0000e0 d0 40 41 bd b1 00 66 3d 57 71 9f 3c 4f de e3 3d
       -0.04718095 0.056153003 0.019463224 0.111263864
0000f0 af d8 f4 3c f4 69 0c 3e 10 2d 36 3d 24 7e 37 3c
       0.029888479 0.13712293 0.04447657 0.011199508

fc4.weight f4 [2, 64]
000000 e9 f4 e3 be d3 38 26 bd f9 2d 7c be 76 41 91 3e
       -0.4452279 -0.040581536 -0.24626912 0.28370255
000010 d8 6f 52 3e 58 77 88 3e 74 a6 2f 3e e2 19 8f be
       0.20550478 0.26653552 0.1715334 -0.27949435
000020 61 58 3a 3d dd f0 8a 3e f1 9c 07 bf 7d 9f 55 3e
       0.04549444 0.2713689 -0.5297385 0.20861621
000030 60 bc 7f 3e f7 2c 83 3d dc a8 5c 3e 73 93 85 be
       0.24974203 0.06405061 0.2154879 -0.26089057
000040 f7 47 8a 3e de 4a 63 bc 88 a9 83 be 73 14 98 be
       0.2700803 -0.01387283 -0.2571528 -0.29703102
000050 fc 2c 68 bd e2 ee 84 3d f3 15 24 be 21 c7 fd bc
       -0.056683525 0.06490876 -0.16023998 -0.030978741
000060 66 20 8f 3e 58 b4 27 be 3f 88 2e be 17 26 0d 3e
       0.27954406 -0.1637739 -0.17044161 0.13784061
000070 4f 9d 35 3a 0c a3 3e 3e b0 a6 08 bf 6e f6 b5 be
       0.0006928043 0.18616885 -0.53379345 -0.35539573
000080 83 40 7f 3e 68 93 3d bc 3d a6 4b bf 6c 6a 92 be
       0.24926953 -0.011570789 -0.79550534 -0.28596818
000090 38 77 1c 3e 44 ea e1 3d b1 1e 76 be ba 29 38 3e
       0.15279853 0.11031011 -0.24035145 0.17984667
0000a0 63 e9 ee be 6c be 67 bd da 48 67 3e 04 f3 46 be
       -0.46662435 -0.056578085 0.22586384 -0.1942864
0000b0 81 df 24 3e fe c1 32 3e b9 ef a6 be f2 d5 98 3e
       0.16100885 0.17456815 -0.3260477 0.29850727
0000c0 80 28 93 3e cb 54 99 3e 0c 70 92 3e 7b 99 90 3e
       0.28741837 0.29947504 0.2860111 0.28242096
0000d0 02 4b 90 3e 46 f7 95 3d 61 64 08 3e 7e 59 67 be
       0.28182226 0.07322554 0.13319542 -0.22592732
0000e0 4d 09 1c be 53 ad 38 3d 86 8e c9 be ec 35 9d be
       -0.15237923 0.04508717 -0.3936655 -0.30705202
0000f0 43 b0 cb be bc e6 6e 3e f2 71 a4 be b6 33 f5 be
       -0.39782915 0.23330206 -0.32118183 -0.47891015
000100 58 f5 51 be db 90 cb 3e e9 1d 55 3e 15 bb 40 3e
       -0.20503747 0.39758953 0.20812191 0.18821366
000110 91 5f 87 be a4 95 1f be f2 09 94 be 07 f1 6a 3e
       -0.264401 -0.15584427 -0.28913838 0.22943507
000120 b7 85 24 bf c0 7e 05 bb 55 e1 5a 3e c5 76 68 be
       -0.6426653 -0.0020369738 0.2137502 -0.22701557
000130 60 9e 5e be 7d f6 a1 3e 6f 80 94 3e b9 99 4f 3f
       -0.21740103 0.31633368 0.29004237 0.8109394
000140 7a 3a 54 3e 4f d9 b2 be 85 ae 1c be e5 4c 71 3e
       0.20725432 -0.34931418 -0.15300949 0.23564489
000150 a5 46 ba 3e c6 66 f2 be e8 41 97 be 45 32 d9 3e
       0.36382023 -0.47344035 -0.2954247 0.42421165
000160 e1 ac 3a 3e da ad a4 be 39 12 47 be 1d 1f 71 3e
       0.1823001 -0.32163888 -0.19440545 0.23547025
000170 ae 50 99 be 38 81 dc 3d 92 06 f3 3d 54 14 20 be
       -0.29944366 0.10766834 0.118664876 -0.15632755
000180 5d e5 a6 bd fe 50 84 3e 34 57 7a bd 89 5b 09 be
       -0.08149216 0.25843042 -0.06111832 -0.13413824
000190 12 80 78 be 0f c8 35 be 4c ba b9 3e 8a 4c 32 3e
       -0.24267605 -0.17752098 0.36274946 0.1741201
0001a0 a3 82 54 3e 9a 42 5d 3f 9b 89 35 be b8 1f 06 3e
       0.20752959 0.8642975 -0.17728274 0.13098037
0001b0 c3 fc f7 bd c8 1b 9a bd fa 9e 91 3e 3e 84 07 3b
       -0.12108757 -0.0752483 0.28441602 0.0020678188
0001c0 b8 7b 76 3b b4 8e f5 3d ed 52 7d be 42 bb ac 3e
       0.0037610363 0.11990109 -0.24738665 0.33736616
0001d0 ea 5b 05 be d1 10 60 3e f0 3e ba 3e 32 38 e9 3d
       -0.13023344 0.21881415 0.36376143 0.113876715
0001e0 48 54 80 be c2 c6 73 be 49 c8 ec be 28 a2 ea 3d
       -0.25064301 -0.23806289 -0.46246555 0.1145671
0001f0 06 34 10 3e 4e 2e 14 3e 80 32 4f be ce 25 40 bf
       0.14082345 0.14470789 -0.20234108 -0.75057685

fc4.bias f4 [2]
000000 3f fc b7 3c 8c 3e a1 3d
       0.022459147 0.07873258

fcState.weight f4 [32, 24]
000000 54 98 ff 3d a5 a5 79 bd fc 2f 87 bd 12 18 40 3d
       0.12480226 -0.060948987 -0.06600949 0.046897955
000010 67 38 00 bf ae 91 c9 3e ba 25 8c bd da 03 61 3d
       -0.50086063 0.39368957 -0.06843133 0.054935314
000020 bd a0 02 3e 7c 4b 77 3d 6c d4 6b 3d 4b 40 88 3d
       0.1275663 0.060374722 0.05757563 0.06652888
000030 03 41 d0 3d 7f ee 4e be a5 1a 64 bc 4a fc 1b 3d
       0.1016865 -0.20208167 -0.013922368 0.0380824
000040 ed b5 25 3e 22 97 8e 3e 55 b7 39 3e c3 06 c2 3d
       0.1618268 0.2784968 0.18136342 0.09473946
000050 ce ec 63 3e d2 f8 25 bf 6d 29 00 bd 0d c6 68 bd
       0.22258303 -0.64832795 -0.031289507 -0.0568295
000060 89 ff 10 be fe c1 3c be 83 10 bc 3d da 5a 41 3e
       -0.14159979 -0.18433377 0.09182837 0.18882313
000070 4b 98 e9 bc 9f 61 9f 3e 49 91 de 3c eb 01 8b 3e
       -0.028515002 0.31129166 0.027168887 0.271499
000080 a1 a5 89 3e a5 ed e4 be 8e 10 21 be ef 74 9d bd
       0.26884177 -0.44712558 -0.15728971 -0.07688319
000090 0d 76 11 3e 52 ae 0e 3d 9c 42 fe 3d 22 17 96 bd
       0.14205189 0.034834214 0.124150485 -0.07328631
0000a0 3b 74 f3 3e c6 2c 94 be 6a 05 1b 3e 5f 8d b6 bd
       0.47549614 -0.2894041 0.15138784 -0.08913683
0000b0 8e 4e 0f bf ec 07 41 bd b4 5e e1 bd f9 1a 01 bd
       -0.5597924 -0.047126696 -0.11004391 -0.031519864
0000c0 ad b2 f0 bc 2f 75 b5 3d 1b 80 54 be ef fb 83 be
       -0.029382074 0.088602416 -0.20751993 -0.25778148
0000d0 ee 7d 11 3f b5 4a 0f be 3b a6 44 3e aa 56 4f 3b
       0.5683278 -0.13993342 0.19204037 0.003163735
0000e0 53 36 50 3c ff e7 d6 bd 7f 45 0c 3d 63 a6 0f 3d
       0.012708264 -0.104934685 0.034245964 0.035070788
0000f0 67 72 2d 3d c7 fb 85 3d 65 b7 0a 3d 0b 6c 1c 3e
       0.04234543 0.06542163 0.033866305 0.1527559
000100 4c 12 cb bd d1 b8 2c 3e 78 89 4c bd 7f 37 0d 3e
       -0.09915599 0.16867377 -0.049935788 0.13790701
000110 48 bc 1f bf e0 b5 ee 3c a5 3f 85 3d ad b0 76 3d
       -0.6239667 0.02913946 0.0650628 0.060227085
000120 70 a3 5f 3d 04 fa 2b 3d 2a a9 b0 3d bf 78 9b bb
       0.054599226 0.04198648 0.086260155 -0.0047446187
000130 c0 7e 60 3e 09 93 21 3e 36 e1 2d be 47 91 59 3d
       0.21923351 0.15778746 -0.16980442 0.053117063
000140 d7 58 df bc a4 e1 fb bd c1 b1 25 3d 1e b4 11 3e
       -0.027264042 -0.12298897 0.040452722 0.14228866
000150 57 cb 90 3d d4 2d 0e be 51 1b 1d be 1c b9 a6 3e
       0.07070034 -0.1388467 -0.15342452 0.32563102
000160 98 f8 59 bc 3d 13 16 3e fc f9 56 3d 52 c5 94 be
       -0.013303898 0.14655776 0.052484497 -0.29056793
000170 53 f9 96 3c 70 1d 37 3e 5f 68 19 be 01 fa 6f be
       0.018429434 0.17882323 -0.1498122 -0.23435213
000180 41 b6 a4 3c 86 b6 61 3e d5 44 c7 bd 1e d3 ac bd
       0.020106437 0.22042283 -0.097299255 -0.08438705
000190 30 ee 3a 3f 10 f7 09 bb b9 3f d6 3d 5c bd 86 3d
       0.73019695 -0.0021051802 0.10461373 0.06579086
0001a0 34 bb 06 be ac b7 ae bc 35 e4 86 3d 89 e0 9a bd
       -0.1315735 -0.021327816 0.06586496 -0.07562358
0001b0 4c 2b d9 3f 8b e1 b7 3d b4 ee 83 bd fd 8e 87 3d
       1.6966338 0.08978566 -0.064420134 0.0661907
0001c0 9c 59 1e 3e d9 2c 9e bd c8 c3 a1 3d 24 9f 3f 3e
       0.15463871 -0.07723398 0.078986704 0.18713051
0001d0 42 95 15 40 3c 46 56 3e 22 0d c1 bd 0d c4 e5 bd
       2.337235 0.2092523 -0.09426333 -0.11219034
0001e0 69 ec 82 be 2b 59 a1 3e 33 c0 4d 3e 17 67 47 be
       -0.25570992 0.31513342 0.2009285 -0.1947292
0001f0 16 6a f3 3e eb 76 c5 3d 21 1a 47 be 9f 96 df bd
       0.47541875 0.096418224 -0.19443561 -0.109174006
000200 03 8c 98 3d 6f e6 0a 3f f9 16 f4 bd 6d a7 4b be
       0.0744858 0.54257864 -0.11918444 -0.19888087
000210 7b 40 c4 3e eb 50 b9 3c a2 08 0a 3e dd f3 c8 bd
       0.38330445 0.022621593 0.13479856 -0.09812138
000220 ba 5a c5 3d ad 34 31 3f b8 8f ce bd f1 8c 99 3d
       0.09636445 0.69221 -0.10086006 0.074975856
000230 b3 c1 ae be 68 5d c8 be 6f ef b0 bd 4d 63 a4 3e
       -0.34132156 -0.39133763 -0.08639418 0.3210701
000240 06 ca d3 3d 3a f3 11 be dd 20 ae 3d 9e 79 0e bc
       0.10341267 -0.1425294 0.08502362 -0.008695988
000250 6c 4e 29 3f 31 dd 79 3e e3 1d 80 bd da 86 ff 3d
       0.6613529 0.24400784 -0.062557004 0.12476893
000260 97 15 19 bd bc ee b8 bd 11 56 26 be 6b 19 9a bd
       -0.037374105 -0.0902991 -0.16243769 -0.07524379
000270 dd cc 04 3d 83 a9 0b 3d d0 90 33 3e 14 2b 2d bc
       0.032421935 0.034097206 0.1753571 -0.010569353
000280 9a d3 02 be b9 82 25 bd a8 9e a6 3d 68 d5 b9 3d
       -0.12776032 -0.04040787 0.0813573 0.09073907
000290 4f 83 3a bf 02 71 a9 3e b5 d4 6e bd 93 da b2 bd
       -0.7285661 0.3309403 -0.058308322 -0.08733096
0002a0 47 86 bd bd c9 9c 67 3d 50 35 f6 bd 9b ef 41 bd
       -0.09254127 0.056546006 -0.12021887 -0.047347646
0002b0 d0 94 92 be 1f 91 8d 3d 61 89 15 3e 33 b3 83 3d
       -0.2862916 0.06912445 0.14603187 0.06430664
0002c0 8b 4c 14 3e 68 cd 82 3e 28 e2 b1 bc 71 81 72 3e
       0.14482324 0.25547338 -0.021714285 0.2368219
0002d0 ff 43 2e be 13 87 09 bd 72 d5 66 bd 99 74 17 3d
       -0.17018126 -0.033576082 -0.0563559 0.03697643
0002e0 51 66 2c be 67 3b 35 3f 96 b4 30 be 8f be 4f 3d
       -0.16835906 0.70793766 -0.17256388 0.05071884
0002f0 10 e0 da 3d 49 8b 80 be 0c 94 9d 3d 50 68 06 3e
       0.10687268 -0.25106266 0.07694253 0.1312573
000300 33 e0 d4 bd 87 d3 9c bd 2c 21 ff 3c 55 c1 08 be
       -0.10394325 -0.07657533 0.031143747 -0.13355
000310 9e f7 c2 bd a0 57 73 be b0 16 aa 3d 66 06 08 be
       -0.095198855 -0.23763895 0.083051085 -0.13283691
000320 ce 5a 46 3e b3 85 c6 bd 94 af 1a 3e 7f 52 da bd
       0.19370577 -0.0969347 0.1510604 -0.10660266
000330 b1 8c 81 3d 99 d7 00 be 2a 2f 20 bd e7 fe 0a bd
       0.06325663 -0.12582244 -0.03910748 -0.0339345
000340 87 d1 17 3e 80 c6 ce 3e 4c 3f b7 bc b1 89 20 be
       0.14826022 0.40385818 -0.02236905 -0.15677525
000350 e9 87 47 bd 80 4b f4 3e 40 9f fb 3d 50 16 4e bd
       -0.0487136 0.47713852 0.12286234 -0.050314248
000360 e9 fc 62 3d f4 49 de bd 8c a6 7e ba 25 61 7c 3e
       0.055416975 -0.10853949 -0.00097141485 0.24646433
000370 ab 64 20 3d 58 73 b1 3e 47 cf af bd ae 51 9e bd
       0.039158504 0.34658313 -0.08584457 -0.07730423
000380 e5 09 0c 3e 30 af 7b be 54 91 52 bd b5 b6 4c 3d
       0.1367565 -0.24578547 -0.051408127 0.04997893
000390 74 f9 81 3d f1 20 e1 3e fc ac 3c bd e0 ac 83 be
       0.063464075 0.43970445 -0.04606341 -0.2571783
0003a0 40 19 10 3f 0a 54 13 be 11 fd 9a bd 67 25 82 3c
       0.5628853 -0.14387527 -0.075678 0.015886975
0003b0 22 a0 b4 be 4b 3a da 3e 5f 81 0b 3e c1 8a 48 be
       -0.35278422 0.426226 0.1362357 -0.1958418
0003c0 ef e9 ab 3c 3e a4 bc be 8c 66 11 3e 98 ed ac 3d
       0.020985572 -0.36844057 0.14199275 0.08443755
0003d0 4d b9 41 bf 72 cc a4 be af dc 0a be 61 d8 5c bd
       -0.7567337 -0.3218723 -0.13560747 -0.053917293
0003e0 a9 3d 9d 3b a5 a6 e2 3d a5 62 a5 3d 84 89 ad bc
       0.00479861 0.11066941 0.080754556 -0.021183737
0003f0 03 5f 15 be 9c ad 9f 3d 22 09 99 bd fe 73 5d bd
       -0.14587025 0.07796785 -0.07472445 -0.054065697

fcState.bias f4 [32]
000000 4e d0 d2 3c 25 e5 c8 3e fa 6d f7 bd 27 28 b8 bd
       0.025734093 0.39237323 -0.12081523 -0.089920335
000010 55 88 43 be 49 aa 88 bd 35 07 5a bd 32 15 e9 bc
       -0.19094975 -0.06673104 -0.05322953 -0.02845249
000020 76 6f 58 be fb 3d 74 be ba 41 ed be 6a 2f a2 bd
       -0.21136269 -0.23851769 -0.46339208 -0.079192
000030 08 be 72 bf d9 d9 2f bd ab 9f 1a be a1 13 89 3e
       -0.94821215 -0.042932365 -0.15099971 0.26772788
000040 34 6e 83 be 89 21 03 bf 83 92 bf bd f7 be 2b bf
       -0.25670016 -0.51223046 -0.09354117 -0.67088264
000050 91 47 f8 3e 2a f2 f4 3d 37 19 85 be 96 4a f0 3e
       0.484921 0.11960252 -0.259958 0.46931905
000060 99 4d 84 3e b5 2e 8c 3e f9 67 92 3e b2 2c 9c be
       0.25840452 0.27379385 0.2859495 -0.3050285
000070 3b 46 b6 3e 7d a2 37 be cf 88 b4 bd 7b 8f e1 be
       0.35600457 -0.17933078 -0.08815157 -0.4405478

fcAction.weight f4 [16, 2]
000000 0a eb a8 3d 21 64 b3 3e d1 17 49 3f d3 7d 8e 3f
       0.08247955 0.3503733 0.78551966 1.1132149
000010 18 19 27 be 04 65 2f be 58 08 5d be 31 be 76 3f
       -0.16318166 -0.17128378 -0.21585214 0.9638396
000020 8b 1e 1d bf f5 76 c5 be f0 11 d2 3d 7a 42 d1 be
       -0.6137473 -0.3856732 0.102573276 -0.4087103
000030 f7 11 5e 3f 5d 63 ad be ed ea 08 be da 48 21 3f
       0.8674616 -0.3386487 -0.13370867 0.6300179
000040 d7 8c 3c 3f 7b 50 87 3e 2e f2 a3 3e a0 69 9e bc
       0.73652405 0.2642859 0.32020706 -0.019337475
000050 d3 d8 ba 3f 79 a1 7f 3e 6e b0 bb bf 9c 84 1d 3e
       1.459742 0.2496394 -1.4663217 0.15382618
000060 c7 9a 07 3e 7c 8a ca be b0 6f 2c be 78 fa 2a be
       0.13242637 -0.3955878 -0.1683948 -0.16697109
000070 8c 0a e6 be 13 8d 2a be 51 e7 1a 3f d1 fa 18 3f
       -0.44929922 -0.16655378 0.6050921 0.59757715

fcAction.bias f4 [16]
000000 da 32 1f 3d a5 9c 60 bf 31 ea 1a 3f 69 9e 60 be
       0.038866855 -0.8773902 0.605136 -0.21935429
000010 31 40 89 3f 55 ea 2e bf 61 28 38 3e 55 5e 46 3f
       1.0722715 -0.6832631 0.17984153 0.7748769
000020 08 f5 ca 3e c1 9f b4 be 20 e4 30 bf a2 b4 be be
       0.3964007 -0.35278133 -0.6909809 -0.37247187
000030 ad 5d 09 3f 1f 48 16 bf 18 03 23 bf 03 e5 e1 bd
       0.5365856 -0.587038 -0.63676596 -0.11030009

fc2.weight f4 [128, 48]
000000 cc d6 9f be 85 2c 5b be 8a 72 fe 3a 5f 8d 02 c0
       -0.31218565 -0.21403702 0.0019412797 -2.0398786
000010 97 44 9e bf 37 25 60 be 83 4a fb be 3c 97 e4 be
       -1.2364682 -0.21889196 -0.49080285 -0.44646633
000020 a5 59 40 be 0b 8e ce be 0f 36 e3 bc ab 8b d8 be
       -0.18784197 -0.40342745 -0.027735738 -0.42294058
000030 9b e0 56 3e a7 88 83 3d b1 35 c2 3d 1a dd 9b bd
       0.20984118 0.06422549 0.09482897 -0.07610531
000040 d8 96 1e 3c c4 64 09 be e3 a8 80 bf d1 6b 06 bf
       0.009679519 -0.13417345 -1.005154 -0.52508265
000050 1f 9b 88 be 38 b3 15 3d 75 36 ce be 24 0a 4b bf
       -0.26680848 0.03654787 -0.40275922 -0.7931235
000060 d9 9e 19 be cc 90 88 3e f8 e4 2b bf d5 09 d7 be
       -0.15002002 0.2667297 -0.67146254 -0.4199969
000070 b1 f2 06 be cf ad 9e 3e 2b 0d 38 be 65 bb 54 be
       -0.13178517 0.3099198 -0.17973773 -0.2077461
000080 02 9e 01 3e 5a 0e bd 3d 02 f7 88 3e 2f f0 f0 be
       0.12657931 0.09231253 0.26750952 -0.47058246
000090 a4 0b a5 3e af 38 b7 bd 08 2c df bd 21 d3 81 3e
       0.32235444 -0.089463584 -0.1089707 0.2535639
0000a0 ff d8 5b 3e 60 6c 79 3d 85 1b 48 be d3 31 26 bf
       0.21469496 0.06089437 -0.19541748 -0.64919776
0000b0 4b f0 ab 3e 88 5a 7c 3d 5a 64 60 bd a5 61 a1 3d
       0.33581766 0.061609775 -0.054783203 0.07879952
0000c0 5c 2d 52 be 23 73 ce 3d 64 ac 01 bd 1c 71 98 3d
       -0.20525116 0.10080554 -0.031658545 0.07443449
0000d0 18 23 ac bd ae d2 b2 3d 50 ad 51 3e b6 c1 10 3c
       -0.08405131 0.0873159 0.2047627 0.008835247
0000e0 5c 27 81 bd 81 25 c0 bd c0 19 c9 be 28 f9 96 3d
       -0.06306335 -0.09382153 -0.39277458 0.073717415
0000f0 af cd 4e be 39 24 a5 be 75 a6 1e bd a6 9a 08 3e
       -0.2019565 -0.32254198 -0.038732965 0.13340244
000100 2f df f7 3d 88 dc a6 3d 7e 1e 87 3e 6a be 94 3e
       0.12103116 0.08147532 0.2639045 0.29051524
000110 b0 df 07 be c2 75 89 3b 1f d4 00 be ca 94 e8 3a
       -0.13268924 0.004194946 -0.12580918 0.0017744538
000120 ce 23 0f be ff d6 1d 3d 2d 97 25 be f6 5b c2 bb
       -0.13978502 0.038535114 -0.1617095 -0.0059313728
000130 bc 74 03 be c8 e6 9a bd ac ff 71 3d 16 14 a3 3d
       -0.128375 -0.07563549 0.05908172 0.079628155
000140 c1 95 13 3e a8 40 74 be e6 2f 86 bc c2 c7 f0 3d
       0.14412595 -0.2385279 -0.016380262 0.11756851
000150 6d 2d 82 bd fa db d6 3d 42 72 24 bd 8b db 06 3e
       -0.063563205 0.10491176 -0.040148027 0.13169686
000160 a0 44 f1 3d e0 d8 bf bc 52 23 0f be 68 f4 f1 3d
       0.11780667 -0.023418844 -0.13978317 0.11814195
000170 97 6d 2e be 64 a3 ba 3d 58 c8 c0 3d b1 f4 17 bd
       -0.17033993 0.091131955 0.094132125 -0.03709859
000180 2f 88 11 be ae 5c 50 be 8e 0d 93 bc aa 6f cd 3d
       -0.14212106 -0.20347854 -0.0179508 0.10031064
000190 8d 13 ec bd b3 85 f5 bd 60 d8 86 3e c1 f4 15 be
       -0.115271665 -0.11988392 0.26336956 -0.14644147
0001a0 72 1c e2 3d 29 ef 89 3c e5 3d f8 be b6 b3 46 3e
       0.11040582 0.016837673 -0.48484722 0.19404492
0001b0 dc 5f 86 3d 6e 2c 5d 3e ba 9e 95 bb cd 43 ef 3d
       0.065612525 0.2159898 -0.004566041 0.11682854
0001c0 2d 06 49 be d8 14 58 be e4 03 ce bd d7 84 b6 3b
       -0.19631262 -0.21101701 -0.10059336 0.005570035
0001d0 f4 ee 87 3e ae b9 0d 3e 06 9c 6e 3b 95 e0 f2 be
       0.26549494 0.13840362 0.0036408915 -0.47436967
0001e0 6a ba f7 3d 92 bf 9d 3d 68 cf c0 3c ac 3d 67 3d
       0.120961025 0.07702555 0.023536399 0.0564553
0001f0 ae be 80 bd b9 7b 31 be 1f 0a a6 bf 2d da f5 bd
       -0.06286369 -0.17332353 -1.2971839 -0.12004504
000200 eb 29 f2 3c 4f ec 20 bf 15 b7 8e 3c 64 f4 16 bd
       0.029561004 -0.6286058 0.017421285 -0.036854163
000210 df 62 0f be 96 5c 8f 3d 3c ee e1 3e 0e 9d 00 3e
       -0.1400256 0.07000081 0.4412707 0.12559912
000220 68 89 05 3c 00 9f 4f bc f6 cc b6 3e e2 da c9 bd
       0.008150436 -0.012672186 0.35703248 -0.09856202
000230 0f ad c1 bb 96 26 a6 bd b4 20 ac 3c f6 20 97 3e
       -0.005910523 -0.081128284 0.021011688 0.29517335
000240 b1 43 a5 3e b6 dc 06 3f a7 ae 87 bd f3 1c 42 bc
       0.32278207 0.5268053 -0.06625109 -0.011847722
000250 ec 97 c0 3c 4e 39 89 be 66 55 03 3e 64 1b 98 3d
       0.023509942 -0.26801533 0.12825546 0.07427099
000260 1b 4f 62 bd 51 0b 28 bf a4 9c 03 bf 05 f6 9e be
       -0.055251222 -0.6564227 -0.5141089 -0.31047073
000270 8b a7 2c bd 08 78 07 be 71 b6 54 bd cb f6 e4 bc
       -0.04215197 -0.13229382 -0.051931802 -0.027949711
000280 55 85 0c be d8 82 f6 bc b9 0f dc bc 15 44 b1 bc
       -0.13722737 -0.030091688 -0.026862966 -0.02163891
000290 0f 4b 9e 3d fa 9a 70 3d 91 03 84 3e d7 ea 40 3d
       0.0772916 0.058741547 0.2578397 0.04709896
0002a0 e7 de a3 3d 5f da ca be f8 4d 12 3e 3a 66 00 3d
       0.080014996 -0.3961973 0.14287555 0.03134749
0002b0 91 07 93 be e0 a4 a6 bf ad ef 1e be 9b d2 e2 be
       -0.2871671 -1.3019066 -0.15521117 -0.44301304
0002c0 db d6 8e bd 7b cd a5 bd 86 20 47 3e cd 5b 09 3e
       -0.06974574 -0.08095833 0.19446 0.13413925
0002d0 b2 23 5f bd 80 05 4f 3b 45 ae 45 3f 8d 70 4c 3d
       -0.0544774 0.0031588972 0.7721904 0.049912024
0002e0 85 6d 8f 3e 10 1c c1 3c 38 53 53 3e 45 6b b1 3e
       0.28013244 0.023572952 0.20637214 0.34652153
0002f0 a6 d4 7d 3e e8 c4 eb 3c 3f 7b c3 bd c0 22 56 be
       0.2478815 0.028780416 -0.09544992 -0.20911694
000300 d6 de 9b bd 4e 2d 84 3e e0 8c 17 be 63 91 d8 3d
       -0.07610862 0.25815815 -0.14799833 0.10574605
000310 c3 68 00 3d b2 1a de 3c a1 97 83 3e c1 7b 8d 3d
       0.03134991 0.027112339 0.2570162 0.0690837
000320 7d 91 7a 3c 67 53 7d bd 8d 9c ec bd 80 c3 81 3c
       0.015293476 -0.061847117 -0.11553297 0.015840292
000330 2b b7 93 3c d5 9c ab 3d dc 01 5a 3b 2d ea 59 bd
       0.018031677 0.08379523 0.0033265268 -0.053201843
000340 e7 bd a1 3c e9 6d b0 3c 58 1c a3 bd ee c5 aa 3e
       0.019743873 0.021536784 -0.079643905 0.33354133
000350 ed 2e a0 be a0 c7 2c 3e f0 31 ad 3c 2e 6f d8 3d
       -0.31285802 0.16873026 0.021141976 0.10568081
000360 8c 15 a3 bd 47 79 c0 bd 11 bf 57 bd ac 82 71 be
       -0.07963094 -0.09398132 -0.05267245 -0.23585004
000370 c9 8e 9b be e7 20 89 bd ce 3b 20 3e 6d 1c b7 3d
       -0.30382374 -0.06695729 0.15647814 0.08940969
000380 8f 67 c8 3d a0 a9 a3 3e b4 2b 28 bf 03 4d b2 3d
       0.09785377 0.3196535 -0.65691686 0.08706095
000390 08 1d 40 bf 9a 7e 0f 3e c5 ca 69 be 9a f0 97 be
       -0.750443 0.14013138 -0.22831257 -0.29675752
0003a0 4d a4 5e 3e f8 b6 d2 3c f5 75 77 3d 41 3d 0d bf
       0.21742363 0.025722012 0.060415227 -0.5517159
0003b0 a8 f0 f9 bd a8 c5 ca 3c ae b8 de bd f1 be 83 3e
       -0.12204105 0.024752453 -0.108750686 0.25731614
0003c0 09 83 00 bd 0b 47 9d be e2 01 82 bd 7d e8 13 bc
       -0.031374965 -0.30718264 -0.06348015 -0.0090275975
0003d0 44 76 d5 bd d2 ea 87 3e 42 77 5a 3e 10 51 32 be
       -0.10422948 0.2654634 0.21334556 -0.17413735
0003e0 5b 2a d8 bd 41 b9 58 be 92 ce 8b be c7 3f d1 bd
       -0.10554954 -0.21164419 -0.27306038 -0.10217243
0003f0 99 3f 1d 3c 53 73 ab 3c b6 27 1b be 02 f4 c1 3d
       0.009597682 0.020929014 -0.15151867 0.09470369
