MADDPG_agent1_1.pth (torch_old, 791863 bytes, 154 tensors)

bn.weight f4 [24]
0	0x3f87ddc0	1.0614548
1	0x3f968704	1.1759953
2	0x3f91816e	1.1367624
3	0x3f98f088	1.1948404
4	0x3f927cdb	1.1444353
5	0x3fa0a8ec	1.2551551
6	0x3f6daf9b	0.9284608
7	0x3f95f11c	1.1714206
8	0x3f93e07c	1.1552882
9	0x3f91a48f	1.1378344
10	0x3f8d4f1b	1.1039766
11	0x3f97379b	1.1813844
12	0x3f9f3d5d	1.2440602
13	0x3f8fddaf	1.1239527
14	0x3f95b06b	1.1694463
15	0x3f991968	1.1960878
16	0x3f8d37d9	1.1032668
17	0x3f9fbc53	1.2479347
18	0x3f7a8f54	0.9787495
19	0x3fa472e2	1.284756
20	0x3fb199aa	1.387502
21	0x3fa3ac9d	1.2787052
22	0x3f8483f9	1.0352775
23	0x3f9a26ce	1.2043092

bn.bias f4 [24]
0	0xbe4445b3	-0.19167213
1	0x3dc028a4	0.093827516
2	0x3de911c3	0.11380341
3	0x3dbae995	0.091265835
4	0x3d17aa78	0.037027806
5	0xbdb2301e	-0.08700584
6	0xbd33c59d	-0.04388963
7	0x3de10567	0.109873585
8	0x3c2c275e	0.010507433
9	0x3e08917d	0.1333675
10	0xbe5d05b4	-0.21584207
11	0xbc1d5ac1	-0.009604157
12	0xbd3caa20	-0.04606068
13	0x3d2da939	0.04239771
14	0x3d97836b	0.07398113
15	0x3dccfab0	0.10008752
16	0xbd6518d4	-0.05593188
17	0x3df17a0e	0.11790858
18	0x3de41d48	0.111383975
19	0x3ddd5914	0.10808006
20	0xbdcd64ce	-0.100289926
21	0x3e2158ae	0.15756485
22	0x3dd5846a	0.104256466
23	0x3d97f661	0.0742004

bn.running_mean f4 [24]
0	0xc10d3e1c	-8.827663
1	0xbe23a66b	-0.15981452
2	0x3f671b13	0.90275687
3	0x3c30983c	0.010778483
4	0x3da51a93	0.08061709
5	0x40755b34	3.8336916
6	0x3f671b13	0.90275687
7	0x3c30983c	0.010778483
8	0xc10f3128	-8.949501
9	0xbe30f7c1	-0.1728201
10	0x3f68a91d	0.90883046
11	0x3c390bfc	0.011294361
12	0x3db8eee2	0.09029938
13	0x40754e1c	3.8328924
14	0x3f68a91d	0.90883046
15	0x3c390bfc	0.011294361
16	0xc1112175	-9.070668
17	0xbe3be75b	-0.18349974
18	0x3f8098cf	1.0046633
19	0x3d6d820a	0.057985343
20	0x3dcd1236	0.10013239
21	0x4074ad20	3.8230667
22	0x3f8098cf	1.0046633
23	0x3d6d820a	0.057985343

bn.running_var f4 [24]
0	0x410a6014	8.648457
1	0x3f4285f7	0.75985664
2	0x43546781	212.40431
3	0x41877d99	16.936327
4	0x41e993a4	29.19709
5	0x402c6be5	2.6940854
6	0x43546781	212.40431
7	0x41877d99	16.936327
8	0x40f37342	7.6078196
9	0x3f479cd3	0.7797367
10	0x435a1eb7	218.11998
11	0x4189d15d	17.227228
12	0x41f20f59	30.257494
13	0x4030528c	2.7550383
14	0x435a1eb7	218.11998
15	0x4189d15d	17.227228
16	0x40d0b555	6.5221353
17	0x3f4be4b3	0.7964584
18	0x435f3caf	223.23705
19	0x418bf806	17.496105
20	0x41fbf0d9	31.492601
21	0x403ab32b	2.9171855
22	0x435f3caf	223.23705
23	0x418bf806	17.496105

fc1.weight f4 [32, 24]
0	0x3e461b7f	0.19346426
1	0xbe72a7ba	-0.23696795
2	0xbc59bc2a	-0.013289491
3	0xbdedf4ba	-0.116189435
4	0xbe8d6640	-0.27617073
5	0x3bf44353	0.0074543147
6	0xbc853be8	-0.016263917
7	0xbdda2b22	-0.10652758
8	0x3e7f924b	0.2495815
9	0xbe2149e1	-0.15750839
10	0x3d6612f5	0.056170423
11	0x3d7886a3	0.060675275
12	0xbb69d36b	-0.0035678993
13	0xbe7b7735	-0.24557193
14	0xbcd28071	-0.025696011
15	0x3d1ee56c	0.038793012
16	0x3e2622ad	0.16224165
17	0xbe2c5a67	-0.16831361
18	0x3ca2561e	0.019816454
19	0x3e26a935	0.16275485
20	0xbdf69dd1	-0.1204182
21	0xbe82a7dc	-0.25518692
22	0xbe3f2e64	-0.1867004
23	0xbb05a422	-0.002039202
24	0x3d508a40	0.050913095
25	0xbd56ce6f	-0.052442964
26	0x3e0ebe3a	0.13939753
27	0x3d3ad9c8	0.04561785
28	0xbdb9fd9a	-0.09081574
29	0x3eaf0428	0.34182858
30	0x3d8e7b50	0.06957114
31	0x3e0f01f4	0.13965589
32	0x3e6f0bef	0.23344396
33	0xbe82c3af	-0.2553992
34	0xbe35a61a	-0.17739144
35	0xbd9e3f59	-0.07726926
36	0x3ea0caa0	0.3140459
37	0x3dd7f246	0.10544257
38	0x3e089c72	0.13340929
39	0xbd573c54	-0.052547768
40	0x3e90cc9c	0.28281105
41	0xbe4e3029	-0.20135559
42	0x3e1770cb	0.14789121
43	0xbeabea33	-0.33577117
44	0x3d33d1ba	0.043901183
45	0x3e28e5a5	0.16493852
46	0xbde42e2d	-0.1114162
47	0xbe939d08	-0.28830743
48	0xbd40087e	-0.0468831
49	0xbda60185	-0.081057586
50	0xbd99b7ce	-0.07505761
51	0x3d430d3f	0.047620054
52	0x3e0b8188	0.13623631
53	0x3d29d219	0.04146013
54	0x3ea27838	0.31732345
55	0x3e9e7fb3	0.30956802
56	0x3ce2cdbf	0.027685998
57	0xbe1bdf8b	-0.15221994
58	0x3e81d9f2	0.25361592
59	0x3e379dc5	0.17931278
60	0xbb48897a	-0.003059952
61	0x3e5d149a	0.2158989
62	0x3e8bfb7c	0.27340305
63	0x3e997790	0.2997403
64	0xbd7c1cce	-0.061550908
65	0xbbf2e9aa	-0.007413109
66	0xbce3b637	-0.027796848
67	0x3e1cbd55	0.153066
68	0x3aa34dc9	0.0012459095
69	0xbd09a78e	-0.03360706
70	0x3d80918a	0.062777594
71	0x3d9deac9	0.07710797
72	0x3dfce4ad	0.12348304
73	0x3cf5d2b6	0.030007701
74	0x3dcd67d1	0.10029567
75	0x3c42df5e	0.011894075
76	0x3e4d85e3	0.20070605
77	0x3e7a48be	0.24441811
78	0xbe166548	-0.14687073
79	0x3d86b99c	0.06578371
80	0xbdf661f0	-0.12030399
81	0xbe2032fe	-0.15644452
82	0xbd2d1314	-0.042254522
83	0x3b11d497	0.0022251958
84	0x3e9d922a	0.30775577
85	0xbe153e52	-0.14574555
86	0xbe8d7bef	-0.27633616
87	0x3e23d2bb	0.15998356
88	0xbd3098b2	-0.04311437
89	0x3dda61b8	0.106631696
90	0x3da855f9	0.08219523
91	0xbe4f959b	-0.20271914
92	0x3e9c7d75	0.30564466
93	0xbd9444d5	-0.07239691
94	0xbdc58726	-0.09644918
95	0xbe0e6cde	-0.13908717
96	0x3e069ca5	0.13145693
97	0x3d83cae4	0.06435183
98	0xbdc45b2d	-0.09587703
99	0xbe72124f	-0.23639797
100	0x3e86f52e	0.26358932
101	0x3c2439a1	0.010023505
102	0x3dec5c51	0.115410455
103	0xbdb0c304	-0.08630946
104	0xbca23435	-0.019800285
105	0xbe4124b5	-0.18861659
106	0x3e7041e6	0.23462638
107	0xbe281a35	-0.16416247
108	0x3e23a692	0.1598151
109	0xbc8289d1	-0.015934857
110	0x3d96bd28	0.073602974
111	0xbd19ec27	-0.037578728
112	0x3ee96ba9	0.4558995
113	0xbdfd8729	-0.123792954
114	0xbc8b5d7e	-0.017012354
115	0x3cd629b8	0.02614294
116	0x3e650cbb	0.22368138
117	0xbdc0a446	-0.09406333
118	0xbe370360	-0.17872381
119	0xbe92528d	-0.28578606
120	0xbe05777c	-0.13033861
121	0x3e331949	0.17490114
122	0x3e68947e	0.22712895
123	0x3bbdfb9a	0.0057978155
124	0x3db53857	0.088486366
125	0xbe88b7c0	-0.2670269
126	0xbe3e05c0	-0.18556881
127	0x3dc6f290	0.09714234
128	0x3dbbac0d	0.091636755
129	0x3eadfaaf	0.3398032
130	0xbe287631	-0.16451336
131	0x3ca03407	0.019556059
132	0x3e624c51	0.22099425
133	0x3e2412d7	0.16022812
134	0x3e01cdd0	0.12676167
135	0x3e0f7890	0.14010835
136	0x3c57dcd6	0.01317521
137	0x3de36492	0.11103167
138	0xbd133931	-0.035943214
139	0xbe93a5d4	-0.28837454
140	0x3d0d150b	0.034443896
141	0x3df652f4	0.12027541
142	0xbd324a14	-0.043527678
143	0xbd45dc1a	-0.04830561
144	0x3dc92f09	0.09823424
145	0x3b493dd2	0.0030707014
146	0x3e1fe7cf	0.15615772
147	0x3e0aa7e9	0.13540615
148	0x3d36a939	0.044594977
149	0x3e74d3f6	0.23908982
150	0xbc636e69	-0.013881304
151	0x3e8c31dd	0.27381793
152	0x3d370564	0.044682875
153	0x3c6160d2	0.013755994
154	0xbe0fa2f7	-0.1402701
155	0xbe0f4189	-0.13989843
156	0xbe0ef0d0	-0.1395905
157	0x3b9b7822	0.0047445456
158	0x3e6d7bbc	0.23191732
159	0xbd054f53	-0.032546353
160	0xbdeda9e4	-0.1160467
161	0x3d339ade	0.043848865
162	0x3de14491	0.10999406
163	0x3d6a243c	0.057163462
164	0xbdf7449c	-0.12073633
165	0x3dc4dd29	0.096124955
166	0xbd9abec0	-0.07555914
167	0xbe013b96	-0.12620386
168	0xbe4c7a3e	-0.19968507
169	0xbe1e08a0	-0.15432978
170	0xbe8bfa2a	-0.27339298
171	0x3e17898c	0.14798564
172	0xbcca29d5	-0.02467815
173	0x3e6d6896	0.23184428
174	0x3b04b1a2	0.002024748
175	0x3e845dba	0.25852758
176	0x3d5e1d90	0.05422741
177	0xbd6ebeed	-0.05828755
178	0xbe49b94a	-0.19699588
179	0x3ea2bf1a	0.31786424
180	0xbc24ab18	-0.010050558
181	0x3d554a87	0.052073028
182	0xbe68b163	-0.22723918
183	0x3ddf2051	0.10894836
184	0xbe703524	-0.23457772
185	0x3e303013	0.17205839
186	0xbe5388cc	-0.20657653
187	0xbc756a44	-0.014978949
188	0x3e018877	0.12649713
189	0xbde41b6e	-0.11138044
190	0x3d073007	0.033004787
191	0x3d98b9f9	0.074573465
192	0xbdfa789f	-0.12230038
193	0x3cfe8c39	0.031072723
194	0x3db84c40	0.089989185
195	0xbbb52a36	-0.0055287136
196	0xbccf4252	-0.025300179
197	0x3e9fb187	0.3119013
198	0x3e107a07	0.1410905
199	0x3a5e7812	0.000848652
200	0x3dedce06	0.116115615
201	0xbd6cf95c	-0.057854995
202	0x3e5506d8	0.20803392
203	0xbd9b3b60	-0.07579684
204	0xbd9d391d	-0.07676909
205	0x3e0466d8	0.12929857
206	0x3cfe1186	0.031014215
207	0x3baf36a6	0.005347091
208	0x3dec7b32	0.11546935
209	0x3e397d81	0.18114282
210	0xbdbfb0cf	-0.093598954
211	0xbdd8f109	-0.10592849
212	0xbee3bfc0	-0.4448223
213	0x3e924153	0.28565463
214	0x3d5302ca	0.05151633
215	0xbc68e622	-0.014215024
216	0x3dda0611	0.10645688
217	0xbe5937f1	-0.21212746
218	0xbe423b52	-0.18967941
219	0x3e42d70a	0.19027343
220	0x3e004fa5	0.12530382
221	0x3e8c17fd	0.27362052
222	0xbe888cd3	-0.2666994
223	0xbe0ba280	-0.13636208
224	0x3d781a74	0.060572103
225	0xbe3972f9	-0.18110265
226	0xbe48091b	-0.19534723
227	0x3e45ae08	0.19304669
228	0x3ed41940	0.41425514
229	0x3e8ba0c5	0.27271095
230	0xbe4476b2	-0.19185904
231	0xbdf5a71b	-0.119947635
232	0x3d3738d9	0.04473195
233	0xbd8dc287	-0.06921869
234	0xbe3534d9	-0.17695941
235	0x3e0da7ad	0.13833494
236	0x3ded62bd	0.115910985
237	0x3e473ae1	0.19456054
238	0x3d3d1c24	0.046169415
239	0xbd8e25b7	-0.06940787
240	0xbe86c725	-0.2632381
241	0x3dc90a78	0.0981645
242	0x3e17d4a9	0.14827217
243	0x3de4dfaf	0.11175477
244	0x3e893ebb	0.26805672
245	0xbd3fa3a1	-0.046786908
246	0xbe1a69b7	-0.1507939
247	0xbcc2f432	-0.023798082
248	0xbe48958d	-0.19588299
249	0x3eabe4e8	0.3357308
250	0x3e4b609f	0.19861077
251	0xbdbcbcdc	-0.092157096
252	0x3e673fda	0.22582951
253	0x3e0cdf76	0.13757119
254	0x3dba86a6	0.091077134
255	0xbdd7f45c	-0.10544655

fc1.bias f4 [32]
0	0xbd0625d8	-0.032750934
1	0x3e26b30e	0.16279241
2	0xbd9258cd	-0.07145844
3	0xbe03f96b	-0.12888114
4	0xbe87c63b	-0.26518425
5	0x3e89ed5c	0.26938903
6	0x3ec450a2	0.38342768
7	0xbd2cc470	-0.042179525
8	0x3d4ccd1d	0.0500003
9	0xbe008a19	-0.1255268
10	0x3dd62501	0.10456277
11	0xbd12dedc	-0.035857067
12	0xbdff5f1f	-0.12469315
13	0x3d7ed861	0.062218074
14	0x3d0d94d1	0.03456575
15	0x3d30a177	0.043122735
16	0xbe4f63db	-0.20252936
17	0x3bcf1ba9	0.006320436
18	0xbdb804dd	-0.089853026
19	0xbd9933e7	-0.07480603
20	0x3e3ddc0a	0.1854097
21	0x3dee266f	0.116284244
22	0x3a1616a1	0.0005725418
23	0xbdfcb1c3	-0.12338593
24	0x3e0c337f	0.13691519
25	0x3da102af	0.0786184
26	0x3ec88702	0.39165503
27	0x3c91dadb	0.017804554
28	0x3e55961b	0.20858042
29	0xbbfcb56e	-0.007712058
30	0x3d8fe6d2	0.07026447
31	0xbdcbebff	-0.09957122

fc2.weight f4 [64, 32]
0	0xbd47890f	-0.048714694
1	0x3c7aee17	0.015315554
2	0xbe2b3b1b	-0.16721766
3	0x3e8935f7	0.26798984
4	0xbcbef493	-0.023309981
5	0xbdccd063	-0.10000684
6	0x3dcf4d5a	0.101221755
7	0x3dd45e75	0.10369579
8	0xbed472f3	-0.4149395
9	0xbe8180eb	-0.2529367
10	0xbe7a109b	-0.24420397
11	0xbe892b19	-0.26790693
12	0xbc8acee1	-0.01694435
13	0xbcc1e2d2	-0.023667727
14	0xbe51d6e4	-0.2049213
15	0x3b152142	0.002275542
16	0x3dff51bf	0.12466764
17	0x3e44af61	0.19207527
18	0xbaa79967	-0.0012786806
19	0x3d2a8829	0.04163376
20	0x3e515ef7	0.20446382
21	0x3e00bc2c	0.12571782
22	0xbe80069d	-0.25005046
23	0x3e28edc4	0.1649695
24	0xbd9a20d9	-0.075257964
25	0xbe473ede	-0.19457576
26	0xbcb345c1	-0.021883847
27	0xbd52a3cc	-0.05142574
28	0xbe4432db	-0.19160025
29	0x3d5e80e8	0.054322153
30	0x3d9cd5b6	0.076579496
31	0x3e16dae8	0.14731944
32	0x3d6d0539	0.05786631
33	0xbe60e160	-0.21960974
34	0xbdf42b73	-0.1192235
35	0xbdea1da9	-0.114314385
36	0x3e8d8211	0.27638295
37	0xbeb97e7e	-0.36229318
38	0x3db17c8d	0.08666334
39	0x3e17146d	0.14753886
40	0x3e46d1a5	0.1941591
41	0xbc03485f	-0.00801286
42	0xbd31ebe8	-0.04343787
43	0x3dc9d70f	0.09855472
44	0x3e8a6b1e	0.2703485
45	0xbc1434b9	-0.009045773
46	0x3d404778	0.046943158
47	0xbba480f9	-0.0050202576
48	0xbdc38a65	-0.09547881
49	0x3e1587c0	0.14602566
50	0x3d2a55fc	0.041585907
51	0xbd4f1a54	-0.050562218
52	0xbe179222	-0.14801839
53	0xbcc0b4b7	-0.023523672
54	0xbdfd3f29	-0.123655625
55	0x3e20dce8	0.15709269
56	0xbe1f893a	-0.15579692
57	0xbe778d07	-0.24174891
58	0x3ba13c9b	0.004920555
59	0xbca173ce	-0.01970854
60	0x3e5a8847	0.21341048
61	0xbe055458	-0.13020456
62	0xbe304a8b	-0.17215936
63	0x3e3a61d0	0.18201375
64	0x3d7c1a03	0.061548244
65	0x3dbe8302	0.093023315
66	0xbddea8fe	-0.108720765
67	0xbe8f2f94	-0.27965987
68	0xbc61ccdb	-0.0137817515
69	0x3e101878	0.14071834
70	0xbe8751d2	-0.2642961
71	0xbde1c687	-0.11024194
72	0xbd93f4cd	-0.072244264
73	0x3e042a59	0.1290678
74	0x3e031c56	0.12803778
75	0xbd124045	-0.035705823
76	0xbe4891aa	-0.19586816
77	0xbbb4f0e1	-0.005521879
78	0xbe66d32f	-0.22541498
79	0xbe122ca1	-0.14274837
80	0x3cfa8266	0.030579757
81	0xbde53de2	-0.11193444
82	0x3e9ea74d	0.30987015
83	0x3e4262f9	0.18983068
84	0x3e6d8723	0.23196082
85	0xbe0d36a0	-0.13790369
86	0x3ca63841	0.020290496
87	0x3d8dacbd	0.06917713
88	0xbd848698	-0.06470984
89	0x3e235581	0.15950586
90	0x3e6d7405	0.23188789
91	0x3e40df4d	0.18835182
92	0x3de9ceb9	0.11416382
93	0x3e00b3d5	0.125686
94	0x3c54e8a1	0.012994916
95	0xbd9448e6	-0.07240467
96	0x3c8ec818	0.017429397
97	0x3e7d1c0c	0.2471773
98	0xbe135710	-0.1438868
99	0xbda3719c	-0.07980654
100	0xbe216a53	-0.15763216
101	0xbdbcb4a6	-0.092141435
102	0xbe0d810d	-0.1381876
103	0xbe1c964f	-0.15291713
104	0x3eaada09	0.33369473
105	0xbdaff5e2	-0.0859182
106	0x3e066db3	0.13127784
107	0xbe08b3d8	-0.13349855
108	0xbe50f3bc	-0.20405477
109	0x3e238450	0.15968442
110	0xbe5cb061	-0.21551658
111	0x3d72c11b	0.05926619
112	0x3e16a123	0.14709906
113	0x3dce21a6	0.10065012
114	0x3df1b207	0.11801534
115	0x3e44a804	0.19204718
116	0x3e40e6a5	0.18837984
117	0xbcb5d46b	-0.022196015
118	0xbdf68609	-0.12037284
119	0xbd7254b5	-0.059162814
120	0xbc818084	-0.015808351
121	0x3d78c79a	0.06073723
122	0xbcb6606b	-0.022262773
123	0x3e3b3de1	0.18285324
124	0xbb8af8ee	-0.0042411005
125	0xbd88db6a	-0.06682475
126	0x3dad9d8b	0.084773146
127	0x3e534c3f	0.20634554
128	0x3e082f43	0.13299279
129	0x3e096dd9	0.1342081
130	0xba87b41d	-0.001035336
131	0xbe20d71f	-0.15707062
132	0xbd82dd2c	-0.063898414
133	0x3e2ae475	0.16688712
134	0xbdc30a0b	-0.095234
135	0x3dbe34c1	0.09287406
136	0x3dd8333b	0.105566464
137	0x3d09cd94	0.03364332
138	0x3dd5cc33	0.104393385
139	0x3c0d4892	0.008623259
140	0xbdfd11dc	-0.12356922
141	0x3defca11	0.11708463
142	0x3dd2b114	0.10287681
143	0x3e5a4ab6	0.21317562
144	0x3e891b0e	0.26778454
145	0x3d06dc04	0.032924667
146	0xbdec24b9	-0.11530442
147	0x3d0b42f0	0.033999383
148	0xbc67d6ce	-0.0141503345
149	0x3c97a2b2	0.018510196
150	0x3e345102	0.17609027
151	0xbdc8f9c1	-0.09813262
152	0x3dba9f47	0.09112411
153	0x3e389aa9	0.18027748
154	0xbd4f847c	-0.050663456
155	0xbccd840e	-0.025087383
156	0x3e0f7531	0.14009549
157	0x3e9858e4	0.29755318
158	0x3d5574bb	0.052113276
159	0xbd859f98	-0.06524581
160	0x3c030e87	0.007999069
161	0xbd399feb	-0.045318525
162	0xbd29025b	-0.041262012
163	0xbdb09c09	-0.08623511
164	0x3e489e38	0.19591606
165	0x3e575b8d	0.21031018
166	0x3d856e8f	0.06515228
167	0x3d64c880	0.055855274
168	0x3e63ec5f	0.22258137
169	0xbdb5cf35	-0.08877412
170	0x3e2e4717	0.17019306
171	0xbdd11c23	-0.10210445
172	0x3d1f5d77	0.038907494
173	0xbd83cf5a	-0.064360335
174	0x3ca855c4	0.020548709
175	0xbdccb4f3	-0.09995451
176	0x3e500b97	0.20316921
177	0xbdb9623b	-0.09051939
178	0x3e4e658e	0.20155928
179	0x3e415b5e	0.1888251
180	0x3ce15462	0.027506057
181	0x3dc36190	0.09540093
182	0x3e163caf	0.14671586
183	0x3e416a58	0.18888223
184	0x3cce2eb2	0.02516875
185	0x3decebca	0.11568411
186	0xbd3968b0	-0.045265853
187	0x3d973f96	0.07385175
188	0xbe1a9ff9	-0.15100087
189	0x3cce9e8f	0.025222091
190	0x3e38b74f	0.18038677
191	0x3e9c2646	0.3049795
192	0x3e44c887	0.1921712
193	0xbd819c9d	-0.063287
194	0xbbbdd399	-0.0057930467
195	0x3ea1d602	0.31608588
196	0x3e3efe45	0.18651684
197	0xbe757da6	-0.23973712
198	0x3d547f8d	0.051879454
199	0x3dda5d42	0.10662319
200	0xbb8fc540	-0.0043875277
201	0xbd02d760	-0.03194368
202	0xbd142692	-0.036169596
203	0xbc3de54e	-0.011590315
204	0x3d89a6c8	0.06721264
205	0x3e1378db	0.14401571
206	0x3d86faec	0.06590828
207	0xbd96d15a	-0.073641494
208	0x3d568169	0.05236951
209	0xbe6f6b94	-0.23380882
210	0x3e4dd136	0.20099339
211	0x3e1bcba4	0.15214401
212	0x3e68fdbe	0.22753045
213	0x3d8bb803	0.06822207
214	0xbcce327d	-0.025170559
215	0x3dbffe40	0.09374666
216	0x3e1d022b	0.15332858
217	0xbe36d3b6	-0.17854199
218	0x3db37667	0.08762818
219	0xbd56d08a	-0.052444972
220	0xbe452015	-0.1925052
221	0x3d465140	0.04841733
222	0xbd857a79	-0.065175004
223	0xbe6c1a5a	-0.23056927
224	0x3db79c8c	0.08965406
225	0x3dbf8ae9	0.09352667
226	0xbbab66be	-0.0052307537
227	0xbe126725	-0.14297159
228	0xbe61f6e0	-0.22066832
229	0x3c2c6e03	0.010524276
230	0xbcb558ba	-0.022137035
231	0xbd320b26	-0.043467663
232	0x3e70a731	0.23501278
233	0x3bdc3025	0.0067196065
234	0x3e183e7a	0.14867583
235	0xbd875f21	-0.06609941
236	0xbe245923	-0.16049628
237	0x3d4c3cde	0.049862735
238	0xbe0965e6	-0.13417777
239	0x3db8444b	0.08997401
240	0xbc43636a	-0.011925558
241	0x3e4f11ac	0.20221585
242	0xbdc292b1	-0.095006354
243	0x3e506231	0.20349957
244	0x3e29211a	0.16516533
245	0x3db08570	0.08619201
246	0x3de44084	0.11145118
247	0xbd027c9b	-0.031857114
248	0x3cdea6b2	0.027179096
249	0x3d9d7edf	0.07690214
250	0xbc826370	-0.015916556
251	0xbe27a952	-0.16373184
252	0x3e2f87df	0.17141674
253	0x3dd03753	0.10166802
254	0x3de21b30	0.11040342
255	0x3d7cb70e	0.061698012

fc2.bias f4 [64]
0	0xbe859ed4	-0.2609774
1	0x3dd7f681	0.10545064
2	0xbe15bfd1	-0.14623953
3	0xbdcbb508	-0.09946638
4	0xbdbe6e12	-0.09298338
5	0xbe01515b	-0.12628691
6	0xbd53a70e	-0.051672988
7	0x3d3d9885	0.046288032
8	0x3e361d4f	0.17784618
9	0x3dc466a9	0.09589893
10	0x3d8c1104	0.06839183
11	0x3d966ba9	0.07344753
12	0x3d263335	0.04057618
13	0x3e74afdc	0.2389521
14	0xbd8eab17	-0.069662265
15	0x3bb62ad9	0.005559307
16	0xbdb31f3d	-0.087461926
17	0xbd91d831	-0.07121313
18	0xbd1d7fc8	-0.03845194
19	0xbe0acd30	-0.13554835
20	0x3e4deef4	0.20110685
21	0x3d9f3934	0.077745825
22	0x3dfe4840	0.12416124
23	0x3d2330bd	0.039841402
24	0x3d20bb57	0.03924116
25	0xbe00d3c7	-0.12580787
26	0xbe9108b7	-0.2832696
27	0x3d3c9529	0.046040688
28	0x3e355702	0.17708972
29	0xbcafc7b5	-0.021457532
30	0xbbbeb886	-0.0058203368
31	0x3d89c405	0.06726841
32	0x3e432f01	0.190609
33	0xbc15e09a	-0.0091477875
34	0x3b48cf6f	0.0030641218
35	0x3daf0009	0.085449286
36	0x3e62708a	0.22113243
37	0x3e55865d	0.20852037
38	0xbd680c82	-0.056652553
39	0xbe534fcd	-0.2063591
40	0x3e719eaf	0.23595689
41	0x3d398122	0.045289166
42	0xbda8ef2b	-0.08248743
43	0xbd06b393	-0.0328861
44	0x3ddcb38a	0.10776432
45	0x3dfc2503	0.12311747
46	0x3e4d4b25	0.20048197
47	0x3d20f19e	0.039292924
48	0xbcc0f64b	-0.023554942
49	0xbc58aeba	-0.013225252
50	0x3e3ee269	0.18641056
51	0xbe13d4ea	-0.14436689
52	0x3e150476	0.14552483
53	0xbcdf5682	-0.02726293
54	0x3ca6c561	0.02035779
55	0x3e33db14	0.1756404
56	0xbda8ee23	-0.08248546
57	0xbcbf9f60	-0.023391426
58	0x3cb004ca	0.021486659
59	0x3dedd38f	0.11612617
60	0x3e689aa8	0.22715247
61	0xbe3c9af6	-0.18418488
62	0x3e3c4d88	0.18388951
63	0xbca9462b	-0.020663342

fc3.weight f4 [64, 64]
0	0xbe40f047	-0.18841659
1	0x3dc8a7a1	0.09797598
2	0x3e3e75f3	0.18599682
3	0x3d8c1e0a	0.06841667
4	0x3bedf264	0.007261561
5	0x3bcb1182	0.0061971555
6	0xbcc4a198	-0.024002835
7	0x3e34dfaa	0.17663446
8	0xbe0c082d	-0.13674994
9	0x3d910333	0.07080688
10	0x3dbcb53b	0.092142545
11	0xbe2637ea	-0.16232267
12	0x3d85ed8f	0.06539451
13	0x3e8c82ee	0.2744364
14	0x3dcdd0d2	0.10049595
15	0xbc8202ee	-0.015870538
16	0x3ca3e619	0.02000718
17	0x3cdc1674	0.026866175
18	0xbe5c9243	-0.2154017
19	0x3e49453b	0.19655316
20	0xbe6b5851	-0.22982909
21	0x3c6ec139	0.014572435
22	0x3d849823	0.0647433
23	0x3eabc44d	0.33548203
24	0xbb620860	-0.0034489855
25	0xbe3fd48b	-0.18733422
26	0xbe3c66fd	-0.18398662
27	0xbc884617	-0.016634984
28	0xbdb55000	-0.088531494
29	0x3d1e850b	0.0387011
30	0x3df50918	0.11964625
31	0x3e462d09	0.19353117
32	0x3e43af97	0.19109951
33	0x3e550eac	0.20806378
34	0xbec77c84	-0.38962185
35	0x3c49df8b	0.012321363
36	0xbe153356	-0.14570364
37	0xbd79bfef	-0.060974058
38	0xbe655540	-0.22395802
39	0x3ebfcd1d	0.37461177
40	0x3dc554a6	0.09635286
41	0xbd7b733f	-0.061389204
42	0xbed4a655	-0.4153315
43	0xbef9d002	-0.4879151
44	0x3e38f2d6	0.18061385
45	0x3ec88a5e	0.39168066
46	0x3c95a67d	0.018267864
47	0x3e5957da	0.21224919
48	0xbd268fe3	-0.040664565
49	0xbdb90ef1	-0.09036053
50	0xbd6c80df	-0.05774009
51	0x3d9a199e	0.07524417
52	0x3e6f6d5d	0.23381563
53	0xbe2b1470	-0.16707015
54	0xbeaca28d	-0.33717766
55	0x3db47905	0.08812145
56	0xbe3841d8	-0.17993867
57	0x3c48ec47	0.012263364
58	0xbe5bd2be	-0.2146711
59	0x3c346960	0.0110114515
60	0x3d3e9871	0.0465321
61	0x3da523bc	0.080634564
62	0xbd6dc6e7	-0.058051016
63	0x3e144067	0.14477693
64	0x3cd0b5fa	0.025477398
65	0xbdcdf1f8	-0.100559175
66	0xbd7c714d	-0.06163149
67	0x3d59238e	0.053012423
68	0xbdb13acd	-0.086537935
69	0xbd81ecce	-0.06343995
70	0xbd037bd9	-0.032100532
71	0xbdf5bc3b	-0.11998793
72	0xbd9f707d	-0.07785127
73	0xbd22c67a	-0.039740063
74	0xbbffee60	-0.007810399
75	0xbd2bfc6d	-0.04198878
76	0x3ca572cd	0.020196343
77	0xbe042ff0	-0.12908912
78	0xbcb52c67	-0.0221159
79	0xbdf7e1e0	-0.12103629
80	0x3d51377d	0.05107831
81	0x3dde9497	0.10868185
82	0xbd99325c	-0.074803084
83	0xbdd8c42e	-0.10584293
84	0x3de546dc	0.11195156
85	0x3d9e25c8	0.0772205
86	0x3d939647	0.072063975
87	0xbdb71ea6	-0.089413926
88	0x3d0f2085	0.034943122
89	0x3c44e034	0.012016345
90	0x3db8dec9	0.09026868
91	0x3d876db2	0.066127196
92	0xbc52b9b7	-0.012861661
93	0x3d4eeda1	0.05051959
94	0xbdfa7cc0	-0.122308254
95	0x3cfd037e	0.030885454
96	0xbd687691	-0.0567537
97	0x3da9b43a	0.082863286
98	0xbdc716ef	-0.09721171
99	0xbdd79006	-0.10525517
100	0xbdcd9839	-0.100388
101	0xbcb9ebf6	-0.022695523
102	0x3bc2902c	0.005937597
103	0xbad430bb	-0.0016188839
104	0x3d67d646	0.05660083
105	0xbdf5f501	-0.120096214
106	0xbd886e17	-0.06661623
107	0xbd148f33	-0.036269378
108	0x3b5df73b	0.0033869285
109	0xbc8b618e	-0.017014291
110	0x3d5ca587	0.053868797
111	0x3d7fe6c4	0.062475935
112	0xbc3aa346	-0.0113914665
113	0x3c0ffa03	0.008787635
114	0xbcba89f4	-0.02277086
115	0x3c314ccb	0.0108215315
116	0xbd14affd	-0.036300648
117	0xbcdbd2b3	-0.026833868
118	0xbdca7d07	-0.09887128
119	0x3dda6fe2	0.10665871
120	0x3d89ba44	0.067249805
121	0xbdd02369	-0.10163004
122	0x3bbf2784	0.005833568
123	0xbd8c9109	-0.06863601
124	0xbcbc8a0d	-0.023015046
125	0xbdec2987	-0.11531358
126	0xbcd08356	-0.02545325
127	0xbd86611e	-0.065614924
128	0xbe1ee5a7	-0.15517293
129	0x3e878255	0.26466623
130	0x3e26876b	0.16262595
131	0x3e5980ba	0.21240512
132	0x3d3ca221	0.046053056
133	0x3c0a3d8e	0.008437527
134	0x3d33fbea	0.043941416
135	0x3dc2e218	0.0951578
136	0x3dfd4238	0.12366146
137	0x3df40411	0.11914838
138	0xbdc6b71e	-0.097028956
139	0x3dcabd20	0.09899354
140	0x3da0ef12	0.07858099
141	0xbcee30c0	-0.02907598
142	0x3d743409	0.059619937
143	0x3e26bbcf	0.16282581
144	0xbcc68830	-0.024234861
145	0x3e10d68e	0.14144346
146	0x3e286efb	0.16448586
147	0xbde7a1d2	-0.11310162
148	0x3d2f07d9	0.042732093
149	0x3d7a8d21	0.061169747
150	0xbd2792ef	-0.04091161
151	0x3e31fc84	0.17381483
152	0xbcf79e7e	-0.030226942
153	0x3e56ed7a	0.20989028
154	0x3d90f9af	0.07078873
155	0xbd40949c	-0.047016725
156	0xbc34eb34	-0.011042405
157	0x3dc65bac	0.09685454
158	0x3d682b23	0.056681763
159	0xbd24ee47	-0.0402663
160	0x3e45596e	0.19272396
161	0xbe1adf7b	-0.15124314
162	0xbe173c06	-0.14768991
163	0x3e08416e	0.1330621
164	0x3d0d5205	0.034502048
165	0x3dd14d1f	0.10219788
166	0xbbe1f9c6	-0.0068962304
167	0x3e95ad6b	0.2923387
168	0xbdb547fd	-0.08851621
169	0x3e029f22	0.12756017
170	0xbe7d0f42	-0.24712852
171	0xbd4b2f02	-0.049605377
172	0x3e34d1f7	0.1765822
173	0xbcfc0336	-0.03076325
174	0x3d8026b3	0.06257381
175	0x3df1ec15	0.11812607
176	0x3d9cf3d0	0.07663691
177	0xbe215630	-0.15755534
178	0xbcc882fd	-0.024476523
179	0xbdace187	-0.084414534
180	0x3c9fcdba	0.019507278
181	0xbe198db3	-0.1499546
182	0x3dc85328	0.09781486
183	0x3dc6351a	0.09678097
184	0x3c9735b6	0.018458229
185	0xbd3c81cc	-0.04602222
186	0xbd9326da	-0.07185145
187	0x3e12b2e8	0.1432606
188	0xbc28a6fa	-0.010293717
189	0xbee988f4	-0.456123
190	0xbcf29255	-0.029610792
191	0x3e06af9c	0.13152927
192	0x3e850ed7	0.25987884
193	0xbe03eaca	-0.12882534
194	0x3d68a559	0.056798313
195	0xbe0f1ac5	-0.13975056
196	0x3c269efe	0.010169743
197	0xbd18ae79	-0.037275765
198	0x3cd3d121	0.025856556
199	0xbd07d101	-0.033158306
200	0x3e1250fd	0.14288707
201	0x3e79b6a6	0.24386081
202	0x3d796f7c	0.060897335
203	0x3e3a95ea	0.1822125
204	0x3d4bf085	0.049789924
205	0xbdb51e9f	-0.08843731
206	0x3c8b433d	0.016999835
207	0xbbb0ed21	-0.0053993617
208	0xbcbde993	-0.023182666
209	0x3dc74970	0.09730804
210	0x3d1880b7	0.037232127
211	0xbe0c5fe0	-0.13708448
212	0x3d9b4f2a	0.07583459
213	0xbe399b54	-0.18125659
214	0xbcac2468	-0.021013454
215	0xbe2007ed	-0.15628023
216	0xbcfce9e8	-0.030873254
217	0x3e852c1e	0.2601022
218	0x3e2e696c	0.17032403
219	0xbd38d08d	-0.045120765
220	0x3c265b1e	0.01015356
221	0x3e9592d9	0.29213598
222	0x3dd02549	0.101633616
223	0x3cc4d96b	0.024029454
224	0x3b9ed29d	0.0048468844
225	0xbe339767	-0.17538224
226	0x3e476e89	0.1947576
227	0x3bc131e4	0.00589584
228	0x3d8aaeeb	0.06771644
229	0x3d173dfd	0.03692435
230	0x3e5dce74	0.21660787
231	0xbe65765e	-0.22408435
232	0x3db2f33e	0.08737801
233	0x3d23b7c7	0.039970186
234	0x3da99e01	0.0828209
235	0x3d5e4e4d	0.054273892
236	0xbb97c42e	-0.0046315407
237	0xbea83c86	-0.32858676
238	0x3e06bba3	0.13157515
239	0x3c953d5f	0.01821774
240	0x3d664e1c	0.056226835
241	0x3e37f8af	0.17965959
242	0x3da4147e	0.08011721
243	0xbcf01561	-0.02930707
244	0xbd19a67c	-0.037512287
245	0x3e3817cb	0.17977826
246	0x3e7d6d02	0.24748614
247	0xbdc98665	-0.09840087
248	0xbd8a621f	-0.06756996
249	0xbc83d52e	-0.016092863
250	0x3e3413ee	0.17585728
251	0x3db60ed3	0.08889546
252	0x3d881554	0.06644693
253	0xbda4849e	-0.08033107
254	0x3e54a480	0.20765877
255	0xbdc0d88b	-0.09416302

fc3.bias f4 [64]
0	0xbd5a0caa	-0.053234734
1	0xbcc31f13	-0.023818528
2	0x3d8d6217	0.06903475
3	0x3cc0407c	0.023468249
4	0x3caf8682	0.021426443
5	0x3d9bcef1	0.0760783
6	0x3dacdaee	0.08440195
7	0x3d1d941e	0.038471334
8	0x3d12a9e5	0.035806555
9	0x3dded4b4	0.10880414
10	0xbd2a08b4	-0.041512206
11	0xbd5f30a3	-0.054489743
12	0xbd51b9a0	-0.051202416
13	0x3da10370	0.07861984
14	0x3dc4cfb6	0.0960993
15	0x3cebca80	0.028783083
16	0x3dfd3b7f	0.123648636
17	0x3db73057	0.08944767
18	0x3cac9c76	0.0210707
19	0x3d08467b	0.03327034
20	0x3e202156	0.15637717
21	0x3dfd7d95	0.123774685
22	0x3e1d5dc2	0.15367797
23	0xbd98741b	-0.0744402
24	0x3bccc68e	0.0062492555
25	0xbd79b9ad	-0.06096809
26	0x3ce8235b	0.028337171
27	0x3d972bda	0.07381411
28	0x3a756a7a	0.00093618745
29	0x3d4c04db	0.049809318
30	0xbd987c43	-0.07445576
31	0x3e26ba24	0.16281945
32	0xbd880753	-0.06642022
33	0x3df85bea	0.12126906
34	0x3e06ffe8	0.13183558
35	0x3d8f70b9	0.07003922
36	0x3e0d0237	0.13770376
37	0x3daf9c5d	0.08574746
38	0x3ca10fbe	0.019660827
39	0x3d9a4ec9	0.07534558
40	0xbc251f64	-0.010078285
41	0x3da3c473	0.07996454
42	0x3db17fb6	0.08666937
43	0x3df8a712	0.12141241
44	0xbdcd2280	-0.10016346
45	0x3dadd685	0.08488182
46	0x3da4d9aa	0.080493286
47	0x3de9020c	0.113773435
48	0x3dfaea70	0.12251747
49	0x3d34ccc2	0.044140585
50	0xbd63352b	-0.055470627
51	0x3d6d4e3c	0.05793594
52	0x3d38909b	0.04505978
53	0x3db77bd6	0.08959167
54	0xbbe2b7d8	-0.0069188885
55	0x3ce4f1f8	0.027947411
56	0xbe091260	-0.13385916
57	0x3ce50057	0.027954264
58	0x3de1dcaa	0.110284165
59	0x3d8192b9	0.06326813
60	0x3d3fc598	0.0468193
61	0x3df03bd6	0.11730163
62	0x3d5fb770	0.0546183
63	0xbca31a92	-0.01991013

fc4.weight f4 [2, 64]
0	0xbf2b2725	-0.66856605
1	0x3d1c5511	0.038167063
2	0xbe10eefe	-0.14153668
3	0x3e4de076	0.20105156
4	0x3e336676	0.17519554
5	0x3e26cc0c	0.16288775
6	0x3e5c2c03	0.21501164
7	0xbdb3c9b1	-0.08778704
8	0x3e831ca0	0.25607777
9	0x3e37fe53	0.1796811
10	0xbea20072	-0.31640965
11	0x3d1e3dde	0.03863322
12	0x3e3bed39	0.18352212
13	0x3da8adfd	0.08236311
14	0x3e5b8a2f	0.21439432
15	0xbdcb998b	-0.09941395
16	0x3e97ee77	0.29674122
17	0xbd967bea	-0.073478535
18	0xbea00e6a	-0.31260997
19	0xbe80830d	-0.25099984
20	0x3d23f620	0.040029645
21	0xbda27663	-0.07932737
22	0xbe4d5bf3	-0.20054607
23	0xbe7adfd6	-0.24499449
24	0x3e271460	0.16316366
25	0xbcea1e74	-0.028578974
26	0xbe3fcf4d	-0.18731423
27	0x3e41403b	0.18872158
28	0xbd78ddf6	-0.060758553
29	0xbdf62438	-0.12018627
30	0xbdb6ef4a	-0.089323595
31	0xbe85314a	-0.26014167
32	0x3df3a5de	0.11896871
33	0xbc49c5b4	-0.0123152025
34	0xbe34c372	-0.17652681
35	0xbe50bb24	-0.20383888
36	0xbd095f30	-0.033538043
37	0x3d332961	0.043740634
38	0xbda6244d	-0.081123926
39	0x3dfec434	0.124397665
40	0xbe882c2f	-0.2659621
41	0xbd841c6b	-0.06450733
42	0x3e74c327	0.2390257
43	0xbe294312	-0.16529492
44	0x3dfef325	0.1244872
45	0x3e62806f	0.22119306
46	0xbeb6e979	-0.35725
47	0x3e2d6e91	0.16936709
48	0x3e159dbd	0.14610954
49	0x3e4fdb7d	0.20298572
50	0x3e692a20	0.22769976
51	0xbcdc9b3f	-0.026929496
52	0x3e5f7c53	0.2182477
53	0xbd499cd6	-0.049221836
54	0xbd8797f3	-0.06620779
55	0xbed2aeec	-0.4114908
56	0xbf7945c2	-0.97372067
57	0xbe3dc714	-0.18532974
58	0xbe5f298f	-0.21793197
59	0xbee5819f	-0.44825456
60	0xbe80ca3e	-0.251543
61	0x3e0883e4	0.13331562
62	0xbe832ea5	-0.25621524
63	0x3ccba08d	0.02485683
64	0xbe93ae66	-0.28843993
65	0x3ca8381e	0.020534571
66	0x3deb5f66	0.11492805
67	0x3e2f6907	0.17129909
68	0xbf070442	-0.5274087
69	0xbe1e36d4	-0.15450603
70	0xbd2cedb0	-0.042218864
71	0x3d970c57	0.073754005
72	0x3d667f05	0.05627348
73	0x3d73c348	0.059512407
74	0x3efd468b	0.49467883
75	0xbe933050	-0.28747797
76	0xbdc86d2f	-0.0978645
77	0x3f0cc232	0.5498382
78	0x3ef0dcd5	0.4704348
79	0x3e94018a	0.28907424
80	0x3ebcd7aa	0.3688329
81	0xbe4057d8	-0.1878351
82	0xbde89dd7	-0.113582306
83	0x3f143659	0.5789543
84	0x3efd6b05	0.49495712
85	0xbe7df228	-0.24799407
86	0xbe2e187a	-0.17001525
87	0x3f113320	0.56718636
88	0x3e6d664d	0.23183556
89	0xbdcefc98	-0.10106772
90	0xbe56d811	-0.2098086
91	0x3e93bdff	0.28855893
92	0xbe62e5f4	-0.22158033
93	0xbcd4568a	-0.025920171
94	0x3f176c5a	0.59149706
95	0xbd2251a2	-0.039628632
96	0x3e2a3f07	0.16625606
97	0x3e3da772	0.18520907
98	0x3dc42694	0.09577671
99	0xbe0efdca	-0.13964
100	0xbed0cc48	-0.40780854
101	0xbe1aa383	-0.15101437
102	0x3ed023df	0.40652367
103	0x3e67f38e	0.22651502
104	0x3f207e70	0.6269293
105	0x3df4ec69	0.11959154
106	0xbd2feaaa	-0.042948402
107	0x3d94a6f7	0.072584085
108	0xbc87ded4	-0.016585745
109	0xbcb0d551	-0.021586092
110	0x3e758af9	0.23978795
111	0x3dea62a0	0.114445925
112	0x3dd50a44	0.10402349
113	0x3e3301d1	0.17481162
114	0xbdd9f5aa	-0.1064256
115	0x3e86a63d	0.26298705
116	0xbd6c2556	-0.057652794
117	0x3f0c634f	0.5483903
118	0x3ec852a5	0.39125553
119	0x3caa5b25	0.020795414
120	0xbea4a502	-0.3215714
121	0xbdd5226f	-0.10406958
122	0xbe8ddfc0	-0.2770977
123	0x3d4379ae	0.047723465
124	0x3d9132fb	0.07089802
125	0x3e23f430	0.16011119
126	0xbe363438	-0.17793357
127	0xbe44bfa2	-0.19213727

fc4.bias f4 [2]
0	0xbce3f2f7	-0.027825816
1	0x3de58879	0.11207671

bn_s.weight f4 [24]
0	0x3f6d6f4f	0.9274797
1	0x3f209f5e	0.62743175
2	0x3f183cad	0.59467584
3	0x3f4b7c4b	0.7948653
4	0x3faf274e	1.368387
5	0x3f56568d	0.83725816
6	0x3f2f5d14	0.685014
7	0x3f3e5c75	0.7435983
8	0x3f3bc98c	0.7335441
9	0x3f43b72c	0.76451373
10	0x3f43f471	0.76544863
11	0x3f51b22f	0.8191251
12	0x3f82390b	1.0173658
13	0x3f30e393	0.6909725
14	0x3f2f0948	0.6837354
15	0x3f5867fa	0.84533656
16	0x3f62f7e0	0.8865948
17	0x3f3abdd4	0.72945905
18	0x3f18dad6	0.5970892
19	0x3f5fbe5d	0.87399846
20	0x3fbbda30	1.467596
21	0x3f8c7d56	1.097575
22	0x3f3fa2ff	0.7485809
23	0x3f74cad1	0.95621973

bn_s.bias f4 [24]
0	0x3a5c9f34	0.0008416057
1	0x3e0d6ec3	0.13811783
2	0x3dbd3299	0.09238166
3	0xbe591ef7	-0.21203218
4	0x3e12df0b	0.14342897
5	0xbe04c085	-0.12964065
6	0x3cc3afaa	0.023887474
7	0xbf0639b7	-0.52431816
8	0x3e305692	0.17220524
9	0xbdd5a300	-0.104314804
10	0x3bc4fb1a	0.006011379
11	0xbe4f35ca	-0.20235363
12	0x3e3f7e43	0.18700509
13	0x3b981710	0.004641421
14	0x3da01a84	0.078175575
15	0xbe404be0	-0.18778944
16	0xbdc9b29c	-0.0984852
17	0x3d190676	0.037359677
18	0xbe0960c6	-0.13415822
19	0xbe5d0420	-0.21583605
20	0x3da6651a	0.08124752
21	0x3d6231ca	0.055223264
22	0x3d03a230	0.032137096
23	0xbde632e2	-0.11240174

bn_s.running_mean f4 [24]
0	0xc10d85ea	-8.845194
1	0xbe228c1d	-0.15873761
2	0x3f6384f0	0.8887472
3	0xbbb54e8e	-0.005533046
4	0x3c95c5e9	0.018282847
5	0x40760b1e	3.8444285
6	0x3f6384f0	0.8887472
7	0xbbb54e8e	-0.005533046
8	0xc10f413b	-8.953425
9	0xbe2e6e8e	-0.17034361
10	0x3f5eb95a	0.87001574
11	0x3c89328b	0.016747734
12	0x3d0e4a92	0.034739085
13	0x40757988	3.8355427
14	0x3f5eb95a	0.87001574
15	0x3c89328b	0.016747734
16	0xc1111b87	-9.069221
17	0xbe3c65e2	-0.1839824
18	0x3f93c9dc	1.1545978
19	0x3d102558	0.035191864
20	0x3d4391df	0.047746535
21	0x40758b9e	3.8366466
22	0x3f93c9dc	1.1545978
23	0x3d102558	0.035191864

bn_s.running_var f4 [24]
0	0x410858d9	8.521691
1	0x3f429656	0.76010644
2	0x43529fa9	210.62367
3	0x418724a4	16.89289
4	0x41e7d81e	28.980526
5	0x402c2547	2.6897752
6	0x43529fa9	210.62367
7	0x418724a4	16.89289
8	0x40f30dba	7.5954256
9	0x3f469505	0.77571136
10	0x4359dfb6	217.87387
11	0x41899cec	17.201622
12	0x41f00f42	30.00745
13	0x4030ad49	2.7605765
14	0x4359dfb6	217.87387
15	0x41899cec	17.201622
16	0x40cd139e	6.4086447
17	0x3f4aded3	0.7924625
18	0x435d817a	221.50577
19	0x418c4d8a	17.53786
20	0x41fa880c	31.31643
21	0x403944a7	2.8948152
22	0x435d817a	221.50577
23	0x418c4d8a	17.53786

bn_so.weight f4 [24]
0	0x3f3d6bd0	0.73992634
1	0x3f0e933d	0.5569342
2	0x3f4bccbd	0.7960928
3	0x3f28fde8	0.6601243
4	0x3fc472f1	1.5347577
5	0x3f712897	0.9420256
6	0x3f2beef2	0.67161477
7	0x3f2c5d97	0.67330307
8	0x3f1ca7b4	0.61193395
9	0x3f3c226d	0.7349003
10	0x3f484a74	0.78238606
11	0x3f237682	0.63852704
12	0x3fb201cc	1.3906798
13	0x3f13408c	0.57520366
14	0x3f233da7	0.6376595
15	0x3f2b2b3a	0.66862833
16	0x3f56ac64	0.838568
17	0x3f40bca8	0.75287867
18	0x3f1853f6	0.59503114
19	0x3f26babd	0.6512869
20	0x3fe37ed6	1.7773082
21	0x3f92241d	1.1417271
22	0x3f19f829	0.6014429
23	0x3f4ca327	0.7993645

bn_so.bias f4 [24]
0	0x3c820bfc	0.015874855
1	0x3e820466	0.2539398
2	0xbe26bd0f	-0.16283058
3	0xbc81b854	-0.015834965
4	0xbe837412	-0.25674492
5	0xbe2255e1	-0.15853073
6	0x3dbf8f9e	0.09353565
7	0x3ddc998e	0.10771476
8	0xbe57c6c8	-0.21071923
9	0x3e6d2799	0.23159637
10	0x3e1f691b	0.15567438
11	0x3cd88d3c	0.026434533
12	0xbda6ff86	-0.08154206
13	0x3cfefbb1	0.031125875
14	0x3dd7504a	0.10513361
15	0xbd8897c7	-0.06669574
16	0x3cbab6b4	0.022792198
17	0xbdc9f0be	-0.09860371
18	0x3e3adcf0	0.18248343
19	0x3da1f98d	0.07908926
20	0xbc7a9326	-0.015293872
21	0xbde723db	-0.11286136
22	0xbd963f70	-0.073363185
23	0xbd2e4a33	-0.04255123

bn_so.running_mean f4 [24]
0	0xc10d2a8f	-8.82289
1	0xbe26c165	-0.16284712
2	0x3f62e2bb	0.88627213
3	0x3e0f3e89	0.13988699
4	0xbc95c5e9	-0.018282847
5	0x40760b1e	3.8444285
6	0x3f62e2bb	0.88627213
7	0x3e0f3e89	0.13988699
8	0xc10eb88f	-8.920058
9	0xbe25113d	-0.16119857
10	0x3f836d5f	1.0267752
11	0x3de9dbdf	0.1141889
12	0xbd0e4a92	-0.034739085
13	0x40757988	3.8355427
14	0x3f836d5f	1.0267752
15	0x3de9dbdf	0.1141889
16	0xc110d44a	-9.051828
17	0xbe2acd30	-0.16679835
18	0x3f69be51	0.91306025
19	0x3dcebbdf	0.10094427
20	0xbd4391df	-0.047746535
21	0x40758b9e	3.8366466
22	0x3f69be51	0.91306025
23	0x3dcebbdf	0.10094427

bn_so.running_var f4 [24]
0	0x410a011e	8.625273
1	0x3f42aec0	0.760479
2	0x43583eda	216.24551
3	0x41879325	16.946848
4	0x41e7d81e	28.980526
5	0x402c2547	2.6897752
6	0x43583eda	216.24551
7	0x41879325	16.946848
8	0x40f708a3	7.7198043
9	0x3f4491d6	0.7678503
10	0x435ed322	222.82474
11	0x4188ebd3	17.115149
12	0x41f00f42	30.00745
13	0x4030ad49	2.7605765
14	0x435ed322	222.82474
15	0x4188ebd3	17.115149
16	0x40d227fb	6.5673804
17	0x3f47fc0a	0.78118956
18	0x435b315c	219.19281
19	0x418a38ea	17.27779
20	0x41fa880c	31.31643
21	0x403944a7	2.8948152
22	0x435b315c	219.19281
23	0x418a38ea	17.27779

fcState.weight f4 [64, 24]
0	0x3eb8d537	0.3610017
1	0xbd1e594b	-0.038659375
2	0xbce03a85	-0.027371654
3	0x3e121837	0.1426705
4	0xbec910b8	-0.39270568
5	0x3e4c04ba	0.19923678
6	0x3c83c25c	0.016083889
7	0x3e93e993	0.2888914
8	0xbb18ec8b	-0.002333435
9	0x3e179cab	0.14805858
10	0x3dc3c654	0.095593125
11	0xbd66daaf	-0.056360897
12	0xbe5c2209	-0.21497358
13	0x3e075ec2	0.13219741
14	0xbc85ad4a	-0.016317982
15	0xbde438a3	-0.11143615
16	0x3e592091	0.2120383
17	0x3db43589	0.087992735
18	0x3e926d62	0.28599077
19	0x3e35b00f	0.17742942
20	0xbee54963	-0.44782552
21	0x3e96d7e4	0.29461586
22	0x3c0fa724	0.008767877
23	0xbcd760b0	-0.026291221
24	0x3d200ad1	0.039072815
25	0xbde156cc	-0.11002883
26	0x3cca1c56	0.024671715
27	0x3e74f026	0.23919734
28	0xbe920604	-0.28520215
29	0x3e182604	0.14858252
30	0xb90fadb0	-0.00013702246
31	0x3edf861d	0.43657008
32	0x3e2e69fc	0.17032617
33	0xbe4946d2	-0.19655922
34	0xbe82090b	-0.25397524
35	0x3ce3ec6a	0.027822692
36	0x3cc2d0b6	0.023781162
37	0xbce13d53	-0.027495062
38	0xbbb0a567	-0.0053908112
39	0x3c482624	0.012216125
40	0x3ed1b90b	0.4096149
41	0xbde08ef5	-0.10964767
42	0x3e90e724	0.28301346
43	0xbd337fc9	-0.043823037
44	0xbebb5d1c	-0.36594474
45	0x3e79bd46	0.24388608
46	0xbcccdb4c	-0.025006913
47	0xbca975ce	-0.020686056
48	0xbe355310	-0.17707467
49	0xbd3785a4	-0.044805184
50	0xbe61f4e9	-0.22066082
51	0xbe815465	-0.252597
52	0x3e9d48f0	0.3071971
53	0x3e03ca4d	0.1287014
54	0x3e5095b9	0.20369615
55	0x3d832108	0.064027846
56	0xbd72698e	-0.059182696
57	0xbe2792f3	-0.1636465
58	0x3eb093f4	0.3448788
59	0x3da10591	0.0786239
60	0xbd8413ef	-0.064491145
61	0x3e877def	0.26463267
62	0x3e95347f	0.29141614
63	0x3e35a8cb	0.1774017
64	0xbe8f4cb5	-0.2798821
65	0xbdf07603	-0.11741259
66	0x3e394be1	0.18095352
67	0xbc9182c0	-0.017762542
68	0xbeb02db7	-0.34409878
69	0xbdf33e08	-0.11877066
70	0x3e7b6cc5	0.24553211
71	0xbdfdd8a6	-0.12394838
72	0x39b164ee	0.0003383527
73	0xbe3d2e31	-0.18474652
74	0x3d281669	0.041036997
75	0xbd1da660	-0.038488746
76	0x3ea70039	0.32617357
77	0x3e14eb07	0.14542781
78	0xbe3e817d	-0.18604083
79	0x3d7cc219	0.061708543
80	0xbe809ebb	-0.25121102
81	0xbe9c14ae	-0.30484527
82	0x3d11977e	0.035544865
83	0xbc1c6eaa	-0.009547869
84	0x3e796f33	0.24358825
85	0xbe25c160	-0.16187048
86	0xbe2d5dc7	-0.16930304
87	0x3e1d66e4	0.15371281
88	0xbe79130a	-0.24323669
89	0xbd588b11	-0.052867
90	0xbdccfd5c	-0.10009262
91	0xbe4026c7	-0.18764792
92	0x3c58fa88	0.013243325
93	0x3d9e7aca	0.07738264
94	0xbeb1b011	-0.3470464
95	0xbe1ee3ae	-0.1551654
96	0xbe222d6e	-0.15837643
97	0xbbfb45b2	-0.0076682204
98	0xbd69bd04	-0.057065025
99	0xbe0e53d2	-0.13899162
100	0x3cb81fa5	0.022476027
101	0xbe2df432	-0.16987684
102	0x3e2e5137	0.17023169
103	0x3db2440e	0.08704387
104	0xbe12e439	-0.14344873
105	0xbe5ffd3e	-0.21873948
106	0x3ed7d940	0.42157936
107	0x3d9c048a	0.07618053
108	0x3d2ba898	0.04190883
109	0x3e1be27a	0.15223113
110	0x3e81d128	0.25354886
111	0x3e4aace5	0.19792517
112	0x3e97276c	0.29522264
113	0xbdf9ae8b	-0.121914946
114	0x3e0623a0	0.13099527
115	0x3db19528	0.086710274
116	0x3e0e2022	0.13879445
117	0x3eae437f	0.3403587
118	0xbdd21ac2	-0.1025901
119	0xbe8074b1	-0.25089028
120	0x3d919bae	0.07109772
121	0x3e27434a	0.16334262
122	0x3e316d46	0.17326841
123	0xbe5dfe4c	-0.21679038
124	0x3efffe80	0.49998856
125	0xbd270287	-0.040773895
126	0xbe535e90	-0.20641541
127	0xbe009533	-0.12556915
128	0x3e46f49d	0.1942925
129	0x3e84bf80	0.25927353
130	0xbe485785	-0.19564636
131	0xbd50ed3f	-0.051007506
132	0x3eb7ff4a	0.35936958
133	0x3e4ab916	0.19797167
134	0x3d3a72e7	0.045519736
135	0x3d48fa05	0.049066562
136	0x3e69ac92	0.22819737
137	0x3df2b3c7	0.11850696
138	0xbd823c92	-0.06359209
139	0xbdc89741	-0.097944744
140	0xbe58c122	-0.21167424
141	0xbd5d3bd1	-0.054012123
142	0xbdac0a5c	-0.084004134
143	0x3e00e10f	0.12585853
144	0xbd81d542	-0.06339504
145	0xbda89cbf	-0.08233022
146	0x3eb26979	0.34846094
147	0xbd5cb003	-0.053878795
148	0x3e5dd4c6	0.21663198
149	0x3e1680d6	0.14697585
150	0x3e6e92f4	0.23298246
151	0x3dd35c84	0.1032038
152	0xbe72deb6	-0.2371777
153	0xbd9418ce	-0.072312936
154	0xbe912739	-0.28350237
155	0xbe2fbb6a	-0.17161337
156	0xbdfb4590	-0.12269127
157	0xbd983052	-0.07431091
158	0x3d063b82	0.032771595
159	0xbde4a200	-0.111637115
160	0xbecdd926	-0.40204734
161	0xbd93d174	-0.072176844
162	0x3de77190	0.11300957
163	0x3d6e7ce4	0.058224574
164	0xbead124d	-0.33803025
165	0xbd80b665	-0.06284789
166	0xbcda6712	-0.026660476
167	0xbe051491	-0.12996127
168	0xbd54f54e	-0.051991753
169	0xbe49a8ed	-0.19693346
170	0x3dc1b780	0.09458828
171	0x3e1cbeac	0.1530711
172	0xbe586c5d	-0.21135087
173	0x3c8064a5	0.015672991
174	0x3eb87d71	0.36033204
175	0x3e95bd4c	0.29245985
176	0x3e14ba10	0.14524102
177	0xbda203e1	-0.07910896
178	0xbe8ddfb2	-0.27709728
179	0x3dfda032	0.123840705
180	0xbe0a28cb	-0.13492124
181	0xbd898ff5	-0.06716911
182	0xbea6dee2	-0.3259192
183	0xbd9c666b	-0.07636722
184	0xbe1fffd8	-0.1562494
185	0x3db8b420	0.09018731
186	0xbe7e1858	-0.24813974
187	0xbe2251b9	-0.15851487
188	0x3e827f3e	0.25487703
189	0xbd88f8bf	-0.066880696
190	0xbd37a150	-0.044831574
191	0xbdc506d0	-0.0962044
192	0xbe3243b4	-0.17408639
193	0xbd9c5087	-0.07632547
194	0x3ea8c129	0.3295987
195	0xbe38f0c6	-0.18060598
196	0x3e15482e	0.14578316
197	0x3e901d3b	0.281473
198	0x3ed109bd	0.40827742
199	0xbdea7f53	-0.114500664
200	0x3cde7199	0.027153777
201	0xbe23193c	-0.15927595
202	0x3e3e54c3	0.18587022
203	0xbdefefac	-0.11715636
204	0x3d8c083c	0.06837508
205	0xbc6286ad	-0.0138260545
206	0xbc9a44d9	-0.018831657
207	0xbd5ae4c9	-0.053440843
208	0x3cee9f6b	0.02912875
209	0x3c1c3b1b	0.009535576
210	0x3da53029	0.080658264
211	0xbc80da36	-0.015729051
212	0xbed09bc8	-0.40743852
213	0x3d90f9e8	0.07078916
214	0x3e45abf2	0.19303873
215	0x3d95b4e3	0.07309892
216	0x3e61e3ea	0.22059599
217	0xbd5be2c6	-0.053683065
218	0xbe31658f	-0.17323898
219	0x3e8ac93d	0.27106658
220	0x3e8d1bc1	0.27560237
221	0x3e4d8e20	0.20073748
222	0xbe6b99ee	-0.23007938
223	0x3c6d72d5	0.01449271
224	0x3c948666	0.018130492
225	0xbdee7c29	-0.116447754
226	0xbddb4a8a	-0.107075766
227	0x3deaaec1	0.11459113
228	0x3e73c12f	0.23804162
229	0x3e5201f7	0.20508562
230	0xbe05fcd5	-0.13084729
231	0xbe4f5f30	-0.20251155
232	0x3ddfe49d	0.109322764
233	0xbd94aa13	-0.072590016
234	0x3d8daf66	0.0691822
235	0x3e4f4ef1	0.20244958
236	0xbf0b58d4	-0.54432416
237	0x3df672d2	0.12033619
238	0x3e784fc8	0.24249184
239	0xbd736c58	-0.059429497
240	0xbe0d65f5	-0.13808425
241	0x3d9020f4	0.07037535
242	0x3d9785e7	0.07398587
243	0xbe1d24d9	-0.15346088
244	0xbe79c74b	-0.2439243
245	0xbe152156	-0.14563498
246	0xbe538374	-0.20655614
247	0xbe9d1808	-0.30682397
248	0xbdb08c95	-0.08620564
249	0x3e388504	0.18019491
250	0x3d6cf34a	0.057849206
251	0xbe23f015	-0.16009553
252	0xbe2dadb7	-0.16960798
253	0x3dee806a	0.11645587
254	0xbdb8b6c7	-0.09019237
255	0xbe42b40d	-0.19013996

fcState.bias f4 [64]
0	0xbee5c8ad	-0.44879666
1	0xbe716dcd	-0.23577042
2	0xbd1e632b	-0.038668793
3	0xbba6293a	-0.0050708326
4	0xbe18c519	-0.14918937
5	0x3da5dfb9	0.08099312
6	0xbe46f4e8	-0.19429362
7	0xbe2fab3f	-0.17155169
8	0xbe8b1b7f	-0.27169415
9	0xbe176afa	-0.14786902
10	0xbe1b6c63	-0.15178065
11	0xbf0d1822	-0.5511495
12	0x3c419789	0.011815914
13	0x3d89c09d	0.06726191
14	0xbe56fefa	-0.20995703
15	0x3ca89f3b	0.02058374
16	0x3c2d3c60	0.010573477
17	0xbdb30812	-0.08741774
18	0xbe6f12b3	-0.23346977
19	0xbc131b06	-0.008978611
20	0xbe96e603	-0.2947236
21	0xbe051b41	-0.12998678
22	0xbcfb476e	-0.030673709
23	0xbf30ecc0	-0.6911125
24	0xbe2e59b4	-0.17026407
25	0xbe56513e	-0.20929429
26	0xbd9812b8	-0.07425445
27	0x3d518a4b	0.051157277
28	0xbe99bf30	-0.30028677
29	0xbe693c21	-0.22776844
30	0xbecd2332	-0.40065914
31	0xbd7d0936	-0.061776362
32	0xbcb2bcd9	-0.021818565
33	0xbe20d7b1	-0.1570728
34	0xbeb98f1a	-0.3624199
35	0xbec03ef2	-0.37548023
36	0xbddef3c6	-0.1088634
37	0xbe7f5d68	-0.24937975
38	0x3ce9f33f	0.028558372
39	0x3d0ac554	0.033879593
40	0xbe4b776f	-0.19869779
41	0xbe68f925	-0.22751291
42	0x3e0b6b66	0.13615188
43	0x3e80c9f3	0.25154075
44	0x3c0ff82e	0.008787198
45	0x3d2b7758	0.041861862
46	0xbb8c2eaf	-0.004278026
47	0xbe807347	-0.2508795
48	0x3de94e89	0.113919325
49	0x3e6e0700	0.23244858
50	0xbee5648d	-0.44803277
51	0xbf4c5e03	-0.7983095
52	0xbe0310ef	-0.12799428
53	0xbdc1c489	-0.09461314
54	0xbc343060	-0.010997862
55	0xbd836848	-0.064163744
56	0xbe622f6c	-0.22088403
57	0xbec59fa7	-0.38598368
58	0xbe11fdbe	-0.14256951
59	0xbe22dc2a	-0.15904298
60	0xbdce20a5	-0.1006482
61	0xbdc18d30	-0.094507575
62	0x3d6bb9da	0.05755029
63	0xbe3492cd	-0.17634125

fcAction.weight f4 [16, 2]
0	0xbe4e093e	-0.20120713
1	0xbe21a5f0	-0.15785956
2	0xbf0098e9	-0.5023332
3	0x3eb0d904	0.3454057
4	0x3f8d9765	1.1061827
5	0xbf30ef9e	-0.69115627
6	0x3eabb77a	0.3353842
7	0x3ea8170c	0.32830083
8	0xbf23e5fc	-0.64022803
9	0xbc145702	-0.009053947
10	0x3f55a2d8	0.83451605
11	0xbef720f3	-0.48267326
12	0xbde2df38	-0.11077732
13	0xbef8741c	-0.48526084
14	0x3eba235e	0.36355108
15	0xbe0f0665	-0.13967283
16	0x3ed7ef5f	0.42174813
17	0x3f1873d3	0.59551734
18	0xbd96f21d	-0.07370398
19	0xbf8d4a53	-1.1038307
20	0xbd100d62	-0.035169013
21	0xbe4e941b	-0.20173685
22	0x3dc351b8	0.09537071
23	0x3eea21b5	0.4572884
24	0xbf20cea8	-0.6281533
25	0xbf3cfb55	-0.73821
26	0x3f432a0e	0.76236045
27	0x3e3e0c8b	0.18559472
28	0x3eab3ada	0.33443338
29	0x3f03b905	0.5145419
30	0x3f58fb34	0.84758306
31	0xbf9b499e	-1.2131841

fcAction.bias f4 [16]
0	0x3d4be988	0.04978326
1	0x3d948da8	0.07253581
2	0xbea8c117	-0.32959816
3	0x3e13c822	0.14431813
4	0x3cedae66	0.029013824
5	0x3ee206fa	0.44145948
6	0xbf2cc83e	-0.67493045
7	0x3ec3253d	0.38114348
8	0xbeb82b5b	-0.35970578
9	0x3e97bdac	0.29636896
10	0x3e718693	0.23586492
11	0xbdedf66e	-0.11619268
12	0xbeb9f698	-0.3632095
13	0xbd02e1a3	-0.031953465
14	0xbec1cb82	-0.37850577
15	0x3e039235	0.12848742
