MADDPG_agent0_0.pth (torch_old, 791863 bytes, 154 tensors)

bn.weight f4 [24]
00000000: a458 923f 965c 843f 3e0a 903f 90e0 853f
00000010: c966 943f a849 a53f 89ce 6c3f e5ca 923f
00000020: 68de 873f a7e9 913f 41a6 693f 4fec 8c3f
00000030: ef6d aa3f f141 953f 6a96 923f b0ed 933f
00000040: 6665 9b3f ee2c a13f 1757 8a3f e7d7 a73f
00000050: 750c b63f f1c8 9e3f fa98 8c3f 8355 9a3f
1.1433301 1.0340755 1.1253126 1.0459156 1.1593868 1.2913103 0.9250265 1.1468168
1.0614748 1.139943 0.9126931 1.1009616 1.3314799 1.1660749 1.1452153 1.1556911
1.2140319 1.2591836 1.0807828 1.3112763 1.4222552 1.2405072 1.0984185 1.2057346

bn.bias f4 [24]
00000000: d461 54bd cc99 83be 3ab1 fb3d 8dcb 51bc
00000010: 6b5d c33d e92c ed3b 5629 873c 746f 8a3e
00000020: 13a0 033e 17b3 25bd 600d 23be 20e6 6d3d
00000030: 1e2b 113d 2323 adbd de9c 19be a3b9 e93d
00000040: 90d1 173d 2e98 e2bc 2714 3d3e 71c1 053e
00000050: 994b e1bd ecf8 febd 04fe debd 6ba8 873d
-0.05185111 -0.25703275 0.12289663 -0.012804878 0.095393024 0.0072380197 0.016499203 0.27038157
0.12854032 -0.040453997 -0.15923071 0.058080792 0.03544151 -0.084539674 -0.15001246 0.114123605
0.03706509 -0.027660456 0.18464719 0.13062073 -0.11000747 -0.12449822 -0.108882934 0.0662392

bn.running_mean f4 [24]
00000000: 6eea 0cc1 4d0e 38be 5479 793f 22a3 473d
00000010: f1a5 2fbd e3b4 7440 5479 793f 22a3 473d
00000020: 11ec 0ec1 0388 40be d102 5e3f 2ce6 5e3d
00000030: bd7c 18bd 38f3 7340 d102 5e3f 2ce6 5e3d
00000040: 8391 10c1 06f7 46be 165a 7c3f e12b a13d
00000050: a7f2 0cbd 3c3c 7240 165a 7c3f e12b a13d
-8.807234 -0.17974205 0.9745076 0.04873956 -0.042882863 3.8235404 0.9745076 0.04873956
-8.932633 -0.18801884 0.8672305 0.054418728 -0.037228335 3.81172 0.8672305 0.054418728
-9.035525 -0.1943017 0.9857496 0.07869697 -0.0344111 3.7849264 0.9857496 0.07869697

bn.running_var f4 [24]
00000000: 6387 0a41 0aa5 483f 2b5a 5443 1c03 8741
00000010: 13dd ec41 4a6f 2d40 2b5a 5443 1c03 8741
00000020: e467 f440 b6af 4c3f 5be2 5743 cd4c 8841
00000030: 180f f641 fdcb 3140 5be2 5743 cd4c 8841
00000040: 9b6f d540 4e3c 503f 0be3 5c43 7124 8a41
00000050: 38fc ff41 114f 3d40 0be3 5c43 7124 8a41
8.658053 0.7837683 212.35222 16.876518 29.607946 2.7099175 212.35222 16.876518
7.637682 0.79955614 215.8842 17.0375 30.75737 2.7780755 215.8842 17.0375
6.6698737 0.8134202 220.88689 17.267794 31.998154 2.9579508 220.88689 17.267794

fc1.weight f4 [32, 24]
00000000: 774b 6a3d fb39 58be f710 c639 7b5e 4f3e
00000010: 39fc afbd 955b 1d3d b2d3 99bc 654a 6a3e
00000020: 503c e13d 806e d7bd f006 a53c d495 413e
00000030: e341 183e de19 15be 4401 29bd de80 223e
00000040: a093 c23d 2b93 60bd 19a5 0b3e f678 243e
00000050: c158 913b d412 22be 04ac f0bd 059e c5ba
00000060: 8abb 543a ddab 3fbd d343 143e 9293 133e
00000070: 803d 88be a15d 5f3e ac70 853d a283 7d3e
00000080: 9537 253e a80a 79be 6b88 b8bd 3870 6fbb
00000090: d9e0 543d 8a11 893c f86b 493e f9c1 0c38
000000a0: 55aa 703e 4929 fcbd 418c 0e3e 59c0 353c
000000b0: 9157 8dbe 9746 1d3e 6ced 09be 0b85 7b3d
000000c0: f03a 4bbe 2917 2fbc abca 9fbc dfbf c43d
000000d0: ad81 e1bc a233 17be ba82 b93e e52d b73e
000000e0: 98d4 d3bd 5a77 92bd 5d28 b13d d6df 023e
000000f0: 7c06 8abe 20c4 0abd 0171 c13d 5160 843e
00000100: a3d0 97be 41e2 503d d79b 28be 0a1d 533e
00000110: f72e 97be 166b acbe 9681 afbd 6e9b f43d
00000120: 492d 0ebd 9501 43bc 8816 713d 24e1 633e
00000130: 6445 13bd 0b9b c73e 768c 4fbe dd61 8c3e
00000140: f015 9cbe 4dd5 c4bd 8052 6e3c e36c 753d
00000150: cf74 2cbc 00a5 7e3d d6b2 32be 1a33 803e
00000160: 7126 23be 1ea0 443e d978 083e 7ab0 dfbd
00000170: 6bb2 08be 7b5a 153e 1f13 9fbd 06d8 72bd
00000180: 86eb 9f3d affa a73d 38e0 10bd 5695 88be
00000190: 6d8e af3e fb31 873d 27c0 0e3e a62e c9bd
000001a0: 62d6 c8bc 7b7c 37be 459a 483e c6c5 48be
000001b0: eb1b 883e 1452 743e 8972 a03d fa11 52bd
000001c0: b315 ba3e 6bcf 1cbe b85d 003e a514 bfbd
000001d0: 792d b43e a739 ae3e 1237 adbd 151c cfbe
000001e0: b125 1ebe 576d 953e bdac 883e b1f2 80be
000001f0: 5e3a 163e bd05 b6bd d1b5 d5bd 2299 32be
00000200: 9cad 013e 9e3a b33e 302a 533d c96e 0dbe
00000210: 7f4d 603e 1b5b 0e3e 7d0c 993e bff5 17bd
00000220: 836b 89bd edd2 163e 87d6 98bd 58b1 b5be
00000230: ae68 a7bd f074 993c d7d2 10bd e319 c7bd
00000240: 1606 323e 9706 34be ab1f 223e c239 93bd
00000250: 5843 283e 4c38 2f3e 2726 463c c5e9 593d
00000260: 5378 133e fe43 16be faa2 29be 7c32 8abe
00000270: 82f4 ffbc 2f65 7639 fafc 363e 6f85 56be
00000280: 2db1 e2bd 3697 73be f768 a1bd c809 22bd
00000290: 4ab0 67bd f0b4 913e 0a7a 68be 5d94 5ebe
000002a0: 256e 52be eb67 dcbd 4e4f 12bd c0c6 c23d
000002b0: ae26 f33d 5ca9 49be 340c 5d3e a21d 723e
000002c0: e41f 433e 7160 a1ba 5587 43be d202 473d
000002d0: bd5a 723c c981 6abe afcd 60be eede 0ebe
000002e0: 4048 edbd e5b2 383e 1d41 9abe f4ed 41be
000002f0: 8ce2 053e 3fb2 9dbe b1fa acbd b216 f3bd
00000300: 7249 6d3d 5388 6cbc 32e4 0b3e 6a96 93be
00000310: 90b9 58bd acbf c33e 3e32 3e3e ce03 98be
00000320: fdef 2e3e 18c6 8abe 4e38 043e 10d9 82bd
00000330: e47b 2dbd 8b29 533e 5604 7dbd dd40 3b3c
00000340: 7111 9e3e 0140 bcbc a8d9 0e3d 0dae 373d
00000350: aa8c a7be eeeb cc3d 2908 383e 9d19 143e
00000360: 9a87 093d 5b4b 84be 2918 e5bd 13a5 0d3e
00000370: 5300 dbbd e3ce 973e d25a 56be 231d 3fbe
00000380: dc0f 89bd db3b a3be a2ef dbbc 468f 2b3e
00000390: 381b 2f3e 71b3 833e 8556 bbbc 0fe2 13be
000003a0: 6cfd 7a3d 08cb 59be 4c2c 45bd 895c c93c
000003b0: 73f0 10be b98e 113e 980d 263e 3eee 42be
000003c0: 343c 1dbe 7970 e53d 2ce7 793d 5088 ff3c
000003d0: 6fdb 85be 66e5 253e 6211 56be a6a7 03be
000003e0: 9967 1fbe 56d1 813e 7c17 c43d af70 f9bd
000003f0: 717e 29be 7661 d03d a8e8 79bd abda 26be
0.057200875 -0.21115868 0.00037778143 0.20250885 -0.085930295 0.038417418 -0.018777702 0.22879942
0.10997832 -0.10519123 0.02014491 0.18904811 0.14868884 -0.14560649 -0.041260973 0.15869471
0.095008135 -0.05482785 0.13637199 0.16061768 0.004435629 -0.15827495 -0.117515594 -0.0015077001
0.00081151037 -0.04679476 0.14478998 0.14411762 -0.2660942 0.2181306 0.06515631 0.24757245
0.16134484 -0.24320471 -0.09010395 -0.0036535393 0.051972244 0.016731996 0.19670093 3.3559252e-05
0.23502477 -0.12312562 0.1392069 0.011093223 -0.2760587 0.15358959 -0.13469476 0.061406177
-0.19846702 -0.010686674 -0.01950582 0.09606909 -0.027527655 -0.1476579 0.3623255 0.35777202
-0.103432834 -0.07151671 0.08650277 0.12780699 -0.26958072 -0.033878446 0.09445382 0.25854734
-0.29651365 0.050997023 -0.16465698 0.20616546 -0.2952802 -0.3367545 -0.085696384 0.11943708
-0.034711156 -0.011902233 0.058859378 0.22253853 -0.035954848 0.38985476 -0.20268425 0.27418414
-0.30485487 -0.096109964 0.014546037 0.059918296 -0.010525896 0.062169075 -0.17451033 0.25038987
-0.15932633 0.19201705 0.1332735 -0.10922332 -0.13349311 0.14585297 -0.07767319 -0.059288047
0.078085944 0.08202111 -0.03537008 -0.26676434 0.3428835 0.0660133 0.13940488 -0.098233506
-0.024516288 -0.1791858 0.19590099 -0.19606695 0.265838 0.23859435 0.07834346 -0.051286675
0.3634468 -0.15313499 0.12535751 -0.093301095 0.35190943 0.3402836 -0.084577695 -0.40451112
-0.15444066 0.29184982 0.2669429 -0.2518516 0.14670703 -0.08887813 -0.10435069 -0.17441228
0.12663883 0.3500566 0.051553905 -0.13811792 0.21904562 0.13901941 0.2989234 -0.037099596
-0.06709959 0.147289 -0.07462793 -0.35486865 -0.08174263 0.018732518 -0.035357323 -0.097217344
0.17385134 -0.17580639 0.15832393 -0.07188751 0.1643194 0.1711132 0.012094057 0.053201456
0.14401369 -0.14674374 -0.16566077 -0.26991642 -0.03124452 0.00023498082 0.1786994 -0.20949338
-0.1106895 -0.23788151 -0.078813486 -0.03956011 -0.056564607 0.28458357 -0.22702804 -0.21736284
-0.2054983 -0.10762008 -0.035720162 0.09510565 0.11872612 -0.19693512 0.21586686 0.23644117
0.19055134 -0.0012312067 -0.19094594 0.048586674 0.0147921415 -0.22901072 -0.21953462 -0.13952228
-0.11586046 0.18036993 -0.30127802 -0.18938428 0.13074702 -0.30800053 -0.08446253 -0.11869563
0.05793137 -0.014436799 0.13661268 -0.28825694 -0.05291134 0.38232172 0.18573853 -0.29690403
0.17083736 -0.2710426 0.12912104 -0.06389058 -0.04235448 0.20621316 -0.061771713 0.011429039
0.30872682 -0.022979738 0.034875542 0.044843722 -0.32724506 0.100059375 0.17971863 0.14462896
0.033576585 -0.25838742 -0.11186249 0.13832502 -0.10693421 0.2965003 -0.20933083 -0.18663459
-0.06692478 -0.31881604 -0.026847664 0.16753873 0.17100227 0.2572284 -0.022868404 -0.14441703
0.06127684 -0.21268857 -0.048137948 0.024580257 -0.14154224 0.142146 0.16216123 -0.19036195
-0.15354997 0.11203093 0.06101148 0.031192929 -0.26143977 0.1620079 -0.20905069 -0.12856922
-0.15566863 0.25355023 0.09574792 -0.12179696 -0.1655214 0.10174839 -0.061012894 -0.16294353

fc1.bias f4 [32]
00000000: b0df d63d ccd2 293e f452 33bd 62c9 b93d
00000010: 7284 7e3b ab5f 343d d9c0 6b3e 065b 863d
00000020: f6ee 9d3d 30ee a6bd a43a 04be 67c7 9d3d
00000030: 76e2 56be 72ba 653e 13b7 223c 98f4 973d
00000040: 8d6f 72bd 516a 84bd d0c0 2dbd ea9d 14be
00000050: d39f a63e 6d9b 5f3e 68c0 b9bd 6b32 c9bd
00000060: 6531 cc3d 41a2 c33d 8d26 4e3e 1790 073e
00000070: bc9f 8f3d ba56 98bd 217c af3d de1a 053d
0.10491884 0.16584319 -0.043780282 0.09071614 0.0038836268 0.04403655 0.23022784 0.0656033
0.07711594 -0.081508994 -0.12912995 0.077040486 -0.20984825 0.22434404 0.009931344 0.074196994
-0.059188414 -0.06465591 -0.04242021 -0.14513364 0.3254381 0.21836634 -0.09069902 -0.098240696
0.09970359 0.09552432 0.20131893 0.1323856 0.07012889 -0.07438417 0.085685976 0.032496326

fc2.weight f4 [64, 32]
00000000: 6722 c43d 1b7e f73d 5ca8 323e 1ec0 313e
00000010: 7c5b 3ebe ce58 43bc 091d 14bd 392e 473e
00000020: 1b4a 9dbe cec8 94be 0940 b2bd 9f5e 2cbd
00000030: b2de 0d3e 2894 6ebd 508c 3d3d 51cc 1b3e
00000040: bade 0b3e 27c5 2d3e c7fd 8a3d bfb7 58bd
00000050: d9ec 1f3e f4f6 263e 1d6d 55be d5e9 7c3d
00000060: 8780 663d 7104 0f3d 0b69 ebbd 7b21 02be
00000070: e39f edbd 6ed1 0dbe e930 9b3d 4380 153e
00000080: bceb 843d 16d5 2cbe 891e 1a3e 50e3 c53c
00000090: 5416 9f3c cd1b 49be 138b 8b3d 702f 1b3e
000000a0: 7266 c0bc e24a dfbd e709 28be 4ef3 e13d
000000b0: 8582 d53d d6b7 2dbe edb1 83bd 12ba ae3d
000000c0: 94ff 61bd 8e19 6e3e 3a11 67be 0a94 84bd
000000d0: cf1d 9ebd a033 9a3d 5b3e 8fbc fbce 013e
000000e0: f4b8 28be 8d5a cdbd 09b9 dd3c 0685 39bd
000000f0: a4f6 313e c19c 1c3d dbaa a5bd a1f5 8c3e
00000100: 2891 61be 1176 c63d c3a4 9ebd 7854 d7bd
00000110: f538 ee3d b3ad 283e 0e8b 7fbe 1639 fdbd
00000120: 2c9a 063e ecac 13bc da65 b2bc 0d76 163b
00000130: 2e57 06be 7cd2 5abb 4046 50be 70a7 ecbd
00000140: bed2 8abd 62d0 883c f113 df3d b6c3 4f3e
00000150: 34be a63d 9d02 19be ba55 5b3e a1bb 113e
00000160: aeb4 9d3d 484a f83c dc1a 383e ab84 0c3e
00000170: eb0b fc3d 8bb6 ce3d addd 3d3d d30e a0bb
00000180: da33 0ebd b2d1 653e fd8a 30bd e929 583d
00000190: 6865 5dbe 7acb 3b3c 1c37 a2bc d023 0cbe
000001a0: afb6 b13d 8aa8 84bd c6c1 babd bbc4 513d
000001b0: ab96 14bd c3fe 8b3e 4d91 8fbd 0a9b 533d
000001c0: c638 9abb f9a4 553e f474 1e3e c9d2 303e
000001d0: f252 1c3e 5b4c 8b3d 522d 373d 3705 2bbd
000001e0: 1744 973d 35ca 3f3d 5f61 9bbd 5293 e53d
000001f0: 5d80 683d f98d 15be 675c c43d 9b54 703e
00000200: f7bc 323d 00df 5f3e d092 e9bc a76a afbd
00000210: c024 af3d dd88 3abc 6ebb 63bd 3580 bf3d
00000220: f7e4 b03e ddc4 043e c2db 9ebb 50f5 1c3d
00000230: 8aaa edbd 3028 0f3d 0277 193e 9ed5 4c3e
00000240: 0138 233e bfbe 5d3d d16e 6bbe 6853 763d
00000250: 8554 0a3d 841f 5a3d 4d4d 143e e546 adbd
00000260: b4a8 eb3c d868 9c3e a075 19bd d0a1 663c
00000270: 9690 2f3e 0b45 6b3e 4ec7 be3d a214 b1bd
00000280: 9335 063e 326e c2bd 978a acbd ebfd a5bd
00000290: 66e1 1f3e 673b 773e ea76 f03d 1495 273d
000002a0: 5e2b 99bc 2553 09be 35c9 563e 58f6 9e3d
000002b0: 9192 bbbd 333a 21be 966b 61be 2e4a 21be
000002c0: 0641 00bd 33d5 823c 61fd 813e ef93 093e
000002d0: 22ab 15be 5ba6 333e f082 4c3c 10ef 8e3e
000002e0: 3b5e 04be 7fbf 82be 8d6a 11bd 75a4 763e
000002f0: 915c f0bd 23e0 9ebe 59ef f43c fcfd 223e
00000300: 52ce 02bd cd2c 1bbd 81f2 88be c16d 983e
00000310: 2ce4 e33d 8dc8 25be 05e0 4e3d 49f8 f03d
00000320: fd93 113e 4a09 793d e69a 16be b900 37be
00000330: fe1a 0e3e 7318 bd3d 907f 393d 7c40 30bc
00000340: 43e4 8f3d e16b c2bd 9ecc 143e 4b9c c03e
00000350: e121 8b3e 5179 cd3d a45c c8bd 0e94 d53c
00000360: e9f3 1c3e 9fe7 8bbd e3f9 b33d b55e f8bd
00000370: cf8e edbd 650d b4bd bd07 3d3d 87f6 303d
00000380: c4ae 223d b6c5 533e 7d89 6e3d 4071 ecbd
00000390: 2aba b3be fea9 8ebe ab0a 16bd e98b 44be
000003a0: b58e 6c3e f4ec 3d3e dfa4 a7bc ceaf 403c
000003b0: 3a6a 1cbe 7880 05be 3861 2bbe 60ab 163c
000003c0: dddc 7abe c298 803e 0398 51be 576e ea3d
000003d0: 8ed6 0a3e 9f33 f33d a2b7 123e 695b 573d
000003e0: 665e 403d f558 813c 9077 90bb 75d2 adbd
000003f0: 05d1 1e3e 7b8f db3d bde2 e33d 0b66 073e
0.09576874 0.120845996 0.17447037 0.17358443 -0.18589586 -0.011923028 -0.036160503 0.19451226
-0.307206 -0.29059452 -0.0870362 -0.042082425 0.13854483 -0.05824676 0.04627639 0.1521466
0.13659182 0.16969739 0.067866854 -0.05290961 0.15617694 0.16305143 -0.20842405 0.061746437
0.056274917 0.034916345 -0.11494645 -0.12708084 -0.116027616 -0.13849422 0.07577688 0.14599709
0.06490275 -0.16878161 0.1505071 0.024156243 0.019419827 -0.19639511 0.06813636 0.15154815
-0.02348635 -0.10902955 -0.16410027 0.11032735 0.10425285 -0.16964659 -0.06430421 0.08531584
-0.05517538 0.23251936 -0.22565165 -0.06473549 -0.07720529 0.07529378 -0.017485788 0.12676613
-0.16476804 -0.10027037 0.02706577 -0.045292877 0.17379242 0.03823543 -0.08089229 0.2753115
-0.22028029 0.09690488 -0.077462696 -0.10514158 0.116319574 0.16472511 -0.24955389 -0.12364404
0.1314475 -0.009013396 -0.021777082 0.0022958547 -0.13119194 -0.0033389619 -0.20339298 -0.11555374
-0.06778477 0.016700927 0.108924754 0.20289502 0.08141747 -0.14942403 0.21419421 0.14231731
0.077004775 0.030308858 0.17978996 0.13722484 0.12306961 0.10093411 0.046353985 -0.0048845797
-0.03471742 0.22443274 -0.0431013 0.052774344 -0.21620715 0.011462087 -0.019801669 -0.13685536
0.08677422 -0.06477459 -0.091189906 0.051213007 -0.0362765 0.27342805 -0.07010136 0.05166153
-0.004706475 0.20863713 0.15474302 0.17267908 0.15266016 0.06801673 0.044720955 -0.04175302
0.07386034 0.0468237 -0.075869314 0.1120974 0.05676304 -0.1460494 0.09587937 0.23469774
0.043637242 0.21862411 -0.028512388 -0.08565264 0.085519314 -0.01138517 -0.05559867 0.093506254
0.34549686 0.12965722 -0.0048479745 0.038319886 -0.11604793 0.034950435 0.14986804 0.20003363
0.15939333 0.054136988 -0.22991492 0.060138136 0.03377201 0.053252712 0.14482613 -0.08460788
0.028766967 0.3054874 -0.03746569 0.014076665 0.17144999 0.22975557 0.09315358 -0.086465135
0.13106374 -0.09493674 -0.084248714 -0.08105072 0.15613326 0.24143754 0.11741431 0.040913656
-0.018697437 -0.13410623 0.20975192 0.0776183 -0.09158815 -0.15744857 -0.22013697 -0.15750954
-0.03131201 0.015970802 0.25388625 0.13435338 -0.14616063 0.17543928 0.01248239 0.27916765
-0.12926571 -0.25536725 -0.035502005 0.24086173 -0.11736406 -0.31030378 0.029899286 0.159172
-0.031935044 -0.037884522 -0.26747516 0.29771236 0.11127505 -0.16189785 0.05050661 0.11766107
0.1421661 0.060799874 -0.14707527 -0.1787137 0.13877484 0.09233179 0.04528767 -0.010757562
0.07025959 -0.094932325 0.1453118 0.37619242 0.27174285 0.10032905 -0.09783295 0.026071575
0.1532742 -0.068312876 0.087878965 -0.12127439 -0.11599504 -0.08791617 0.046149958 0.043203857
0.03971745 0.2068089 0.058236588 -0.11545038 -0.3510297 -0.2786407 -0.036631268 -0.19193996
0.23101313 0.18547422 -0.020464359 0.011760665 -0.15274897 -0.13037288 -0.16736305 0.009196132
-0.24498315 0.25116545 -0.20468144 0.11446827 0.13558409 0.1187508 0.14327863 0.05257741
0.046965025 0.015789488 -0.004408784 -0.08487407 0.15509422 0.10720726 0.11127231 0.1322252

fc2.bias f4 [64]
00000000: f9d3 06be 65a4 ec3d 137b dcbd 8bb0 7dbd
00000010: d8e8 b9bd 4850 f9bd 931b 3fbd 88a1 b4bc
00000020: d4f3 c63d 4015 3d3d fa8f b93d 6af0 423e
00000030: 58f1 cb3d 4bdf fe3d b917 1abe 1f2f 6ebd
00000040: 4d95 10be 516a 19be bc77 47bd 9083 5bbe
00000050: 327e 6d3e 5927 0f3e 5dc1 bc3d c107 77bc
00000060: 4a2e ba3d 63fc 76bd bdcc f3bd d22a c53d
00000070: 8484 e23d 4234 5a3d 4920 143d 4c22 e63d
00000080: 9c7b af3d 6cb2 81bd b7ea 4b3c 4687 ba3d
00000090: fbd6 393e 45bd 633e c749 e8bd 08c3 aebd
000000a0: 28ff df3d b8c3 943d edc2 83bd 5cf8 4fbd
000000b0: 5821 6d3d cedd 423d 5044 5a3e 73ba b5bb
000000c0: 2639 07bd cb29 403d f785 313e 3043 0cbe
000000d0: 4a2c 153d 2fe3 45bd daba 3abd 1b11 a73d
000000e0: 0103 5abc bf89 42bd 7238 1a3d 9471 f53d
000000f0: b044 cf3d 341c e2bd 234e 3b3e dc9e e23c
-0.13166799 0.11554793 -0.10765662 -0.061935943 -0.090776145 -0.121735156 -0.046657156 -0.02204968
0.09714475 0.046162844 0.090606645 0.19037023 0.09958142 0.124449335 -0.15048112 -0.058150407
-0.14119454 -0.14981963 -0.048698172 -0.21436906 0.23192671 0.13979854 0.092165686 -0.015077532
0.0909086 -0.06029929 -0.11904285 0.09627308 0.110604316 0.053272493 0.036163602 0.1123701
0.085684985 -0.063328594 0.012446097 0.091078326 0.18148415 0.2224017 -0.11342197 -0.08533293
0.10937339 0.07263893 -0.064336635 -0.050773963 0.057893127 0.04757481 0.21315122 -0.005545908
-0.033013485 0.046914857 0.1733626 -0.13697505 0.03641919 -0.048312362 -0.04558835 0.081575595
-0.01330638 -0.047494646 0.037651487 0.11984554 0.10120523 -0.110405356 0.18291526 0.02766364

fc3.weight f4 [64, 64]
00000000: 3caf d5bd 7475 823e 9339 673e c93c 2dbd
00000010: c381 c8ba 894a b53d b8be 81be 3376 c73e
00000020: 0730 2dbe 5643 c83d fd61 063e a1ef 93be
00000030: 0233 2c3e 8ce0 7b3e f0e7 cfbd a753 3cbd
00000040: 375d 6dbe 0951 803d 13c4 17be bdca fd3d
00000050: 609b 71be 415b 3abe 34d9 943d 55a2 573e
00000060: 76ad 1bbd 6217 973d 7768 6ebd ddad ac3c
00000070: 56bf 2fbd b094 89be 76f2 d03c 0c5c 483e
00000080: c539 193e 38bf 07be 72cf 7bbe bfee 833e
00000090: 8762 bb3d 79fa 83bc df15 06be 62df 923b
000000a0: befb 303e ae86 e5bd 1f6d 60be 4dfc 723e
000000b0: 8c66 413c a181 893e 49ea ea3d 6309 283e
000000c0: 95bd 93bd f47f 9bbe 4029 2c3c c21e 78be
000000d0: fe8d 823e 469a 4a3e 1327 c73e f3ef 3e3e
000000e0: 0615 5fbe bb25 2e3e 5492 53bd 088b 593d
000000f0: 476b 4d3d 88fd e1be 2cde b13c 603c 8c3d
00000100: c87d 023e 97ea 4cbe 7813 cbbd c341 133e
00000110: 5c64 bf3b 573b 37be c932 ab3d 9f4c ffbd
00000120: 30a9 f63b 58fe 20be 3801 763d 95fe 233e
00000130: 36f3 c33d 8681 65be 7dc2 a23d cf67 a5bd
00000140: 25d9 853e 8dee 733e 1f17 95bc 7734 50be
00000150: 4ea4 9a3e 907f 0b3e cb09 a13d 4ade c4bd
00000160: 3b80 0e3e e801 9d3c 687a 833e d1e2 113e
00000170: 6cd4 963d 3e61 043e aa60 feba db3a 863d
00000180: fc47 81be cb6f 123e 10d9 4ebc c84d fabd
00000190: ebd9 7bbd c718 3a3d 9c69 30bc dc0a 31bc
000001a0: 69f7 2a3e 93ff a33c bca2 523d 4ecb f8bd
000001b0: e228 c83d 8c9a dbbe 88f4 413e 01f8 243d
000001c0: e8bc 2c3d 8864 773e e026 c2bb 215d 133e
000001d0: c44d a03d 5115 19be 8bea 69be 5de7 103e
000001e0: 6626 073e 66ee 59be 9cdc b73d db37 40bd
000001f0: 6778 053e d010 663d 5b0e 043e 0c82 10be
00000200: c9f0 57bd ae7a 833e 4450 cc3d 47e2 033e
00000210: d0b2 ca3b a270 933d ecbf 94bd 60dd 3b3e
00000220: 8f4f f13d 7f49 2f3e f221 42bd 0606 96bb
00000230: efd7 023d a0fd bd3c 0c51 bfbd e870 0f3e
00000240: 0c9a 023d 69da 1a3e a7cf c53d 94bc 7b3d
00000250: 3126 963c 2ea9 c53d 6fec 0c3d 1be5 013e
00000260: 46ed fdbc cdd0 09bc 0d6e 883d 7391 81ba
00000270: ba7d 8e3b 1dfe bfbd 4024 583d c3b5 53bd
00000280: 41b2 4e3e 0209 0dbe b197 bfbd ee9f 0a3e
00000290: 49a5 c13b 797b de3d ef92 3c3e 1e1f 873d
000002a0: a148 e33d a23b ca3c 5af4 13be a6be c43d
000002b0: d0a2 c43d 078d d23d a33f d03d 4b7f c13d
000002c0: 2f7c ac3d 4fab e2be 246f 4dbd d5c2 1dbe
000002d0: f826 303d 3f1d db3d 3220 d73e 9882 b23d
000002e0: 16f9 f43d 122d 643d d06a d8bd 2e15 043e
000002f0: a4df 8d3d 5cd2 4ebe 1357 57bd e08c 073e
00000300: ce01 813d 9120 61bd 70e4 d7bc c5b3 dabb
00000310: 4127 f03d 39b3 a7bd f736 cb3c de7e 04be
00000320: 0550 ec3d c10f d6bd b0d7 b43d 6372 003e
00000330: bcc4 06bc 9b6e 41be fd22 383e a54c b53c
00000340: 6c77 be3d 0a3e e13d c127 83bb e341 14be
00000350: a4de 0e3e b6a8 b5bd 36e7 d7bd af43 39be
00000360: 45c1 c638 692f bd3d 25c7 3c3e 0be9 6ebb
00000370: 7fd9 3aba 28e9 4f3e 8961 403e 1c22 7c3c
00000380: 2190 49be ca4c 4fbd 47f4 223e 8638 9dbd
00000390: 3388 ad3c d005 2b3d 22c3 a838 a9a3 533b
000003a0: caec 643c 6feb 963d 6219 e73d 461a 52be
000003b0: d79c 0c3d 46bf e9be 1906 273e 1e0c 853d
000003c0: d114 213d 7c7a bb3e 6111 03bc 8b99 873e
000003d0: 784e 9f3d 091a d1bd 4d60 3dbe 7acc aebd
000003e0: 3a69 90bd 4150 4abe bb0c 2a3e a3e6 583d
000003f0: 4b44 303d a422 bb3d f939 613e cea5 5fbd
-0.10433814 0.25480235 0.22580557 -0.042294297 -0.0015297461 0.08852107 -0.2534082 0.38957366
-0.16912852 0.09778468 0.13123317 -0.2889376 0.16816333 0.24597377 -0.101516604 -0.045978215
-0.2318009 0.06265456 -0.1482089 0.12392185 -0.23594427 -0.18198873 0.07267991 0.21058019
-0.038007222 0.07377507 -0.058205094 0.021078998 -0.04290708 -0.26871252 0.02550624 0.19566363
0.14963444 -0.13256538 -0.24590853 0.25768086 0.09149652 -0.016110646 -0.1309428 0.0044821957
0.17283532 -0.11207329 -0.21916626 0.23729058 0.011804234 0.26856712 0.114704676 0.16409831
-0.07213894 -0.30371058 0.010507882 -0.24230483 0.25498956 0.19785413 0.38897 0.18646221
-0.21785364 0.1700658 -0.05165322 0.053111106 0.050151136 -0.44138741 0.021712385 0.06847453
0.12743294 -0.20011364 -0.09915823 0.14380555 0.005840821 -0.1789373 0.08359296 -0.12465786
0.007527493 -0.15722024 0.060059756 0.16015084 0.09567873 -0.2241269 0.07947252 -0.080764405
0.2614223 0.23821469 -0.018199502 -0.20332514 0.3020348 0.1362288 0.07863196 -0.09612711
0.13916104 0.019165948 0.25679326 0.1424668 0.07364735 0.1292772 -0.001940747 0.065541945
-0.25250232 0.14300458 -0.012624994 -0.12221867 -0.06148712 0.045433786 -0.010767367 -0.010805812
0.16695942 0.020019328 0.051424727 -0.12148152 0.09773423 -0.42891347 0.18940938 0.040275577
0.042172343 0.24159443 -0.0059250444 0.14390995 0.078273326 -0.14949538 -0.22843377 0.14150758
0.13198242 -0.21282348 0.08977625 -0.046928268 0.13034211 0.056168377 0.12896101 -0.14112109
-0.052719865 0.25679535 0.09976247 0.12879287 0.006185867 0.071992174 -0.07263169 0.18346167
0.11782753 0.1711788 -0.047395654 -0.004578355 0.03194421 0.023192227 -0.0934163 0.14007914
0.03188519 0.1512238 0.09658747 0.06145914 0.018328758 0.09651409 0.03440517 0.12685053
-0.03099693 -0.008411598 0.066616155 -0.0009885266 0.004348484 -0.0937464 0.052768946 -0.051687013
0.20185186 -0.13772967 -0.09355105 0.13537571 0.005909596 0.10863394 0.18415426 0.06597732
0.11097837 0.024686638 -0.14448681 0.09606676 0.096013665 0.10280805 0.10168388 0.09448107
0.08422124 -0.44271323 -0.05015482 -0.15406354 0.043005913 0.106989376 0.4201675 0.08716315
0.11961572 0.055707045 -0.10567248 0.12898704 0.06927422 -0.20197433 -0.052573275 0.13237333
0.06299172 -0.0549627 -0.026354045 -0.006674262 0.11726237 -0.08188481 0.024806483 -0.12939021
0.115387 -0.104522236 0.088302016 0.12543635 -0.008225616 -0.18889849 0.17982097 0.022131274
0.09300122 0.10998161 -0.004002542 -0.14478259 0.13952118 -0.0887007 -0.10542147 -0.18092225
9.477375e-05 0.092375584 0.18435343 -0.0036454822 -0.00071277464 0.20303786 0.18787207 0.015388992
-0.19683887 -0.05061034 0.15913497 -0.076767966 0.021183109 0.04175359 8.0472106e-05 0.0032293594
0.013972471 0.07369124 0.11284138 -0.20517835 0.03432926 -0.45653743 0.1631092 0.06496452
0.039326493 0.36616886 -0.007999749 0.2648433 0.077786386 -0.10210044 -0.18493767 -0.085350946
-0.070513204 -0.19757177 0.16606419 0.052954327 0.04303388 0.091374665 0.21994771 -0.054601483

fc3.bias f4 [64]
00000000: 1f98 f8bc 5d52 8b3d 37be 6d3c bd13 5b3c
00000010: 6383 a13d 2aa2 283e 88cd 013e 55ee d2bb
00000020: ce09 b3bc 5060 083e 9b00 0f3c 9435 64bd
00000030: d3cc 37bc 581b 2f3d 38fa c83d 5633 61bc
00000040: a08f e83d 959e 173e 00bb 853c 4d81 cb3d
00000050: 38f0 bd3d 40ec 503e 21d8 753d a162 6bbd
00000060: 4c83 1e39 7fb1 fdbc 8683 923c a51b 533d
00000070: 3de8 d03c 43e9 893d b125 7dbd 04b7 303e
00000080: 1f13 76bd 2607 723d f221 bc3d 0e4e 683c
00000090: 3a00 453e 069b 2e3e 1f87 793b 5201 a23d
000000a0: e27a 5cbd 3c2a 253d b18e ef3d 5c5d 8f3d
000000b0: 2e85 99bd d35a 143e 1de7 6ebb f6a5 e43d
000000c0: 5bea 0e3e 3a7a 533d 9fad b2bc 3727 d2bd
000000d0: 9ebe ae3d 77e2 713d e6ec bdbd 2563 e3bd
000000e0: 8210 b9bd bc64 e43c b194 d83d 1024 e43d
000000f0: 4d2a 8fba 7cef 023e 3537 173d f509 3abc
-0.030345974 0.06802819 0.014510683 0.013371405 0.07886388 0.1646811 0.1267606 -0.006437103
-0.021855261 0.1331799 0.008728172 -0.05571516 -0.0112182675 0.042750686 0.098133504 -0.01374515
0.11355519 0.14806588 0.01632452 0.099367715 0.09274334 0.20402622 0.06002057 -0.057467107
0.00015116966 -0.030968426 0.01788498 0.051540036 0.025501365 0.06733944 -0.061803523 0.17257315
-0.06007683 0.05908885 0.09186162 0.014178766 0.19238368 0.17051324 0.0038074923 0.07910408
-0.053828128 0.04032348 0.11697138 0.07000229 -0.07496105 0.14487772 -0.0036453672 0.11164467
0.13956587 0.051630236 -0.021811305 -0.10261386 0.08532451 0.059053864 -0.092737004 -0.11102895
-0.09036352 0.027880065 0.10575236 0.11139691 -0.0010922641 0.12786669 0.036917884 -0.011354913

fc4.weight f4 [2, 64]
00000000: 7386 85bf a393 043e 929e 02be f4eb 783e
00000010: a2bf 1e3e 3389 ab3d 0088 3f3e c6e3 fcbd
00000020: f39f 863d e2a3 403e 1a47 6bbe 4420 4d3e
00000030: a348 483e 4eda 723d cff0 133e 6cf1 2ebe
00000040: 6a2c 433e 2ec5 fcbd 3fb5 61be c12d 47be
00000050: 535c d83c a71d f23d d681 7abf 3161 31be
00000060: 74f1 333e 25a0 02bd e60f c3be 8b24 133e
00000070: a5ea 56be 11ff 043d db72 14be 9a28 a9be
00000080: 9f64 d3bd 9bc4 acbd e0b1 3fbe 7e8a c1be
00000090: d558 01be ce47 163d 7d66 a5bd 48e8 a73d
000000a0: 686e fcbd b216 8ebd d8ad 603e 2bec 07be
000000b0: cc98 003e 3718 853d f9d3 afbd 8073 4d3e
000000c0: d797 113e 7630 543e ee82 813e e03b 733e
000000d0: ddd2 483e 0568 3f3d cf15 29be 3758 78bd
000000e0: 20de 4dbf 120e 1cbe 7ea2 65be fb7b 14be
000000f0: 958a 5abe fbea 2b3e 50f1 90be 8341 21be
00000100: 7e80 2d3e 5e87 903d 78bb 8e3d a4f6 103d
00000110: c8e3 97be a104 6dbe f516 19be 97c9 d53c
00000120: dcfe 81be 679d 6e3d ea8a ef3d 3b47 3cbe
00000130: 5bd0 12be 8844 3e3e 52b9 373e 83c6 c03d
00000140: 72e9 4c3e d4e3 a1be 6005 abbc 7875 383e
00000150: 0290 6e3e 92b2 1bbf 7fd0 1fbe 3632 8d3d
00000160: c2c1 1c3e a570 0dbf 0327 3dbe cd5f 103e
00000170: 5848 b3be 13af 523d bcb3 0a3e 05e0 3abd
00000180: 7cbb f83c 7ba8 4e3d df2b 18bc 7770 00be
00000190: 4f87 77be 9e3b bdbe dd8a c13d a34f e93d
000001a0: c93a 7c3d 0a2f 373d f77a b6bd 7bdb 5a3d
000001b0: 2f5e 95be 9114 aabe 680a 343e 7f0f d93e
000001c0: 1379 1b3d 823d c83d a6a7 46be b307 dd3e
000001d0: 53d3 14be 9de9 6a3e 06d9 0c3e ecaa 8b3b
000001e0: 797d ffbc 8982 97bd 9c98 6ebe 7a41 05bc
000001f0: 682c 3c3d 6e17 5a3d 06e8 58be 0246 ccbd
-1.0431656 0.12946944 -0.12755802 0.24308759 0.1550279 0.08375778 0.18704224 -0.12348132
0.06573477 0.18812516 -0.22976342 0.2003184 0.19558959 0.059290223 0.1444733 -0.17084283
0.19059911 -0.123422965 -0.22041796 -0.19451047 0.026411211 0.11822062 -0.97854364 -0.17322232
0.17572576 -0.031891007 -0.38098067 0.14369409 -0.20987947 0.032469813 -0.14496939 -0.3303879
-0.10321926 -0.08435937 -0.18720198 -0.37800974 -0.12631543 0.036689572 -0.08076189 0.08198601
-0.12325746 -0.069379225 0.21941316 -0.13273685 0.12558287 0.06498759 -0.085853525 0.20063591
0.14218079 0.20721611 0.25295204 0.23753309 0.19611688 0.04673006 -0.16512226 -0.060631003
-0.8041706 -0.15239742 -0.22425267 -0.1450042 -0.21341927 0.16788857 -0.28309107 -0.15747647
0.16943547 0.07057069 0.069693506 0.035391465 -0.2966597 -0.23146297 -0.14950164 0.026097102
-0.25389755 0.05825558 0.11696418 -0.18386547 -0.14337294 0.1858083 0.17941788 0.09412863
0.20010927 -0.31619132 -0.020876586 0.18013561 0.23297122 -0.6081935 -0.15606879 0.068943426
0.15308288 -0.55250007 -0.18471913 0.14099045 -0.3501613 0.051436495 0.13545126 -0.045623798
0.030362837 0.050453644 -0.009287803 -0.12542902 -0.2417271 -0.36959547 0.09450314 0.113921426
0.0615795 0.044722594 -0.089101724 0.05343197 -0.2917342 -0.33218816 0.17582095 0.42394635
0.037957262 0.09777357 -0.1939989 0.43169937 -0.14533739 0.22940679 0.13754663 0.004262319
-0.03118776 -0.073979445 -0.23300403 -0.008133287 0.045940787 0.053245 -0.2118226 -0.099742904

fc4.bias f4 [2]
00000000: 2f94 b13b 1b8a b83c
0.005419276 0.022526791

bn_s.weight f4 [24]
00000000: a58c 4a3f 8980 093f a3ea f73e 2289 3b3f
00000010: fc24 a93f 0e17 5b3f 4799 153f b46d 443f
00000020: b1eb 203f e533 543f e60a 363f 5dde 463f
00000030: 2351 763f bc9c 313f b688 1f3f faeb 153f
00000040: d4af 6a3f a8b3 2b3f f209 1c3f 295d 793f
00000050: f8b4 b53f 5901 8a3f c11f 3a3f 987d 6e3f
0.79120857 0.53711754 0.484212 0.73256123 1.3214412 0.85582054 0.5843701 0.76729894
0.62859637 0.82891685 0.7111038 0.7768305 0.96217555 0.6937978 0.6231798 0.58563197
0.9167454 0.6707101 0.60952675 0.97407776 1.4195852 1.0781661 0.727047 0.9316039

bn_s.bias f4 [24]
00000000: 6396 1c3d 3041 23bc 8379 ecbc 81de 34be
00000010: 5834 c53d 2032 52bd 2cfe b33d 3a4a c9be
00000020: 7ff4 4d3e a114 2ebe 12ca 3e3d 1c0b 80be
00000030: 9f15 3a3e ec30 f9bd 786f 923c a2ad 4fbe
00000040: 54d8 3dbd a85b fc3c 9ecb 3cbe 8e5c ebbd
00000050: c6c5 8b3d 98c1 a43c 7c81 813d 275b 2ebe
0.038229357 -0.009964272 -0.028866535 -0.17663004 0.096291244 -0.051317334 0.08788714 -0.39314443
0.20112799 -0.17000057 0.046579428 -0.25008476 0.1817231 -0.12167534 0.017875418 -0.2028108
-0.046348885 0.030805424 -0.18437049 -0.11492263 0.06824832 0.020111844 0.06323525 -0.1702696

bn_s.running_mean f4 [24]
00000000: 1558 0cc1 d33d 3dbe 8a4b 893f 60d4 873d
00000010: ecbb 4fbd 2b0d 7440 8a4b 893f 60d4 873d
00000020: c077 0ec1 e002 49be 7c92 723f 339d 7f3d
00000030: 2826 05bd 9582 7440 7c92 723f 339d 7f3d
00000040: cd8f 10c1 6741 4cbe 781b 363f 9796 b63d
00000050: 57f7 1ebd c5e6 7240 781b 363f 9796 b63d
-8.771504 -0.18480615 1.0726178 0.06632304 -0.050716326 3.8133037 1.0726178 0.06632304
-8.904236 -0.19630003 0.9475477 0.062405776 -0.03250709 3.82047 0.9475477 0.062405776
-9.035108 -0.19946824 0.71135664 0.089154415 -0.0388101 3.795335 0.71135664 0.089154415

bn_s.running_var f4 [24]
00000000: 639b 0e41 7c70 493f 0065 5943 fb41 8741
00000010: d900 ed41 8f71 2e40 0065 5943 fb41 8741
00000020: 1ea2 f540 a9b2 4e3f 5f03 5743 7366 8841
00000030: b57d f641 a4e5 2f40 5f03 5743 7366 8841
00000040: 3e93 d640 0b24 513f fc5c 6043 46c0 8a41
00000050: e0c4 ff41 515d 3a40 fc5c 6043 46c0 8a41
8.912936 0.7868726 217.39453 16.907217 29.625414 2.725681 217.39453 16.907217
7.6760397 0.80741364 215.01317 17.050024 30.81138 2.7483912 215.01317 17.050024
6.705474 0.8169562 224.36322 17.343884 31.97113 2.9119456 224.36322 17.343884

bn_so.weight f4 [24]
00000000: 40c6 5e3f ee18 043f 4e69 443f 0081 213f
00000010: 60bb a13f f583 773f 5af2 3c3f a71d 363f
00000020: e0a7 183f 82cb 183f e9dc 4d3f bef6 413f
00000030: 592a bb3f f405 303f b265 2d3f bba6 193f
00000040: e33b 5d3f 43af 543f 40c2 1f3f d173 213f
00000050: b42e dc3f ae49 8d3f 904e 353f fb18 483f
0.87021255 0.5160054 0.7672318 0.63087463 1.2635307 0.96685725 0.738073 0.71138996
0.59631157 0.5968553 0.8041521 0.75767124 1.4622298 0.68759084 0.677333 0.60020036
0.86419505 0.8307993 0.62405777 0.63067347 1.7201753 1.103811 0.70823 0.7816312

bn_so.bias f4 [24]
00000000: 0cdd 493d d7ad 703e 514d 7dbd 4d54 043c
00000010: f277 83be d2a4 bcbd 9e49 2f3d 956f 183e
00000020: cbd2 97be ee99 473e 963b 0f3e 0ade 173c
00000030: 5e84 c4bc 9486 123e 77b0 9cbc 073f 303d
00000040: 88db 36bd 9d2a f93c ef24 1e3e 2c46 943d
00000050: c50e 3dbc f7e2 cabd c81e 313d feea d5bc
0.049283072 0.23503815 -0.061841313 0.0080767395 -0.2567745 -0.092111245 0.042794816 0.14886315
-0.2965301 0.19492313 0.13987574 0.009269247 -0.023988899 0.1430915 -0.019127114 0.043028858
-0.044642955 0.030415827 0.15443777 0.07239947 -0.011539166 -0.09906571 0.043242246 -0.02611303

bn_so.running_mean f4 [24]
00000000: 17d3 0cc1 a1f8 22be 874b 883f 3653 9c3c
00000010: ecbb 4f3d 2b0d 7440 874b 883f 3653 9c3c
00000020: 64a9 0ec1 13e3 36be dfd7 913f 0449 11bd
00000030: 2826 053d 9582 7440 dfd7 913f 0449 11bd
00000040: fb1f 10c1 f1f2 43be db0e 843f fa0c 0e3c
00000050: 57f7 1e3d c5e6 7240 db0e 843f fa0c 0e3c
-8.801536 -0.15915157 1.0648049 0.019082647 0.050716326 3.8133037 1.0648049 0.019082647
-8.916355 -0.1786006 1.1394004 -0.035470024 0.03250709 3.82047 1.1394004 -0.035470024
-9.007808 -0.19135644 1.0317034 0.008670086 0.0388101 3.795335 1.0317034 0.008670086

bn_so.running_var f4 [24]
00000000: 7cf1 0a41 d522 473f de0c 5643 7725 8541
00000010: d900 ed41 8f71 2e40 de0c 5643 7725 8541
00000020: 2497 f240 f22c 4e3f 7e1c 5643 ac84 8641
00000030: b57d f641 a4e5 2f40 7e1c 5643 ac84 8641
00000040: a548 d640 d224 523f 251e 6143 aae7 8841
00000050: e0c4 ff41 515d 3a40 251e 6143 aae7 8841
8.683956 0.77787524 214.05026 16.643293 29.625414 2.725681 214.05026 16.643293
7.58095 0.8053733 214.1113 16.814781 30.81138 2.7483912 214.1113 16.814781
6.6963677 0.82087433 225.11775 17.113117 31.97113 2.9119456 225.11775 17.113117

fcState.weight f4 [64, 24]
00000000: 58cf 853e c793 65bc 42e1 31bd a886 5b3e
00000010: 057d cebe 61df b23d 7777 b9bd 7573 9e3e
00000020: bffe 9fbc 0b2b ce3d 51e8 103e 3fd9 193e
00000030: ad27 ffbd 7afc 953c de3e 813d aad7 de3d
00000040: 2f19 493d b7aa c13d 1fde 383e 1e55 393e
00000050: 390c 3fbe 6018 dabc 763a febd fa17 8f3d
00000060: 8141 b6bb eebd 293e 2d05 1d3d a350 043e
00000070: 8dd8 14be 8f56 e23d 6eee 5cbd c605 7b3e
00000080: deb3 423e b7e8 ff3b 0ce0 50be c516 10bd
00000090: e57f 153e ebb6 70bc 8bf8 8e3d d4fd 10bd
000000a0: 87c8 ba3e 0e22 933c 75f8 d03e bbd9 dcbe
000000b0: 9821 4ebe 6a06 8b3e 82ba b83d 7499 b4be
000000c0: 446a ddbd c99d 1ebd 77b9 8dbe 52e2 9cbd
000000d0: 48a8 9a3e b72d 28be 0557 b13d 20e0 543e
000000e0: d9fb b33d 6984 0bbe 88f1 4e3d b87e e13d
000000f0: a46d 9dbd e38a 763e b4c5 223d e4fd 5d3e
00000100: ac46 b7bd 219c 11bd 5a7c ed3d c61c 203d
00000110: d368 c6be ab65 483d 0a35 463e 1710 e2bc
00000120: eefe 483d dd2c ae3c d04d 09bd 9f47 8b3d
00000130: 1f6e 763c 4cfa 5a3e 7c00 aabe 7389 3b3e
00000140: a169 f3bd c456 d6bd d076 42bd bb4d 9fbd
00000150: 2de9 713d 263e 16be 08de 72be d83f c93d
00000160: 2b73 ccbd 756e bc3d cfef 81bd e945 67be
00000170: fd16 31bd bf43 81bd 0f61 bfbe 3734 16be
00000180: 4dbd 9dbc 6774 afbc 3512 443c 9731 23be
00000190: a117 883e f770 6fbd dddd 4c3e f777 dcbc
000001a0: bb0d 20be c0f5 6cbe f0ed 663e b010 1d3d
000001b0: 9d38 853e 53ee 453e 9476 d53d 5ebe 393e
000001c0: 72d3 d83d f0f0 04be c188 2e3e 90ac ea3d
000001d0: 74e2 c63e 46bd f23e ab0d 21bd b534 37be
000001e0: 2a16 a83d f930 993d e773 973e 65f7 17be
000001f0: c128 f43e ba34 27be 71c5 bfbd 2426 7fbd
00000200: 6ac1 7d3e 21ee 5e3e 1b2c 65be e3d3 193d
00000210: b22a 9b3e 3a3c 303e 31a3 da3c 9403 0b3e
00000220: 5a14 393e e9ff 6e3d f2df 1dbe 95c3 75bd
00000230: 8725 abbe a206 023e c1ef 1fbe 5279 3e3e
00000240: 171c f5bd 7f7d 96bd 02ac 163e ae4d 153d
00000250: fb00 f53d 1383 083e e265 cb3c aab9 513e
00000260: ad8e 90be a89b fdbc fa80 dbbd 9c26 b4bd
00000270: ffe0 49be 3e13 25bd 9ce1 503e 8d4e 3bbd
00000280: 92e3 bebe bf84 be3c 56af 0b3e 152d 4b3e
00000290: 2edf e2be f177 db3d 7b7e ba3c ded8 203d
000002a0: 6aad 8d3c 08c7 9abd 85dc 203e 19c8 373e
000002b0: bc2f 2ebd 253c 753d e6be d43e 39ab a23e
000002c0: c1eb 023e 683d 483d 76bf 80be b726 273e
000002d0: 8c09 b5bd c9ad 9ebc 07d5 93be 7c8e 3dbd
000002e0: 00cd 0bbe 082c 503e 81a7 06be db97 8b3d
000002f0: fd11 fdbc b821 3abe 8957 db3d c4a0 2a3e
00000300: 57fa 97be 12fb a7bd 6c72 a63d 97d8 bb3d
00000310: ea3d d93d ca2e 623e c6bc 063e 4fb8 d03d
00000320: c4f6 a7bc 0d42 aebe 7319 8f3e 473a 51be
00000330: eb3e 573e da74 01bd 9670 b73d 7e2a 09be
00000340: ede0 c53d bc30 51bd 97dd 443e b91d 983d
00000350: d762 b9bd ca15 6d3d 641e a73e 9fc7 3a3e
00000360: f297 3e3e 564a 80be 5e74 95bd fa1d 5b3e
00000370: 6453 b03c 75ac 463e bba5 36be f18d 93bd
00000380: c001 40bd a880 6dbe 3653 53be 5bd7 433e
00000390: 3033 323e 2040 473e 1d45 4ebe 3c73 f4bd
000003a0: e1d4 333e 5110 86be 91c8 3d3e 4b57 e3bb
000003b0: 1d48 96be f226 1f3e d8bd b13e 777a 52be
000003c0: 1bfc e3bd 3ee6 9b3d d5e6 083d 583d d2bd
000003d0: b37c 02be 4e7c 083e e663 58be 10fa 83be
000003e0: ae3a e7bd 1642 843e a6eb 863d 90c3 4ebe
000003f0: c168 cdbd 0c58 643d 65ae a6bd 94a7 67be
0.26134753 -0.014012284 -0.043427713 0.21438086 -0.40329757 0.087340124 -0.09055989 0.30947462
-0.019530652 0.100668035 0.14151122 0.15024279 -0.124587394 0.018308867 0.06310819 0.108809784
0.049096283 0.094563894 0.18053482 0.18098876 -0.18657006 -0.026622951 -0.12413494 0.06986995
-0.005562008 0.16576359 0.038335014 0.12921385 -0.14535733 0.11051666 -0.05393832 0.24513921
0.19013926 0.007809724 -0.20397967 -0.035177965 0.14599569 -0.014692049 0.069809996 -0.03539832
0.36481115 0.017960574 0.40814558 -0.43134865 -0.20130002 0.2715333 0.090199485 -0.35273325
-0.10811284 -0.038724694 -0.2768056 -0.07660355 0.30206513 -0.16423689 0.08659176 0.20788622
0.087882705 -0.13624729 0.05052331 0.11010498 -0.07686928 0.24076419 0.039739326 0.21678883
-0.089490265 -0.035549287 0.11595984 0.03908994 -0.3875185 0.048925083 0.1935617 -0.027595563
0.049071245 0.021261627 -0.033521473 0.0680077 0.015040903 0.21384543 -0.33203495 0.18314151
-0.118853815 -0.10465768 -0.04747659 -0.07778498 0.059060264 -0.14672145 -0.2371751 0.0982663
-0.09982904 0.092007555 -0.06344568 -0.22585262 -0.043234814 -0.0631175 -0.37378737 -0.14668356
-0.019255305 -0.02141781 0.0119672315 -0.15936886 0.26580527 -0.05845734 0.20006509 -0.026912672
-0.15630238 -0.23140621 0.22551703 0.038345993 0.26019755 0.19329195 0.104230076 0.18139026
0.10587205 -0.12982535 0.17044355 0.11458695 0.38844645 0.4741003 -0.039319675 -0.178912
0.082073525 0.07480044 0.29580614 -0.14840467 0.47687343 -0.16328707 -0.09363831 -0.062292233
0.24780813 0.21770526 -0.22380106 0.037555587 0.3030601 0.17210475 0.026689144 0.13575584
0.1807417 0.058349524 -0.1541746 -0.060000975 -0.3342707 0.12697843 -0.15618803 0.18600968
-0.11968248 -0.07348155 0.14714053 0.036451034 0.11963078 0.13331251 0.024828855 0.20480981
-0.28233853 -0.030958012 -0.1071796 -0.08796427 -0.19714735 -0.040301554 0.20398563 -0.04572921
-0.37282997 0.023256658 0.13641104 0.19841416 -0.44310898 0.107162364 0.022765389 0.03926932
0.017294604 -0.075574934 0.15709122 0.17947425 -0.04252599 0.05987181 0.41551894 0.31771258
0.12785245 0.048886687 -0.25146073 0.16323362 -0.088397115 -0.019369977 -0.28873464 -0.04627846
-0.1365242 0.20329297 -0.13149835 0.068160735 -0.030892367 -0.18176925 0.107100554 0.1666289
-0.29683182 -0.08202185 0.08127293 0.091721706 0.10607512 0.22088161 0.13157949 0.10191404
-0.02050341 -0.34034768 0.27949104 -0.20432387 0.21020095 -0.03160558 0.08957021 -0.13395116
0.09662042 -0.051071867 0.19225155 0.07427544 -0.09052055 0.057882108 0.32640374 0.18240212
0.1861265 -0.25056714 -0.07297586 0.21398154 0.021524139 0.19401725 -0.17836659 -0.072048075
-0.04687667 -0.2319361 -0.20637211 0.1912512 0.17402339 0.19458055 -0.20143552 -0.11936042
0.17561676 -0.26184323 0.18533541 -0.0069378964 -0.29351893 0.155422 0.34715152 -0.20554529
-0.1113207 0.076122746 0.033423264 -0.10265607 -0.12742881 0.13328668 -0.21131858 -0.2577672
-0.11290489 0.2583167 0.06587915 -0.20191789 -0.10029746 0.05574803 -0.08138732 -0.2262252

fcState.bias f4 [64]
00000000: ecf0 d2be af20 24be c28c c13c f375 f3bd
00000010: 2e86 2c3d c205 7c3d 166f 4ebe fd03 4cbe
00000020: 1529 28be 4b06 79bd 8d86 96bd da68 02bf
00000030: 3343 bebd b7bb 07bd 4a74 41be 0930 2abe
00000040: 9fc6 12be 4004 bf3d 9709 adbb a5d0 e1be
00000050: dbfd cebe 2a6c 4dbe 21c7 0b3e c480 20bf
00000060: 1730 61be 77aa 2ebe 00a4 8bbd ec5b 8dbd
00000070: c286 abbe d08b 32be ddae 03be 4b52 99bd
00000080: 2f20 113b 558a 5cbe d69b b5be 0539 0bbf
00000090: a5d1 f3bd f12e a8be 48e5 06bd cc48 1e3e
000000a0: fd2e b4be f13f 6fbe 9ecb bbbd e475 083d
000000b0: 14e5 eb3c 1d8b 3c3e 249a d13d 5fd1 51be
000000c0: 5ef6 e73c 4427 943d 0c4f b6be d471 12bf
000000d0: e6ed 95bd 1b55 20be 5800 123d b6fe fcbd
000000e0: 54fd 85bd d5db 5dbe a3ea 24be eb0a 53be
000000f0: 80a4 6ebe b3c9 8dbb dd3c 263e 29c7 26be
-0.41199434 -0.16028093 0.023626689 -0.118877314 0.04212015 0.06152893 -0.20159563 -0.19923396
-0.16421922 -0.060797017 -0.07349882 -0.5094124 -0.09290161 -0.033138003 -0.18892017 -0.16619886
-0.1433358 0.093269825 -0.005280684 -0.44104496 -0.4042805 -0.20060793 0.1365018 -0.6269648
-0.21991001 -0.17057215 -0.0681839 -0.06902298 -0.3350125 -0.17436147 -0.12859674 -0.07486399
0.0022144427 -0.21537144 -0.35470456 -0.5438388 -0.11905221 -0.32848313 -0.032933503 0.15457457
-0.351921 -0.23364235 -0.09169696 0.033315554 0.028795756 0.18412443 0.10234478 -0.20490025
0.02831572 0.07234052 -0.35607183 -0.5720494 -0.07320766 -0.15657465 0.03564486 -0.1235327
-0.06542459 -0.2166589 -0.16105132 -0.20609634 -0.2330494 -0.004327023 0.16234155 -0.16286911

fcAction.weight f4 [16, 2]
00000000: 334c 6cbe 4f1e 5cbe 50d1 00bf 0ff9 983e
00000010: eeb3 073f 9fc6 87bf f10d 193f 6d6e e13e
00000020: d0d5 25bf f53d 52bd 5225 3f3f 1074 2fbf
00000030: 38df e2bd 1c74 f8be 93ee e93e 9859 06be
00000040: 2843 d43e 1af9 093f 6aee 48be 900a 18bf
00000050: cc49 2f3d 92d4 66be 7910 cd3d b479 eb3e
00000060: e4e8 18bf 79f5 48bf a5fc a33e ee4e d93e
00000070: 234d 273f 2254 d73e f73d 3b3f df12 87bf
-0.23075943 -0.21495937 -0.50319386 0.29877517 0.53008926 -1.0607489 0.597869 0.4402956
-0.64779377 -0.051328618 0.7466632 -0.6853647 -0.11077732 -0.48526084 0.4568983 -0.13120115
0.41457486 0.53895724 -0.19622198 -0.5939112 0.042794988 -0.22542027 0.100129075 0.4599129
-0.5973036 -0.7849956 0.3202869 0.4244303 0.65352076 0.42056376 0.73141426 -1.0552634

fcAction.bias f4 [16]
00000000: 1723 983c ed8f 8cbc 5eb3 b7be 2789 da3d
00000010: f66e 8d3d ead2 cd3e 3ec8 2cbf 8fee 043e
00000020: f89f fcbe 250d c23e 55fa 6b3e cab1 27be
00000030: fe35 05bf 915a 18be 42b9 bdbe 2d14 2f3e
0.01857142 -0.017158473 -0.35879034 0.10670691 0.0690593 0.40199977 -0.67493045 0.12981628
-0.49340796 0.37900653 0.23044713 -0.16376415 -0.5203551 -0.14878298 -0.37055403 0.1709754

fcState_o.weight f4 [64, 24]
00000000: b55b f63d 0191 cc3d 0f7f 61be 6f0a 8b3d
00000010: 5ee4 833e 3f4f c1be f48b 3b3b c1d6 a1bd
00000020: dde5 063e 1510 12be d5ad 03be 13df cdbd
00000030: aee8 05be 0f0c 16be 5df5 7c3e c9e3 0fbe
00000040: 8c64 ab3d 322a 5d3d 1636 0fbe 9f54 81bd
00000050: cb21 13be ef3a 933e 9a59 4abe b6fd 0ebd
00000060: 6d6f 25be 28ba 1cbe c53a e23d f8b3 903c
00000070: 6a99 293e 645e 213e 85c8 4dbc 894b b33d
00000080: 0c15 28bc 0d0f 613d d049 b43d 04c6 4b3e
00000090: 148f 0fbf 0f37 1d3e 4607 39bd 000f 2fbe
000000a0: f783 b5ba bdba a6bd ff7f 06bd 7c37 ff3d
000000b0: 7aba 69bf a874 093d e0d9 2cbd 2ca2 eebc
000000c0: aa76 6b3c 3fae 01be bff7 88be 3cb7 533d
000000d0: 5922 adbe 29c4 6bbe 3df4 c63d 43ab ffbd
000000e0: 2c31 fbbd f645 1b3e 6d8e 4b3e bd0b 05be
000000f0: a5df b6bc 4f85 8d3d 4c63 0c3d 37ea 73bd
00000100: 1e90 e73d d8bb 0b3e 595c 85bc 7838 aebd
00000110: 6d29 d03e e4eb 163e 2d45 2e3e ba28 343e
00000120: 710e 913d 74d2 243e 76bd 823e b231 c0bd
00000130: 7e47 99bd a8b4 563e 6568 973b 2bb7 dcbc
00000140: 048d 0b3d f4cb 8dbd 85b1 5ebd e901 b13d
00000150: a36e 48be fbe0 443d b0f9 183e 14ed f5bd
00000160: 3c7a 843d 7124 86be 0c45 113e c4ba 1ebe
00000170: c33b 54bd 91c5 dcbe 161d 23be 52d7 4f3e
00000180: c580 45be fee9 5bbc 8abd 54be 877f 8e3e
00000190: 1110 0f3e f520 e43b 1d54 a8be d09b 823b
000001a0: a407 053e afb0 053e a6a3 633e 96f2 59be
000001b0: 68d5 35be 90b5 22bd 9ca0 6f3d cfee a63d
000001c0: e91d a9bd 8e17 cebc 9bdf 95be 4aae be3e
000001d0: 3ae9 ebbd b606 66be e790 9dbe d8b9 803e
000001e0: 8e70 bd3d 4557 3c3e daf9 133e 0266 fbbb
000001f0: 381e 833d 5c24 0e3e f994 f9bd 2410 2abe
00000200: 65f7 7f3e a7a1 9bbd 0ec9 163e 99f9 273d
00000210: 950b 183e d364 813c 2448 cbbd cccf 1a3e
00000220: f5f6 813e 3d7d 2dbe fef2 c2bd 6677 b3bd
00000230: 4e8f 3a3e 3765 083e f906 bcbd 05e3 c33d
00000240: 41ac 71be 428a 0b3e 8666 f43d 2851 0a3e
00000250: 3f69 f8be 963a 053e efcd 853e e9e6 833c
00000260: 327b 483e 4fbf e33d 8fdb 2ebe 70b9 893e
00000270: 997d 9ebe 582e 073e be72 d2bd db55 4e3e
00000280: 27b9 993d 5724 e23d 160c 443d 0fbb 113e
00000290: fa37 033f 4e20 19be ee8a 923e 5ade cbbd
000002a0: 33e3 54be a7cb 953c 8d35 9f3d f3b5 093e
000002b0: 6e37 71be ed8f bbbd 8903 87be dc9c fa3d
000002c0: f32e 043e 6682 0c3e 2fed 95be c6da 953e
000002d0: 8877 ab3d 6949 b3be c008 dabc 0218 b83d
000002e0: 6080 38bd 8330 f93e bc50 80bd 341b b33d
000002f0: 2d2c a13d f2be 57bd 6f13 933d f299 6f3d
00000300: eebe 2b3e 7200 f5bd 5977 45bd 9fe7 97bd
00000310: 720a 823d ccfd 9e3e 1aeb 80be 85b9 36bd
00000320: fc51 07bd db58 543e ddac 513e 2c74 0dbe
00000330: d7e0 2e3e ef44 f13d 773a e5bd 6afd 4c3d
00000340: b9b5 5b3e dcc3 d6bb e3e1 8b3e e1cb 8cbd
00000350: 9260 41be 42de 233e ea29 31bd aaa5 80be
00000360: d991 0c3e 963f 28bd fda7 cdbd 0b94 39be
00000370: c294 773e 9c65 4fbe 3738 56be 2e7f 83be
00000380: 9b73 9cbe b43a 213c b446 dc3d 5914 713e
00000390: 32eb 823e 0a45 42bd fcab c53e bae8 bdbc
000003a0: 2143 eabd 8c92 f53d 82ad 98bd 759f 9cbd
000003b0: 22e3 30be 44f4 393d 01c1 2bbe af03 21be
000003c0: ec9d aebe e5d9 53ba bc80 83be 5579 57be
000003d0: 0476 05bc 559c fb3d 5599 83be 8ed1 72bc
000003e0: a2a9 22bd 7a72 11be 24fb dabe 8f98 e33d
000003f0: 4102 5f3d 4567 84bd b577 06be 4e65 cf3d
0.120292105 0.09988595 -0.22021125 0.067890994 0.25760168 -0.37755772 0.0028617354 -0.07902289
0.13173623 -0.14263947 -0.1285928 -0.10052314 -0.13077042 -0.14653037 0.24702974 -0.14051737
0.08368787 0.05399532 -0.13985476 -0.06314968 -0.1436836 0.287559 -0.19760743 -0.034909926
-0.16155787 -0.15305388 0.11046366 0.01766394 0.16562429 0.15758663 -0.012560015 0.087546416
-0.010258924 0.054945994 0.08803141 0.19899756 -0.56077695 0.15353034 -0.045172952 -0.17095566
-0.0013848533 -0.08141086 -0.03283691 0.12461755 -0.91300166 0.033558518 -0.04219997 -0.029130064
0.014371553 -0.12664126 -0.26751515 0.051688418 -0.33815268 -0.23024048 0.097145535 -0.124838375
-0.12265238 0.15163407 0.1987855 -0.12992759 -0.022323439 0.06910192 0.034274384 -0.059549537
0.11306785 0.13645875 -0.016279386 -0.08506864 0.40656605 0.14738423 0.17018576 0.17593661
0.070828326 0.16095906 0.25535172 -0.09384479 -0.07484339 0.20967352 0.004620599 -0.02694281
0.03407003 -0.069236666 -0.054368515 0.086429425 -0.19573455 0.04806612 0.14938998 -0.1200811
0.06468627 -0.26199678 0.14186496 -0.15500933 -0.051814806 -0.4311948 -0.15929064 0.20296982
-0.19287403 -0.013422487 -0.20775428 0.2783167 0.13970973 0.0069619366 -0.32876673 0.0039858595
0.12991196 0.1305568 0.22230396 -0.21283945 -0.1775719 -0.039723933 0.05850278 0.08151018
-0.08257658 -0.025157716 -0.2927216 0.37242347 -0.11519094 -0.22463498 -0.30774614 0.25141788
0.09249984 0.18392666 0.1445078 -0.0076720724 0.06402248 0.13881058 -0.121866174 -0.1660772
0.24996717 -0.07599192 0.14725134 0.04100952 0.14848168 0.015795147 -0.09925869 0.1511833
0.25383726 -0.16942306 -0.09519003 -0.08763008 0.18218729 0.1331986 -0.091810174 0.09564785
-0.23600866 0.1362696 0.11933617 0.13507521 -0.48517796 0.1301063 0.26133677 0.016101317
0.19578245 0.111204736 -0.17075942 0.2689929 -0.30955198 0.13201272 -0.102757916 0.20149939
0.07506018 0.110420875 0.04786309 0.14231513 0.5125729 -0.1495373 0.2862162 -0.099545196
-0.20789795 0.018285586 0.07773886 0.13448314 -0.23556301 -0.09158311 -0.26369885 0.1223695
0.12908535 0.13721618 -0.2928252 0.29268473 0.08372408 -0.35016945 -0.0266155 0.08988954
-0.045044303 0.48669824 -0.06265399 0.08745423 0.07869754 -0.052672334 0.07181441 0.058496423
0.16772053 -0.119629756 -0.048209522 -0.07417225 0.063496485 0.31053007 -0.25179368 -0.04461052
-0.03303717 0.2073702 0.20476098 -0.13813847 0.17077957 0.11780726 -0.11192792 0.050046362
0.2145604 -0.00655411 0.27320775 -0.06874824 -0.18884495 0.16002753 -0.043252863 -0.25126392
0.13727511 -0.041076265 -0.10041807 -0.1812288 0.2417784 -0.20253605 -0.20919882 -0.25682968
-0.3055695 0.009840656 0.10755673 0.23542918 0.25570065 -0.047429122 0.38607776 -0.023182262
-0.11438585 0.11990842 -0.07454969 -0.076476015 -0.17274144 0.045398965 -0.16772844 -0.15724061
-0.3410486 -0.000808148 -0.25684154 -0.21042378 -0.008145813 0.12285677 -0.2570292 -0.01482047
-0.039712556 -0.14203826 -0.4276973 0.111130826 0.05444551 -0.064650096 -0.13131602 0.10126744

fcState_o.bias f4 [64]
00000000: 2447 2b3c 652c 58be ca7c 4f3b db74 c6bd
00000010: 586e bcbe 4b8d c5be 8d10 88bd df9c f4bd
00000020: 5a89 b23d 938b f2bd 2737 ccbd 68d7 adbe
00000030: 15b8 35be 37bf 543e 7c18 dbbc 8b69 693c
00000040: c461 9abe 9629 003d a22b 8bbe 322a 3cbe
00000050: 6fa8 8dbe 024d dbbd 5ee4 8b3a 316c 053d
00000060: b698 f4be 62ba 523e 4a61 ffbd 99f6 29be
00000070: 1003 f3be d3f9 88be 1e67 93be 751e 2ebe
00000080: 6632 3abe ebff e43c b77f 0c3d 547b 51be
00000090: a08e 22be fb77 ecbc 971a b8be 7924 afbe
000000a0: d64a d53d 6029 02be 083e c8be 6f4c d5be
000000b0: ad12 02be 23ff 65be 1bf6 a2bd 9a51 a73e
000000c0: de11 babe 06e5 6cbe 0f55 253e 8784 0cbf
000000d0: c0c6 dfbe 7a07 073d a472 a2be 82e9 05bf
000000e0: aba0 b2bd e866 d8be 6d10 01be 7de4 bcbd
000000f0: 8305 02bf 7600 b53d ae44 e5be fe50 32be
0.010453973 -0.21110685 0.0031660073 -0.09690257 -0.36802936 -0.3858436 -0.06643782 -0.11943983
0.08717604 -0.11843028 -0.09971457 -0.33953404 -0.17746003 0.20776068 -0.026745073 0.014246355
-0.30152714 0.03128966 -0.27181727 -0.18375471 -0.27667567 -0.107080474 0.0010672917 0.032573882
-0.4777276 0.20578912 -0.12469728 -0.16597976 -0.47463274 -0.267531 -0.2878961 -0.17003806
-0.18183288 0.027954062 0.034301486 -0.20457202 -0.1587472 -0.028865805 -0.35957786 -0.34207514
0.104146644 -0.12711096 -0.39109826 -0.41659877 -0.12702437 -0.22460608 -0.07957097 0.32679445
-0.36341757 -0.2313424 0.16145729 -0.5488972 -0.43706322 0.032966115 -0.3172809 -0.5230943
-0.08722051 -0.4226601 -0.12603922 -0.09223268 -0.5078966 0.088379785 -0.4477896 -0.17413709

fcAction_o.weight f4 [16, 2]
00000000: 17e4 afbe c65f e4bd 1195 e43d 0377 c4bd
00000010: 8611 58bc 837e 41be 2167 39bf 46ff d33e
00000020: 24be 9c3e 27aa c23d e261 3fbc 3744 ff3d
00000030: 4cd1 793d 84ca 5abe 60e0 513d 103e 613d
00000040: dcb9 643f 3e55 1bbf 9ec4 78bd c937 4dbe
00000050: bbfc 423f acd1 1abf 6d8c dfbe 777e 82be
00000060: 6cc9 b3be fd89 87bf 01f5 2d3f f24f 3b3f
00000070: 0aea bd3e 26e7 76bf b712 eebd bb07 263f
-0.34353706 -0.1115108 0.11161245 -0.09593012 -0.013187772 -0.18895917 -0.7242299 0.41405696
0.30613816 0.0950511 -0.011681052 0.12464183 0.060990617 -0.21366316 0.05123937 0.054990828
0.893461 -0.60676944 -0.060734384 -0.20040812 0.76166886 -0.60476184 -0.43661824 -0.2548711
-0.3511461 -1.0588986 0.6795197 0.7316886 0.3709262 -0.96446455 -0.11624663 0.64855546

fcAction_o.bias f4 [16]
00000000: 4121 003d f683 093e a2fb 0f3e 406f a2be
00000010: e93f 943e e411 f33e 5376 103e d0b6 eebd
00000020: 7409 ec3e 935d 743e 5218 e8be ea65 cbbc
00000030: bca8 8cbe cf4d e23c 4df0 11bf 625d 8cbe
0.031281713 0.13429245 0.14060834 -0.31725502 0.2895501 0.47474587 0.14107637 -0.116559625
0.46100962 0.2386382 -0.45331055 -0.02482887 -0.27472484 0.027624993 -0.57007295 -0.27414995
