MADDPG_agent0_1.pth (torch_old, 791863 bytes, 154 tensors)

bn.weight f4 [24]
00000000: b87b 923f 1ce4 843f d9fb 903f 0a80 863f
00000010: 33c6 933f 4be5 a53f 01ef 6d3f 94fc 923f
00000020: 516e 873f f59f 923f c562 693f 80f9 8e3f
00000030: 8e4f aa3f 6db4 943f 824c 933f 622b 963f
00000040: cdb5 9b3f b68a a23f b93e 8b3f 37eb a73f
00000050: 5929 b63f 1106 a03f c703 8c3f d8d6 9a3f
1.1444006 1.0382113 1.1326858 1.0507824 1.1544861 1.29606 0.92942816 1.1483331
1.0580541 1.1455065 0.91166335 1.1169891 1.3305528 1.1617562 1.1507723 1.1731989
1.2164856 1.2698581 1.0878516 1.3118657 1.4231368 1.2501851 1.0938653 1.2096815

bn.bias f4 [24]
00000000: 44a9 47bd 808d 84be 9976 f73d 78ae 4ebc
00000010: dadb b93d 31ae db3b 634f ba3c b220 8c3e
00000020: 255d 053e 15f0 32bd 2deb 1dbe 5bfb 773d
00000030: 3ed9 fe3c 99a3 b9bd 73cc 1bbe b453 fb3d
00000040: 3d9f 193d 8bb5 d6bc c0df 413e 1ab2 0a3e
00000050: 9870 dcbd 650f 02be a131 cfbd ab45 8b3d
-0.04874541 -0.25889206 0.120831676 -0.012614839 0.090751365 0.006704115 0.022742933 0.27368695
0.13023813 -0.04368599 -0.15421744 0.060542446 0.031109449 -0.09064407 -0.1521471 0.122718245
0.037505377 -0.026209613 0.1893301 0.13544503 -0.10763663 -0.12701185 -0.10116888 0.068003975

bn.running_mean f4 [24]
00000000: 4314 0dc1 95be 21be 37e7 843f c99a bd3d
00000010: d48a d4bd 881d 7440 37e7 843f c99a bd3d
00000020: 74ea 0ec1 a05f 28be 9e24 843f 4793 9b3d
00000030: e99f e3bd d253 7440 9e24 843f 4793 9b3d
00000040: 39ec 10c1 d0ea 2fbe 15ec 5f3f 8cc7 603d
00000050: de9f e9bd 7832 7340 15ec 5f3f 8cc7 603d
-8.817447 -0.15795358 1.0383061 0.092580386 -0.10378042 3.8143024 1.0383061 0.092580386
-8.93224 -0.16442728 1.0323675 0.0759645 -0.11114485 3.817616 1.0323675 0.0759645
-9.057672 -0.17179418 0.8746961 0.054877803 -0.11407445 3.7999554 0.8746961 0.054877803

bn.running_var f4 [24]
00000000: 6116 0a41 82f5 423f a9fc 5543 0d24 8741
00000010: 6d3b ec41 2c89 2d40 a9fc 5543 0d24 8741
00000020: 65e8 f340 1f13 473f 4b79 5543 abd9 8841
00000030: 918a f441 8673 3140 4b79 5543 abd9 8841
00000040: 873e d340 de30 4c3f 0d82 5943 0aa0 8a41
00000050: 2fc4 fd41 7efe 3d40 0d82 5943 0aa0 8a41
8.630464 0.76155865 213.98695 16.892603 29.529016 2.7114973 213.98695 16.892603
7.6221185 0.7776355 213.4738 17.106283 30.56766 2.772676 213.4738 17.106283
6.6013827 0.79762065 217.50801 17.328144 31.720793 2.968658 217.50801 17.328144

fc1.weight f4 [32, 24]
00000000: 1e50 6d3d f36f 5abe e8c9 1bbb 83d2 4f3e
00000010: 66cf b0bd 1c0b 2b3d 90b8 aebc 8774 6a3e
00000020: c9af d93d 4b6b d3bd 8151 753c 4667 493e
00000030: a07e 1b3e 85f5 10be d7fb 3ebd 971e 2a3e
00000040: 4927 b13d adcb 58bd 06bd 173e 6040 293e
00000050: 6f6c 603c 3941 15be dbbe d8bd 2e2d 5e3b
00000060: 31f2 2e3b f74b 43bd 0883 0b3e 555e 183e
00000070: 89a3 85be 8f5c 5c3e 1c7c 683d 318a 803e
00000080: 6fd2 273e 9532 79be 383a afbd b3c2 bc39
00000090: 73a0 5c3d 493e 8b3c dc05 4e3e 3120 7a3b
000000a0: f04d 723e 7661 00be ee7d 103e 8977 b53b
000000b0: 5764 8cbe 0651 233e 9238 07be e999 643d
000000c0: a871 59be 1fc5 f2bb 5ed7 27bc 099d d53d
000000d0: c4f1 00bd 43dd 18be 04c0 bd3e fd93 bb3e
000000e0: 1f72 ebbd fcbd 87bd 921a af3d 1d60 023e
000000f0: 9555 8bbe 7688 16bd 601c c03d bf57 843e
00000100: e9b2 9bbe fb82 683d 60a9 1ebe 9974 5a3e
00000110: 62bb 97be 6b32 aebe 6b49 a1bd 8072 013e
00000120: 011b e4bc 762d f5bc 7d65 563d ffdb 643e
00000130: edf7 26bd 2a47 ca3e 4085 55be df2f 8c3e
00000140: c703 99be 47d2 dbbd 8961 773c 8e92 833d
00000150: 8b5d 0ebc a8f4 883d 0960 32be ba25 823e
00000160: c1a6 22be 2ac5 3d3e 10f1 eb3d 982c c0bd
00000170: 71d4 00be eb6d 153e 6b72 bfbd 95a0 2ebd
00000180: d885 a93d a0d1 c03d 948a 1ebd 791f 89be
00000190: 88e7 ad3e 1628 7d3d fdaa 0a3e a086 c7bd
000001a0: 73ed b1bc f214 2cbe 343c 4d3e 4fcd 4bbe
000001b0: b5d9 853e 8a4d 783e 2050 aa3d d933 5dbd
000001c0: f336 bb3e 1ec2 12be f611 093e 0384 cfbd
000001d0: 6bc8 b13e 12c6 b23e 8c78 9ebd 504d d3be
000001e0: fe82 1fbe ac51 983e 713b 903e d2fa 85be
000001f0: fc2a 283e b81a c3bd 9c14 b4bd eef3 3bbe
00000200: 782f 073e 584d b33e e0d4 8f3d a5e9 17be
00000210: b18e 763e 09de 063e b97f a23e b470 42bd
00000220: d355 80bd a07c 153e 7451 a9bd d523 b9be
00000230: 1b7b 6dbd c2b1 033c dfe9 29bd a4cf d3bd
00000240: 7b9f 333e 59f3 33be fe73 263e 803c 98bd
00000250: 59a4 293e 7e9f 2e3e 7c19 913c 5a89 3d3d
00000260: 1f58 133e 691e 1abe 8cba 20be b5b4 8abe
00000270: 75cc 02bd 3d89 f63b 5e9b 3f3e 955a 58be
00000280: b9b6 ecbd bee4 79be 1990 a7bd 8c6a 17bd
00000290: 493e 61bd 269d 983e 7853 67be db1e 5bbe
000002a0: b6e6 53be cf00 d6bd 2b83 1abd 90a4 ba3d
000002b0: ecc1 ed3d 06b0 4dbe 122d 5b3e 7db3 6d3e
000002c0: 6248 3d3e 2314 b0ba dab7 45be 75d3 3f3d
000002d0: a42e 3e3c 6f0d 6dbe bb23 63be f0cc 10be
000002e0: ce41 01be bfb7 383e 5153 9bbe 191f 3bbe
000002f0: 4081 023e 120b 9fbe ee82 afbd a42c e5bd
00000300: 2f2a 593d 262d a1bc b4f3 023e 6e0e 93be
00000310: 2303 61bd 1a6b c83e ac7f 353e aada 97be
00000320: b105 2b3e bb22 8abe d1db 013e 8b16 66bd
00000330: 0200 35bd 6950 553e 3090 83bd 104a 9c3c
00000340: 7458 9a3e 0164 b8bc e297 e93c 5d33 3d3d
00000350: d01a aabe 4c40 cd3d 545d 323e 57b0 153e
00000360: f057 e53c 2b70 88be 586a 00be 1452 103e
00000370: f2a4 d3bd 4442 983e e3e6 63be 8ef2 3bbe
00000380: d9ee 86bd aaba a7be a123 aabc de86 213e
00000390: a8e6 2c3e 7af4 813e 3149 87bc 49a0 1dbe
000003a0: 42c2 6e3d 75ba 61be 0d3d 6cbd 905c 063d
000003b0: 14e1 18be e2c6 0b3e eb4e 1b3e da62 3abe
000003c0: 7122 19be 7bec ea3d 4ba2 873d baf2 f63c
000003d0: 36f4 70be 1ee4 2b3e 677b 50be 1804 05be
000003e0: febd 1dbe 5445 823e b6ce c23d b503 f7bd
000003f0: 9182 18be e0c2 d83d 2852 7dbd 32d4 25be
0.057937734 -0.21331768 -0.0023771469 0.20295148 -0.08633308 0.04175864 -0.02132824 0.22896014
0.106292315 -0.10323199 0.014973045 0.19668302 0.15185022 -0.14156158 -0.046626892 0.16613232
0.08650071 -0.052928615 0.148182 0.16528463 0.013697728 -0.14575662 -0.10583278 0.003390144
0.002669465 -0.047679868 0.13624203 0.14879735 -0.2610133 0.21519683 0.056758985 0.25105432
0.16388868 -0.24335702 -0.08556026 0.00036003217 0.053863954 0.016997473 0.20119423 0.003816616
0.23662543 -0.12537178 0.14110538 0.0055379313 -0.27420303 0.15948877 -0.13205174 0.055810843
-0.21234763 -0.0074087526 -0.010244219 0.10430343 -0.031480566 -0.14928155 0.3706056 0.36636344
-0.11496376 -0.066280335 0.0854999 0.12731977 -0.2721373 -0.036751233 0.09380412 0.25848195
-0.30409935 0.056765538 -0.15494299 0.21333541 -0.2963515 -0.3402284 -0.078753315 0.12641335
-0.027844908 -0.029928904 0.05234288 0.22349547 -0.040763784 0.3950742 -0.20851612 0.27380273
-0.29885694 -0.107334666 0.015098938 0.064244375 -0.008689295 0.066872895 -0.17419447 0.25419408
-0.15883924 0.18532243 0.115205884 -0.093835056 -0.1258104 0.14592712 -0.09347995 -0.04263361
0.08277482 0.09414983 -0.038706377 -0.26781824 0.33965707 0.061805807 0.1354179 -0.097424746
-0.02171967 -0.16804865 0.20042497 -0.19902538 0.2614266 0.24248329 0.08316064 -0.054004524
0.3656536 -0.14331862 0.13385758 -0.10132601 0.3472322 0.3491674 -0.07737836 -0.41269922
-0.15577313 0.2974981 0.2817035 -0.26167923 0.16422647 -0.095265806 -0.087929934 -0.1835477
0.13201702 0.35019946 0.070230246 -0.14835222 0.2407787 0.13170637 0.3173807 -0.047470763
-0.0626637 0.14598322 -0.08267489 -0.3616015 -0.05797873 0.008037986 -0.041482802 -0.10342339
0.17541306 -0.17573299 0.16255185 -0.074334145 0.165666 0.17053029 0.017712347 0.046273567
0.14389084 -0.15050663 -0.15696162 -0.27090994 -0.031933267 0.0075236843 0.18711612 -0.21128304
-0.11558289 -0.24403664 -0.08181781 -0.036966845 -0.05499104 0.29807395 -0.22590435 -0.21398489
-0.20693478 -0.10449373 -0.037722748 0.09113419 0.11609253 -0.20086679 0.21403912 0.23213
0.18484643 -0.0013433736 -0.19308415 0.04683252 0.0116078 -0.23149656 -0.22181599 -0.14140677
-0.12622759 0.18038844 -0.30337003 -0.18273582 0.12744617 -0.31063133 -0.08569895 -0.11190155
0.053018745 -0.019674849 0.12788278 -0.28721946 -0.054934632 0.39144212 0.17724484 -0.29659015
0.1670139 -0.26979622 0.1268151 -0.056173842 -0.04418946 0.20831455 -0.06423986 0.019078285
0.3014561 -0.022508623 0.028514806 0.046191562 -0.3322358 0.10022029 0.17418414 0.1461805
0.027996033 -0.26648077 -0.12540567 0.1409381 -0.10334195 0.29738057 -0.22256045 -0.18354246
-0.06588525 -0.327596 -0.020768942 0.15774104 0.16884863 0.25381833 -0.016514393 -0.15393175
0.058290727 -0.22043784 -0.05767541 0.03280312 -0.1492961 0.13650087 0.15166824 -0.18201771
-0.14954545 0.11470886 0.06622752 0.030145038 -0.23530659 0.16786239 -0.20359574 -0.12989843
-0.15404508 0.25443518 0.09512083 -0.12061254 -0.14893557 0.105840445 -0.06184593 -0.16194227

fc1.bias f4 [32]
00000000: fc66 d43d 3684 283e 5fb4 18bd faeb af3d
00000010: 34f4 183c 412a 1e3d 2a60 5e3e 037b 813d
00000020: d84e 963d 71c6 9fbd 7d18 06be 4b5c a23d
00000030: 79bb 5bbe ce40 703e f561 453c 72c5 9b3d
00000040: 85c8 92bd f1da 83bd 0355 43bd 9b91 14be
00000050: 180b a63e ee90 613e 5514 b8bd abce dcbd
00000060: 2980 c63d 2940 c93d 0654 4e3e 0724 f33d
00000070: b4dc 903d b5ae 97bd d9a9 af3d 1c25 063d
0.10371205 0.16456684 -0.03728139 0.08589931 0.009335566 0.038614515 0.21716371 0.06322291
0.07339257 -0.078015216 -0.13095279 0.0792776 -0.21458234 0.23462221 0.012047281 0.07606019
-0.07167152 -0.06438244 -0.047688495 -0.14508669 0.3243034 0.22027943 -0.08988253 -0.10781606
0.09692413 0.09826691 0.2014924 0.11872106 0.07073346 -0.074063696 0.08577318 0.032750234

fc2.weight f4 [64, 32]
00000000: b95f c43d da08 f93d 284c 333e a618 2e3e
00000010: 929b 3abe 6163 f3bb 3e0c eebc 3705 493e
00000020: 9e94 9bbe b70c 92be 08d7 c3bd a4a0 45bd
00000030: 7aa4 0e3e 6fc4 61bd 2743 463d 4c87 1d3e
00000040: 1262 103e ccd5 253e 31be 833d 1148 3ebd
00000050: 3b8b 1f3e 020d 2a3e 1a37 56be 5c10 843d
00000060: cba8 623d ec46 1a3d 70af e5bd c2d0 04be
00000070: c787 e6bd 00cd 0dbe ca6c a83d cabb 0e3e
00000080: c2b2 7a3d 3f39 26be bc0d 1b3e 1fd6 133d
00000090: cf24 cb3c 8918 4fbe 1971 983d 4c4f 1b3e
000000a0: c57c b9bc 7c4f eebd 8d1b 14be a5ce ef3d
000000b0: 4866 e33d 257f 2cbe 534a 84bd b338 b23d
000000c0: 6e3c 58bd 8b0d 763e 8510 63be 0275 7bbd
000000d0: eb31 9abd 6f26 9a3d 8d08 a9bc 958d 043e
000000e0: 9959 22be 41b5 dabd 3160 f03c 7d44 30bd
000000f0: 46ce 353e 4b11 263d 42f6 9fbd f2ae 8d3e
00000100: 352a 61be 8fec c73d 8fae 91bd 93ba cfbd
00000110: 8ecf f13d 7e29 2f3e 7646 83be 658e e5bd
00000120: 4b25 053e 9212 94bc bcb6 46bc ec17 b73b
00000130: 62b2 08be 3583 113b 1752 4cbe e3d8 e2bd
00000140: a7f9 6dbd 74ed a43c ed3f e23d ad16 503e
00000150: 8ea6 a83d 1be8 19be 4bc8 593e a6d3 123e
00000160: f6d2 9d3d b4f2 113d 38e2 383e 6de9 0b3e
00000170: 6518 fb3d fa9d da3d a8fa 393d aa69 2a3a
00000180: 6b12 1cbd 0720 653e 0565 33bd a603 653d
00000190: 3d63 61be 64b5 b93c f061 8ebc 5677 0cbe
000001a0: 332c a33d 6005 89bd 983b b9bd 2a0e 3c3d
000001b0: 197b 11bd 8c89 8f3e 0c3c 93bd f867 483d
000001c0: bdd2 8cbb c1d8 4f3e 1fe8 193e 0347 323e
000001d0: efea 173e 17cd 8f3d ddd3 2f3d f9ce 2ebd
000001e0: 4952 963d 8c42 353d 3293 a2bd 0943 e83d
000001f0: 416c 7f3d 9999 17be 7597 cf3d 9ab4 693e
00000200: 7cde 263d e4ad 683e 5f68 e6bc 337a b7bd
00000210: 4d6d c73d 1ac2 feb9 8071 44bd d649 bd3d
00000220: 4276 b83e 049f 0d3e 5a1f cebb 5ee8 1a3d
00000230: e356 e9bd 19a2 273d f875 183e 4a55 513e
00000240: 6a1d 263e 37bf 5d3d 9c39 6fbe b499 843d
00000250: 660e f23c 4cc9 5e3d 6a42 153e 9f9d acbd
00000260: 2849 ce3c 237e 9f3e 4092 12bd e7d8 c43c
00000270: 1108 303e d33b 683e 0746 cd3d e923 b3bd
00000280: f02f 0b3e 6817 c3bd 8ff7 a6bd eaeb afbd
00000290: 7948 1e3e dcd7 7d3e 2bec db3d ca3f 413d
000002a0: ac81 65bc fe06 10be 47c7 533e 6f6e 943d
000002b0: 9049 bebd d292 29be 1afa 60be c8cb 2abe
000002c0: 805f 9ebc db3b 2b3c f34d 843e b686 0b3e
000002d0: d5a8 13be 2845 343e da66 7e3c a3f5 8f3e
000002e0: f4a6 09be 370b 88be 4b0b f1bc a15c 703e
000002f0: 3985 f3bd 767e 9abe 507b a63c 0500 273e
00000300: f9fb f0bc 2ac6 2fbd d414 89be a524 983e
00000310: c1dd e53d 4610 1dbe 8f73 5a3d b79c f53d
00000320: ab62 0e3e f819 873d b089 1abe fd70 3cbe
00000330: 591a 0d3e ef02 ca3d ec33 453d adbd 1abc
00000340: 7c7d 943d 3a0e cbbd c6ed 113e 3c8d c03e
00000350: 14b2 8b3e c689 d83d ae32 c4bd c837 ed3c
00000360: 0206 1d3e 0436 8cbd 988e b33d 2642 f8bd
00000370: 2281 e5bd 6f2f b4bd d068 4d3d bc3b 193d
00000380: 0f66 163d fc32 563e 07a8 713d f607 e5bd
00000390: cc65 b4be 67c8 93be 1e10 fdbc daa2 46be
000003a0: fed6 6b3e 740a 3f3e 930c 98bc 1ca1 493c
000003b0: 047b 18be 6666 09be 0b3d 2ebe 8a4a 143c
000003c0: ecc0 78be 05ec 803e f0cc 4dbe d6aa e83d
000003d0: fbe4 0a3e b83d f03d bea0 123e 9e1f 573d
000003e0: 96fe 473d b437 dc3b 28f3 66bb 636a afbd
000003f0: a9e2 1e3e b7f9 d63d 4e0c e13d d924 0a3e
0.0958857 0.121598914 0.1750952 0.1700159 -0.18223408 -0.0074276184 -0.029058572 0.19630896
-0.30386823 -0.28525326 -0.09562498 -0.048248902 0.1392993 -0.055118974 0.048403885 0.15383643
0.14099911 0.16194838 0.064327605 -0.046455447 0.15580456 0.16606525 -0.20919457 0.06448433
0.055336755 0.037665293 -0.11215103 -0.1297026 -0.11256366 -0.13847733 0.08223875 0.13938823
0.061205633 -0.16232775 0.15141958 0.036092874 0.024797825 -0.20224203 0.07443447 0.15166968
-0.022642503 -0.11636254 -0.14463635 0.11709336 0.11103493 -0.16845377 -0.06459489 0.08702221
-0.052792005 0.24028604 -0.2217427 -0.061390884 -0.07529052 0.07526862 -0.02063396 0.12944634
-0.15854491 -0.10679103 0.029342743 -0.043034066 0.17754468 0.040543836 -0.07810642 0.27672535
-0.21988757 0.09761917 -0.071133725 -0.10143008 0.11807166 0.17105672 -0.25639695 -0.112088
0.13002507 -0.018075261 -0.012128528 0.0055875685 -0.13349298 0.002220345 -0.1995319 -0.11076524
-0.058099415 0.020132758 0.11047349 0.2032115 0.08234893 -0.15029947 0.21267812 0.1433855
0.07706253 0.03563185 0.18055046 0.13663264 0.12260512 0.10674663 0.04540506 0.00065007305
-0.038103502 0.22375499 -0.04379751 0.055911683 -0.22010513 0.022669502 -0.017380685 -0.13717398
0.07967415 -0.06690478 -0.0904457 0.045911945 -0.035517786 0.28034627 -0.071891874 0.048927277
-0.004297583 0.20297529 0.15029953 0.17409901 0.14835714 0.0702154 0.042926658 -0.042677853
0.073399134 0.044252917 -0.079382315 0.11340911 0.0623591 -0.14804687 0.1013631 0.228228
0.04073952 0.22722584 -0.02812594 -0.089588545 0.09737644 -0.00048591272 -0.047959805 0.09242599
0.36027724 0.13830191 -0.0062903585 0.03781926 -0.113935255 0.040926073 0.14888752 0.20442691
0.16222158 0.054137435 -0.2336182 0.06474629 0.029547881 0.05439119 0.14576116 -0.08428501
0.025181368 0.31150922 -0.035784006 0.024029208 0.17190577 0.22679071 0.10023122 -0.08747084
0.13592505 -0.09525949 -0.08152687 -0.08589919 0.15457334 0.24789375 0.10738405 0.047179975
-0.014007967 -0.14065167 0.20681487 0.07247626 -0.09291375 -0.16559914 -0.21970406 -0.16679299
-0.019332647 0.010451282 0.2584072 0.13625607 -0.14419873 0.17604506 0.015527451 0.28117093
-0.13442594 -0.26571056 -0.02942433 0.23472835 -0.118906446 -0.30174607 0.020322472 0.16308601
-0.029417025 -0.042913593 -0.26773703 0.29715458 0.11223937 -0.15338239 0.05333286 0.119927816
0.13904826 0.0659675 -0.15091586 -0.18402477 0.13779582 0.09863841 0.04814522 -0.009444636
0.07250497 -0.09914823 0.1425086 0.37607753 0.272843 0.10573153 -0.09579979 0.028957263
0.15334323 -0.0684624 0.08767432 -0.12121992 -0.11206271 -0.0879811 0.050148785 0.037410483
0.036718424 0.20917886 0.058998134 -0.11183159 -0.35233915 -0.28863832 -0.030891474 -0.1939806
0.23031232 0.18656331 -0.018560683 0.012306478 -0.14890677 -0.13417968 -0.17015474 0.009050975
-0.24292344 0.2518007 -0.20097709 0.11360709 0.13563912 0.11730522 0.14319131 0.052520387
0.048826776 0.0067205075 -0.0035240147 -0.085652135 0.15516151 0.10496848 0.10988675 0.13490619

fc2.bias f4 [64]
00000000: b7d1 07be 69fb fa3d 931f d6bd 80db 7abd
00000010: d317 b4bd 01e8 fcbd 21a3 3bbd 157b b9bc
00000020: 3277 c13d 7e4d 433d cf8d bc3d 5506 413e
00000030: 0a8a d53d 897d 023e 656e 19be 5305 6dbd
00000040: 1580 0cbe 7c21 16be a3cf 48bd 4af4 5ebe
00000050: a677 6f3e c8b2 0d3e dc2c c03d fc8e 55bc
00000060: bee0 aa3d ecc9 7abd 246e f6bd 7f55 c53d
00000070: 7216 df3d ca41 553d b768 103d 1499 ee3d
00000080: b5ed b23d 37f3 86bd eaa2 6f3c 86a6 c03d
00000090: f8a2 3c3e 209a 633e b207 f1bd 4d79 afbd
000000a0: 8e4e e63d db3d 943d a0a6 8cbd 7f78 4ebd
000000b0: 4731 643d 1cc7 3e3d 133c 5d3e e624 1fbc
000000c0: dea2 0dbd fafd 333d 1f9e 323e 53d7 0dbe
000000d0: 24c7 073d 413c 42bd afcc 3ebd 0fdc a23d
000000e0: e2ef 8cbc a7a2 2ebd 1e4e 163d 2fc5 ef3d
000000f0: 30ce cc3d 41f0 e6bd 3f4e 3d3e a94d e83c
-0.13263594 0.12254984 -0.10455241 -0.061244488 -0.087936066 -0.12348939 -0.04580987 -0.022641698
0.09446563 0.047681324 0.09206735 0.18850072 0.104267195 0.127432 -0.14983518 -0.057866406
-0.13720734 -0.14661211 -0.049026143 -0.21772876 0.23385486 0.13837731 0.09383556 -0.013034578
0.083436474 -0.061227724 -0.120327264 0.09635448 0.10892953 0.052064694 0.035256114 0.11650291
0.08736745 -0.06589358 0.014626244 0.09406762 0.18421543 0.22226763 -0.11769046 -0.08568058
0.11245452 0.072383605 -0.06867719 -0.050407883 0.055711057 0.046576604 0.21604948 -0.009713387
-0.03457915 0.043943383 0.17443131 -0.13851671 0.0331489 -0.047420744 -0.04658192 0.07952129
-0.017204229 -0.042635586 0.036695592 0.11707532 0.10000265 -0.112762935 0.1848688 0.028357344

fc3.weight f4 [64, 64]
00000000: 8cea d1bd 6635 843e 0a0d 703e d435 2cbd
00000010: e96c 1dbb 73fc be3d 4846 81be 713b cb3e
00000020: 686c 2dbe 58fd cf3d e811 0a3e f96d 97be
00000030: 74b3 2b3e 2e69 703e 7cfb c4bd d536 2cbd
00000040: a7fc 62be 54b4 533d 85ea 14be 210b 0c3e
00000050: 8abc 74be 493b 2fbe 4a47 9b3d a5ad 5f3e
00000060: 0db6 21bd f546 9b3d b0c9 82bd 277f ad3c
00000070: 4495 41bd 3c9f 89be 31d6 c83c cdee 4b3e
00000080: 2baa 363e 9a63 f2bd 862e 7ebe f6eb 823e
00000090: db43 b43d e009 83bc bb43 13be 2967 023c
000000a0: e667 4c3e 4eb1 e0bd 2c9e 68be 2ef1 773e
000000b0: 14ec b73c b3f6 893e 2ff9 ec3d f104 2b3e
000000c0: 8d27 93bd bfab 8fbe de4b 7e3c f97e 82be
000000d0: 6bee 813e 0b75 4c3e f8d9 c13e 82f4 443e
000000e0: c056 62be 7e30 2c3e cabb 59bd 66fc 693d
000000f0: 0e76 1e3d c9d3 e1be 5476 8e3c cbd8 9a3d
00000100: 084c 043e c85e 4fbe c82a cebd f9e8 143e
00000110: 22c0 e13b 6a45 3cbe 3b04 ae3d 6410 00be
00000120: 6483 fe3b 3dbb 22be 0733 7a3d 2146 253e
00000130: deaf c43d 5f89 66be 3f30 a13d e3b0 a8bd
00000140: b4cd 833e 8064 7e3e 2c22 9fbc 2c22 57be
00000150: 37fa 9b3e 8c75 0b3e ca7f 9c3d 4a91 c4bd
00000160: 66e1 0e3e c5f8 653c f797 843e e063 153e
00000170: b57e 963d f8c3 023e 582d 7cbb 4268 863d
00000180: 08cd 83be a2e8 113e 98f8 24bc c8b8 f7bd
00000190: 61cc 6dbd bd9b 3b3d 1d11 28bc 421a 3abc
000001a0: 78d5 2a3e c05d a63c 424e 5e3d 95df f5bd
000001b0: 392c cb3d 3023 d7be bc42 453e eb3f 253d
000001c0: 45e3 283d ea95 713e dbdd 04bc 693d 103e
000001d0: d947 b93d d435 1abe 5cb3 60be 97f0 103e
000001e0: 12ae 093e cd78 5cbe 692c b93d f313 43bd
000001f0: 4dc0 113e 952a 693d 2dde 063e 9180 11be
00000200: b3d1 5cbd 71a5 833e ff76 c73d 4f91 033e
00000210: 0542 b93b 7538 993d 8bb5 96bd 7f14 3a3e
00000220: 618c f23d c54d 343e 118f 39bd 8c2d 5dbb
00000230: d0c8 023d 450f c13c b946 b9bd 51fa 0d3e
00000240: 22be 273d f8d8 133e 1bdd c73d 8eb2 833d
00000250: f823 8c3c bc85 c73d fd98 193d 81ba 013e
00000260: cab6 f4bc 2247 06bc 18fb 863d 9a59 803a
00000270: f036 a93b 7002 bdbd f65f 5a3d 7de1 54bd
00000280: bc7c 503e 2911 0fbe e88a c0bd e986 0a3e
00000290: 2514 cf3b a2ee dd3d 4362 3a3e 5254 873d
000002a0: e47c 003e 317f e03c 4be0 16be 734a c23d
000002b0: ed97 bf3d c0bf e83d d7d9 d03d 5231 c63d
000002c0: fca9 a83d 6d25 e6be 52c5 48bd c918 20be
000002d0: bd68 213d ee64 de3d 56e1 d53e 9691 af3d
000002e0: 2672 f73d e9e8 5b3d f7b1 d9bd 4003 043e
000002f0: c3d3 823d 118c 51be 3c39 61bd c776 083e
00000300: 325c 843d 110c 68bd 8763 d8bc 9432 b4bb
00000310: 6803 f23d 0986 b0bd d5ce d53c c00b 04be
00000320: cf0f ec3d 4135 dcbd a76a b43d d4cb 003e
00000330: 2a0f 03bc 9351 42be bf51 363e cf67 b13c
00000340: 8961 b13d e541 f43d 813f abbb baee 19be
00000350: f31e 113e 0493 b6bd af5b ddbd 2b1c 39be
00000360: 218b 27b9 f400 b63d bf92 3e3e 0ebc 10bb
00000370: f445 9aba 933a 4e3e 69d3 3e3e a2ba 7e3c
00000380: 2a74 4dbe e257 4dbd 0dd5 243e d776 9bbd
00000390: 1c9b be3c 3f66 2c3d d909 ac3a 8350 383b
000003a0: 0040 043c aeca 943d 1f3b ed3d 6da1 50be
000003b0: 5cc4 143d 0aa0 e8be b510 293e 713c 833d
000003c0: 18aa 213d c6fb ba3e 3b1c 23bc d222 873e
000003d0: e112 b23d 4c0a d4bd 7e01 36be 2082 adbd
000003e0: b32e 8ebd 7f36 4bbe f7ba 2a3e 3f08 573d
000003f0: bb34 583d 9c5e be3d 991b 643e 81dd 63bd
-0.102498144 0.2582199 0.23442474 -0.042043522 -0.0024021214 0.093254946 -0.25248933 0.39693788
-0.16935885 0.10155743 0.13483393 -0.2957609 0.16767675 0.23477623 -0.09618279 -0.04204448
-0.22166692 0.051685646 -0.14542587 0.1367612 -0.23900047 -0.17112459 0.07581957 0.21843584
-0.039480258 0.07581893 -0.06386125 0.021178795 -0.04726149 -0.268793 0.024516197 0.19915314
0.17838351 -0.11835404 -0.24822435 0.2557065 0.08802005 -0.01599592 -0.14381306 0.007959166
0.19961509 -0.10971318 -0.22716588 0.24213096 0.022451438 0.2694603 0.115709655 0.16701104
-0.07185278 -0.2806072 0.015521018 -0.25487497 0.2537721 0.19966523 0.3786161 0.19233897
-0.22103405 0.16815373 -0.053157605 0.05712547 0.038686804 -0.44106892 0.017390408 0.07560881
0.12919629 -0.20251 -0.100667536 0.14541997 0.006889359 -0.18385854 0.08496901 -0.12506253
0.007767128 -0.15891738 0.06108382 0.16140033 0.096038565 -0.2251334 0.0787053 -0.082368635
0.25742877 0.24843025 -0.019425474 -0.2100913 0.30464336 0.1361906 0.07641561 -0.09598024
0.1395317 0.014036362 0.2589719 0.1458888 0.07348386 0.12770069 -0.0038479175 0.06562854
-0.25742364 0.14248899 -0.010069035 -0.12095791 -0.05805624 0.04580282 -0.010257986 -0.011358799
0.16682994 0.020308375 0.05427385 -0.120055355 0.09920544 -0.42019033 0.19263738 0.04034416
0.041232366 0.23592344 -0.008109535 0.14085926 0.09046907 -0.15059596 -0.2194342 0.14154278
0.13445309 -0.21530457 0.09041674 -0.047626447 0.14233513 0.056925375 0.13170691 -0.142092
-0.053910922 0.2571216 0.097394936 0.128484 0.005653622 0.074814714 -0.07358845 0.18171881
0.118431814 0.17607792 -0.045302454 -0.0033749072 0.03192979 0.023566851 -0.090466924 0.1386502
0.04095281 0.14438236 0.097589694 0.06430541 0.017106995 0.09742305 0.037499417 0.12668802
-0.029872317 -0.00819567 0.06590861 0.0009792328 0.0051640198 -0.092289805 0.05331417 -0.051972855
0.20360082 -0.1397139 -0.09401494 0.13528027 0.00631954 0.10836531 0.18201546 0.0660788
0.12547642 0.0274044 -0.14733998 0.09486856 0.093551494 0.113646984 0.101978 0.09677376
0.08235547 -0.4495043 -0.049016304 -0.15634455 0.039406527 0.108590946 0.4177348 0.0857269
0.12082319 0.053688917 -0.10629647 0.12891865 0.063880466 -0.20463587 -0.054986224 0.1332656
0.06462897 -0.056652132 -0.026414646 -0.0054991934 0.11817056 -0.08619315 0.026099602 -0.12895107
0.11526453 -0.10752345 0.08809405 0.12577754 -0.007999221 -0.1897643 0.17804621 0.021655945
0.086611815 0.11926631 -0.005226076 -0.15032473 0.14171962 -0.0891476 -0.10808503 -0.18077151
-0.0001597819 0.088869005 0.18610667 -0.0022084746 -0.0011770115 0.20139532 0.18635334 0.015547426
-0.20063844 -0.05013264 0.16096897 -0.07591026 0.023267321 0.042089697 0.0013125493 0.002812416
0.008071899 0.072652206 0.11583542 -0.20374079 0.036320075 -0.454346 0.1651028 0.06408013
0.039468855 0.36520213 -0.009955461 0.26393753 0.08695007 -0.103535265 -0.17774007 -0.08472085
-0.06942501 -0.19845007 0.16672884 0.0524981 0.052784663 0.09295389 0.22276153 -0.055631164

fc3.bias f4 [64]
00000000: 7a62 dbbc fd20 8c3d e523 7a3c 3408 5a3c
00000010: 1065 9e3d 3222 273e ddab 023e cd80 cabb
00000020: 57f0 b3bc 3882 083e 7618 173c 57d1 68bd
00000030: 1d17 48bc 167b 353d bb0e cb3d 7b95 54bc
00000040: a95c ea3d 6694 1a3e 14da 863c 4765 cf3d
00000050: 0b5f c13d 36db 513e 1260 803d 58d1 68bd
00000060: 0147 683a 287e 03bd 17f0 a83c 9879 563d
00000070: fdee cc3c 7d28 8c3d 92c9 78bd 7e36 323e
00000080: 1814 74bd 6c29 753d f9d6 bc3d 77c4 7c3c
00000090: 40bd 443e bfeb 2c3e 7593 a23b 6b32 a43d
000000a0: e27a 5cbd 7b87 283d 1415 ee3d 7b9f 903d
000000b0: 5879 9abd 93da 153e 52bd 0dbb ee2c e43d
000000c0: 7403 0f3e 76cc 543d f47a c1bc 93c9 d8bd
000000d0: 33d4 ac3d cc02 793d f1be bbbd 2563 e3bd
000000e0: 6997 b8bd 0b58 dd3c 0bb1 d63d 4404 e33d
000000f0: ca1a 18ba 9b11 033e 4884 143d 050d 2ebc
-0.026780356 0.068422295 0.015267347 0.01330762 0.0773412 0.16321638 0.12760873 -0.006179905
-0.021965189 0.13330925 0.009222141 -0.056840267 -0.012212542 0.044306837 0.09914919 -0.012975092
0.11443455 0.15095672 0.01646141 0.10126739 0.09441956 0.20493779 0.06268324 -0.05684027
0.0008860678 -0.032102734 0.020622296 0.052362055 0.025016302 0.0684366 -0.060739107 0.174036
-0.059589475 0.059853956 0.0922069 0.0154277 0.19212818 0.16886805 0.004961426 0.08017429
-0.053828128 0.04114483 0.11625114 0.070616685 -0.07542676 0.1463416 -0.0021627736 0.11141382
0.13966161 0.0519528 -0.023618199 -0.10585322 0.08438911 0.060793683 -0.091672786 -0.11102895
-0.09013254 0.027019521 0.10482987 0.11084798 -0.0005802332 0.12799685 0.036258966 -0.010623221

fc4.weight f4 [2, 64]
00000000: bb82 88bf cbe1 063e ea00 03be 7604 7b3e
00000010: b533 1c3e d48e a73d 7daf 3f3e fe90 fdbd
00000020: d2bd 813d c2b3 423e 58f3 69be d0e4 4c3e
00000030: 829a 473e fbb3 7d3d a191 163e 449f 2ebe
00000040: 49ff 443e d7be 04be 4ce8 62be 85d0 45be
00000050: aff7 f43c 796e d73d 753f 7ebf b7ce 31be
00000060: 047a 363e da4e 0dbd e011 c9be b323 153e
00000070: 52bf 62be 3a97 0d3d 0659 14be 01f0 aabe
00000080: 7a9d d2bd 23ce abbd 29f3 40be deff c1be
00000090: a3fd 03be deb5 f33c 8f72 a2bd fe4f ab3d
000000a0: 686e fcbd b28f 8dbd 2c67 623e e38a 07be
000000b0: 4f1b 013e c5df 7f3d c75d aebd ef92 523e
000000c0: 9ab8 143e d0f9 553e 023d 823e ac58 743e
000000d0: e774 483e 9913 533d 18eb 28be 3758 78bd
000000e0: 1eb1 4ebf f39a 1fbe 2cb6 68be 0b8d 16be
000000f0: 8fba 5bbe ede1 2c3e 5e07 92be 6051 23be
00000100: e5ce 283e fc2f 993d 2120 913d 34d7 173d
00000110: b024 98be 0efa 6fbe 2729 1abe ec8b cf3c
00000120: ff82 84be a72d 7c3d 647d ef3d d20f 3cbe
00000130: b7cd 13be fd26 433e e1d4 3a3e 2138 c03d
00000140: f024 4f3e 41db a9be 0b39 afbc 7d56 3b3e
00000150: f0f8 753e 66d2 22bf e7c5 2bbe 9b97 8c3d
00000160: 4ba3 1f3e ce73 0ebf d74c 3fbe 1b98 133e
00000170: c55c b5be 8856 5b3d 69ff 0c3e f0e0 43bd
00000180: 7c8c fb3c f2a9 523d 55eb 36bc 13bd 01be
00000190: 8498 79be bbcc bfbe 5c1c c23d 5be2 ed3d
000001a0: c93a 7c3d 8afa 3d3d 126b b3bd ef8a 5e3d
000001b0: 73fe 98be f90f abbe 7d9c 353e a78e db3e
000001c0: 5254 313d b95c cf3d 3fe4 46be e183 e23e
000001d0: 9b39 15be f612 753e 2926 0d3e ecaa 8b3b
000001e0: d210 23bd a887 98bd b749 70be 77ee 26bc
000001f0: 7422 333d 224e 603d 5513 5bbe ebe1 dabd
-1.0664896 0.1317207 -0.12793317 0.2451342 0.152541 0.08181539 0.18719287 -0.12381171
0.063350335 0.19013885 -0.22846735 0.2000916 0.19492534 0.06193922 0.1470399 -0.17052943
0.19238009 -0.12963425 -0.22158927 -0.19317825 0.029903261 0.10519118 -0.9931558 -0.17364012
0.17819983 -0.034499027 -0.3927145 0.145644 -0.22143295 0.03456805 -0.14487085 -0.33386233
-0.102839425 -0.08388927 -0.18842758 -0.37890524 -0.12889723 0.029749807 -0.079320066 0.08364867
-0.12325746 -0.06912173 0.2210967 -0.13236575 0.12608074 0.062469263 -0.0851398 0.20563863
0.14523545 0.20896077 0.2543717 0.2386195 0.19575845 0.05153236 -0.16495931 -0.060631003
-0.8073901 -0.15586452 -0.22725743 -0.14702241 -0.21457885 0.16883059 -0.28521246 -0.15949011
0.16485174 0.074798554 0.07086206 0.037070468 -0.2971549 -0.23435232 -0.15054761 0.025335275
-0.25881192 0.061566975 0.11693838 -0.1836541 -0.14433943 0.19057842 0.1824527 0.09385706
0.20228934 -0.3317509 -0.021389505 0.18294711 0.24020743 -0.6360229 -0.16774713 0.06864854
0.15589635 -0.55645454 -0.18681656 0.14413492 -0.3542234 0.05354932 0.13769306 -0.04782194
0.030706637 0.051431604 -0.011164506 -0.12669782 -0.24374586 -0.37460884 0.09478065 0.116154395
0.0615795 0.04638151 -0.087606564 0.054331716 -0.2988163 -0.33410624 0.17735477 0.42882273
0.043293305 0.10125107 -0.19423006 0.4424124 -0.14572756 0.23933014 0.13784088 0.004262319
-0.039810963 -0.074477494 -0.2346562 -0.01018869 0.04373403 0.054762013 -0.21394093 -0.10687622

fc4.bias f4 [2]
00000000: 869e aa3b b92c c73c
0.0052068857 0.024313318

bn_s.weight f4 [24]
00000000: e4dc 493f a3a3 0a3f 7e1f f03e a56e 393f
00000010: 8db3 a93f 3423 5a3f 6fa4 163f 203f 453f
00000020: a422 1e3f f7c3 533f e045 343f bd71 463f
00000030: 465b 733f e5d2 2e3f 44f0 1c3f e9f9 143f
00000040: ebe7 683f 0fe7 293f 0e62 1d3f 3a76 753f
00000050: 14c6 b63f 1d13 8a3f c6b8 393f 2a77 6b3f
0.7885268 0.5415594 0.46899027 0.72434455 1.325792 0.85209966 0.58844656 0.77049446
0.6177161 0.82720894 0.7041912 0.775173 0.9506115 0.6829055 0.61304116 0.5819383
0.9097888 0.6636819 0.61477745 0.95883524 1.4279199 1.0787083 0.72547567 0.91978705

bn_s.bias f4 [24]
00000000: 805f 3b3d a0a3 b9bb ad35 1bbd e3b9 41be
00000010: abe0 d23d 81ea 63bd 5a7e aa3d 06ef c8be
00000020: e55f 5b3e cff2 30be 963f 343d 0539 81be
00000030: 63a7 3f3e a1fe 01be c436 003d 8dc7 4dbe
00000040: 0cb2 29bd a937 bd3c 369b 39be 91e0 03be
00000050: d2f5 8e3d 6b50 123c 32bf 7e3d d249 38be
0.045745373 -0.0056652576 -0.037892986 -0.18918566 0.10296758 -0.055643562 0.08324881 -0.3924486
0.214233 -0.17280124 0.044005953 -0.25238815 0.18716197 -0.1269479 0.03130223 -0.20095654
-0.041429564 0.02309783 -0.18125615 -0.12878634 0.0698048 0.008930306 0.062194057 -0.1799691

bn_s.running_mean f4 [24]
00000000: fb7f 0dc1 fcb6 29be de5d 773f 5484 723d
00000010: dad4 b3bd 968c 7340 de5d 773f 5484 723d
00000020: 5bdb 0ec1 8689 2fbe 4eb5 a03f a2ed b13d
00000030: bf3c c2bd f251 7340 4eb5 a03f a2ed b13d
00000040: 82c3 10c1 dce1 35be 6b1f 733f c2d2 593d
00000050: 7e21 b6bd 5337 7240 6b1f 733f c2d2 593d
-8.843745 -0.16573709 0.96627605 0.05920823 -0.087808326 3.8054557 0.96627605 0.05920823
-8.928554 -0.17142305 1.255533 0.08687903 -0.09484243 3.8018765 1.255533 0.08687903
-9.047731 -0.1776194 0.94969815 0.05317951 -0.08893107 3.7846267 0.94969815 0.05317951

bn_s.running_var f4 [24]
00000000: 39cd 0841 0fcc 443f a26d 5443 41e9 8741
00000010: 6429 ee41 94fe 2c40 a26d 5443 41e9 8741
00000020: 95b9 f240 496e 483f 19c9 5543 630e 8941
00000030: 9f0c f641 bc69 3140 19c9 5543 630e 8941
00000040: 89ff d440 ae8b 4c3f fbf6 5943 3a88 8b41
00000050: 4561 ff41 7276 3e40 fbf6 5943 3a88 8b41
8.550103 0.7687387 212.42825 16.988894 29.77021 2.7030382 212.42825 16.988894
7.585154 0.7829328 213.78554 17.132025 30.756163 2.7720785 213.78554 17.132025
6.6561933 0.79900634 217.96477 17.441517 31.922495 2.9759793 217.96477 17.441517

bn_so.weight f4 [24]
00000000: 0864 5d3f 143e 003f 473b 413f b2b3 213f
00000010: 9151 a23f 26ae 783f ba27 383f b144 313f
00000020: af73 143f 74be 173f 6f7a 4f3f fe2d 3e3f
00000030: ce46 bb3f 90f6 2d3f bbd1 2d3f 41c0 163f
00000040: 70e8 583f cfdc 563f d45d 1c3f b6e5 1e3f
00000050: 0e65 dd3f 1164 8d3f eff1 343f 3dce 463f
0.8648076 0.50094724 0.75481075 0.6316482 1.2681142 0.9714073 0.7193562 0.6924544
0.5798902 0.59274983 0.81046194 0.7428893 1.4630983 0.6795435 0.6789815 0.58887106
0.8472967 0.8393068 0.6108067 0.6206926 1.7296464 1.1046163 0.7068166 0.77658445

bn_so.bias f4 [24]
00000000: ec6b 633d 9142 6f3e 5a82 73bd 4081 5a3c
00000010: d461 84be 99ec c6bd 9085 373d b18a 253e
00000020: 9f0c 98be 6321 423e f2c8 113e d3f5 ef3c
00000030: 696d bbbc 3146 0e3e 18de 2abc c138 5b3d
00000040: 3b8b 62bd 0b53 7b3c 6c00 163e bf35 bb3d
00000050: d9dd 24bc 7900 e6bd 5654 243d 4643 83bc
0.055522844 0.23365237 -0.059450485 0.01333648 -0.25855887 -0.09713096 0.04480511 0.16166188
-0.2969713 0.18958049 0.14236811 0.029292023 -0.02287932 0.13893963 -0.010428928 0.05352092
-0.05530856 0.015339623 0.14648598 0.09141111 -0.010062658 -0.11230559 0.04011949 -0.01602329

bn_so.running_mean f4 [24]
00000000: 58a0 0cc1 c5c9 2ebe 81c1 9b3f 40a2 493d
00000010: dad4 b33d 968c 7340 81c1 9b3f 40a2 493d
00000020: dc8d 0ec1 90e0 38be 1ca7 763f e007 713d
00000030: bf3c c23d f251 7340 1ca7 763f e007 713d
00000040: 53c2 10c1 f26c 40be c3cf 463f a3f5 6b3d
00000050: 7e21 b63d 5337 7240 c3cf 463f a3f5 6b3d
-8.789146 -0.17069156 1.2168428 0.049227 0.087808326 3.8054557 1.2168428 0.049227
-8.909634 -0.18054414 0.9634874 0.0588454 0.09484243 3.8018765 0.9634874 0.0588454
-9.047442 -0.1879156 0.7766077 0.057607304 0.08893107 3.7846267 0.7766077 0.057607304

bn_so.running_var f4 [24]
00000000: 55fe 0c41 d822 443f 7c28 5443 0daf 8841
00000010: 6429 ee41 94fe 2c40 7c28 5443 0daf 8841
00000020: 7a7b fb40 c22f 483f 4d1f 5a43 edd7 8a41
00000030: 9f0c f641 bc69 3140 4d1f 5a43 edd7 8a41
00000040: 2e62 d840 eddd 4c3f 9e37 5e43 4edf 8b41
00000050: 4561 ff41 7276 3e40 9e37 5e43 4edf 8b41
8.812093 0.7661567 212.15814 17.085474 29.77021 2.7030382 212.15814 17.085474
7.858823 0.7819787 218.12227 17.355433 30.756163 2.7720785 218.12227 17.355433
6.761985 0.8002613 222.21725 17.484035 31.922495 2.9759793 222.21725 17.484035

fcState.weight f4 [64, 24]
00000000: fb67 813e dc56 d9bc ebeb 20bd 2743 653e
00000010: 2ab7 d3be d4e9 bd3d 469c aebd 655d a53e
00000020: 3bb8 25bd 9197 c03d 4d1a 153e a2cc 213e
00000030: 9e54 01be 1628 013d 98fe 883d 72a4 ed3d
00000040: 983f 033d 9ff7 c23d 63e9 3d3e f4cb 4a3e
00000050: daa3 38be 6c7e 3cbc f448 efbd 1a6c b73d
00000060: 7b6f febb f6d7 3b3e 8c6d 593d f091 0b3e
00000070: 5f91 1dbe 5acf f13d 8518 14bd 09dd 7f3e
00000080: b56b 4c3e 24c9 d13c 7505 3fbe 3c8c 16bd
00000090: a184 153e 3aab f3bb ffb2 b13d e55e 18bd
000000a0: dab3 b93e 954d fe3c 9325 c53e 92b9 dfbe
000000b0: bce9 42be 4338 903e e98a 943d 03d6 b7be
000000c0: 1894 ecbd ce4e 2fbd f0f3 8cbe 00dd 8abd
000000d0: 4233 9f3e afb3 33be 2be6 b23d 2763 613e
000000e0: 1314 a33d 915a 12be 8224 353d 6ffa d63d
000000f0: f767 8fbd ba82 733e bb4a 093d eb5d 583e
00000100: 8896 c8bd 52d3 28bd 1e22 0d3e 28eb 283d
00000110: 13ac c5be 0220 453d 208b 5a3e 5bbd c9bc
00000120: 37a5 083d 54ec db3c ea6e 3fbd 92f9 a53d
00000130: 73b8 683c d376 613e ca5c b0be b785 483e
00000140: 63f2 0abe 74fc cdbd 6bf6 c0bc b616 b3bd
00000150: 4ac8 863d cfca 0bbe 66f2 5abe 9b3e b33d
00000160: 5b1f e5bd acd0 c53d 7b49 80bd 5e9e 62be
00000170: 345e 15bd ffa3 55bd f5bc bbbe 0923 13be
00000180: 0298 8cbc 329c 9bbc 9e87 a33c a8e8 29be
00000190: 80e5 8c3e 5a0e 73bd 4636 563e 1031 2bbd
000001a0: af48 16be 8f65 6cbe db0d 743e c3ab e63c
000001b0: 3f11 8c3e f678 483e 9338 f13d e7b9 2f3e
000001c0: 9980 d63d 5f59 05be 3936 263e 3cd0 e43d
000001d0: e653 cf3e 425b f63e 7ccb 49bd 721e 3abe
000001e0: aa4d b23d 8c9e a73d 83b7 943e 030d 15be
000001f0: d437 f43e 7d6c 1fbe b405 c3bd b9fd 82bd
00000200: 3404 853e 15b5 603e 61ff 5dbe a1c3 d43c
00000210: 409b 993e 9243 343e 86af 083d e2ea fb3d
00000220: 968d 353e eb63 7a3d 0193 30be 5e17 90bd
00000230: 87e5 b0be 21cd 083e cd1f 31be 54e3 313e
00000240: 922f f9bd 2e51 a0bd eaf5 133e 182a 193d
00000250: 0464 ee3d d749 073e ee57 ce3c 31bf 543e
00000260: 21f0 8ebe 2a3f 0dbd ade7 bbbd 6b01 b2bd
00000270: c7d4 53be 48a1 31bd 9adf 5f3e 50ac 3dbd
00000280: 617f bdbe 98bd ad3c 3933 0c3e 5c52 4e3e
00000290: 6173 edbe 9e7f d63d 7789 d63c 31bd 2d3d
000002a0: 8694 933c f9c9 a8bd 1c57 1f3e d2f0 433e
000002b0: 1950 40bd cca2 803d ef50 d63e 6f83 a93e
000002c0: e241 083e 0025 473d c2f8 7ebe ea3c 343e
000002d0: 3f3f afbd 89bc 92bc 2ed2 92be 6108 0cbd
000002e0: 67ec 0abe 4282 543e 2104 17be 18c6 9c3d
000002f0: 29f2 f3bc f008 3abe 48ce bf3d 98b5 323e
00000300: e45b 96be 1877 a7bd 41ec ee3d 1208 bb3d
00000310: 6ae0 e03d 7315 563e e2ef 2f3e 062e cb3d
00000320: d780 d0bb 96ab b1be 078d 933e 916b 57be
00000330: ac72 5d3e 37ac 25bd 045e c93d 09e0 0fbe
00000340: c9f7 e53d 0362 5dbd 7243 4b3e 280a a13d
00000350: 7f4b b7bd 5bfb 573d be21 ac3e 447e 3e3e
00000360: 1f52 3f3e b20f 80be f12b 9fbd 9681 5e3e
00000370: 205d e73c 5ce2 393e ca81 3fbe aefe 7dbd
00000380: 9220 50bd 9a33 70be df7c 36be 6083 463e
00000390: 2bf0 323e 568d 413e fc11 31be 3bf4 edbd
000003a0: 53ae 423e 1362 8cbe 4b10 573e c370 07bd
000003b0: 843c 95be e897 1d3e 4687 b83e c807 6cbe
000003c0: 6bf2 f3bd a65a 9b3d 9a70 e23c fff6 d8bd
000003d0: 61ef 03be 6da7 053e 34f0 5abe 71ff 88be
000003e0: db35 d4bd 8962 813e 1c40 aa3d b626 55be
000003f0: a156 cabd 4295 543d 5876 84bd 7b83 6ebe
0.25274643 -0.026530676 -0.03928749 0.22388898 -0.4135068 0.09273115 -0.085259005 0.32297817
-0.0404589 0.09403909 0.14560814 0.15800717 -0.12629935 0.03153237 0.06689185 0.11603631
0.03204307 0.09519886 0.18546061 0.19804364 -0.18031254 -0.011504751 -0.116838366 0.089561656
-0.0077647544 0.18344101 0.053082988 0.1362989 -0.15387486 0.11807127 -0.036156196 0.24986662
0.19962962 0.025608607 -0.18654425 -0.03675483 0.14601375 -0.0074361833 0.08676719 -0.037199873
0.36270028 0.031042853 0.3850523 -0.43696266 -0.19034475 0.28167924 0.072530575 -0.35905465
-0.11551684 -0.042799763 -0.2752986 -0.06780434 0.31093794 -0.17549013 0.08735307 0.2201048
0.07962813 -0.14292361 0.04422427 0.10496985 -0.070022516 0.23780337 0.033518534 0.21129577
-0.097943366 -0.041217156 0.13782546 0.041239887 -0.38607845 0.04812623 0.21342134 -0.024626425
0.033360686 0.026846088 -0.046736635 0.081042424 0.014204132 0.22017984 -0.34445792 0.19582258
-0.13569026 -0.10057917 -0.023555001 -0.08744566 0.06581171 -0.13651584 -0.2138153 0.087521754
-0.11187621 0.096589416 -0.06264015 -0.22130725 -0.036466792 -0.052158352 -0.366676 -0.14368834
-0.017162327 -0.018995378 0.019962128 -0.16592658 0.27518845 -0.05933986 0.20919141 -0.041794837
-0.14676164 -0.23085617 0.2383341 0.028158074 0.27356908 0.19577393 0.11778369 0.1716076
0.10473747 -0.13022374 0.16231622 0.1117253 0.40493697 0.481165 -0.049266323 -0.18175676
0.087062195 0.08184537 0.29046258 -0.14555745 0.47698843 -0.15568729 -0.09522572 -0.0639605
0.2597977 0.21944077 -0.2167945 0.02597219 0.3000126 0.17603901 0.033370517 0.1230066
0.17729792 0.061130445 -0.17243578 -0.07035707 -0.34550115 0.133595 -0.17297287 0.17371875
-0.121672764 -0.07827984 0.14449278 0.03739366 0.1164017 0.13211761 0.025188413 0.20776059
-0.2791758 -0.034484066 -0.09175048 -0.08691677 -0.20686637 -0.0433667 0.21862641 -0.046306908
-0.37011245 0.02120857 0.13691415 0.20148605 -0.4637709 0.1047356 0.026188595 0.042416755
0.018015157 -0.08241648 0.15560573 0.19134834 -0.046951387 0.06281051 0.41858622 0.33108088
0.13306382 0.04861927 -0.24899581 0.17601362 -0.08556985 -0.017912166 -0.2867598 -0.03418768
-0.13566743 0.20752814 -0.14747669 0.07654971 -0.029778557 -0.18167472 0.09365517 0.17452085
-0.29366982 -0.08177012 0.116661556 0.09132399 0.109803036 0.2090662 0.17181352 0.09920888
-0.006363015 -0.34701222 0.28818533 -0.21037127 0.21625775 -0.04044744 0.09832385 -0.14050306
0.11228902 -0.05404855 0.19849947 0.07863265 -0.089499466 0.052729946 0.33619493 0.18602854
0.1868367 -0.25011975 -0.07772053 0.2172912 0.028242648 0.18152755 -0.18701854 -0.06201046
-0.05081231 -0.23457184 -0.17821072 0.19386053 0.1747443 0.18901572 -0.17292017 -0.11618849
0.19011812 -0.27418575 0.21002309 -0.033066522 -0.29147732 0.15389979 0.36040705 -0.23049843
-0.11911472 0.07585649 0.027641583 -0.10593986 -0.12884285 0.13052149 -0.21380693 -0.26757386
-0.103618346 0.2527049 0.08313009 -0.20815548 -0.098798044 0.051900156 -0.06467885 -0.23292343

fcState.bias f4 [64]
00000000: 2972 d2be 9182 1ebe 9fa4 bc3c 9f84 eabd
00000010: 5f05 363d 6d87 913d 15b2 4dbe bdfe 43be
00000020: 373f 20be 7aa3 a3bd 2ddc 7fbd 044f 06bf
00000030: a4a4 bdbd 2701 69bd 2b0c 40be aacd 23be
00000040: 9f36 08be 75a9 c53d 4732 1ebc da6a e8be
00000050: 2204 d8be a8d2 47be 0bc8 093e d033 23bf
00000060: b3da 6bbe ab22 29be 8222 94bd 6772 99bd
00000070: 45a1 acbe 6653 2dbe 4b82 efbd 3856 91bd
00000080: 4598 743c 392a 63be 59ff b2be cf4e 06bf
00000090: 4f43 fcbd f32b a8be daca 23bd 441d 233e
000000a0: 2b3a b8be 0077 5fbe 340e babd 1a62 0c3d
000000b0: 2b79 c33c d4ad 2f3e e75f c93d 09c2 4abe
000000c0: f720 223d 7af2 a43d ec27 bebe 2400 19bf
000000d0: a1a9 a0bd 5ad5 30be 6264 a93c 4c7e 0abe
000000e0: 59a7 8cbd 750f 60be c331 1fbe ba22 48be
000000f0: d13f 6dbe 8649 97bc 05f3 213e f4be 21be
-0.41102722 -0.15479495 0.023027716 -0.11451077 0.044438716 0.071059085 -0.20087464 -0.19140144
-0.15649115 -0.07990165 -0.062465835 -0.5246432 -0.09259918 -0.056885865 -0.18754642 -0.15996423
-0.13302086 0.09651462 -0.009655542 -0.4539402 -0.42190653 -0.19513953 0.13455217 -0.63750935
-0.23032646 -0.16517131 -0.07233144 -0.07492524 -0.3371679 -0.16926345 -0.11694773 -0.07096523
0.014928882 -0.22184075 -0.3496044 -0.52464 -0.123175256 -0.3284603 -0.039988376 0.15929133
-0.3598188 -0.21822739 -0.0908474 0.034273244 0.023861488 0.17156154 0.09832745 -0.19800581
0.03958222 0.08054061 -0.37139833 -0.5976584 -0.07844854 -0.17268887 0.020677749 -0.13524741
-0.068678565 -0.21880896 -0.15546326 -0.19544497 -0.23168875 -0.018467676 0.15815361 -0.15795499

fcAction.weight f4 [16, 2]
00000000: 436c 7bbe 285d 53be c54c fabe c8b7 963e
00000010: 2d27 063f cb7d 8abf 0bf0 153f 6c3c dd3e
00000020: e77d 24bf 894e 54bd d533 423f a773 33bf
00000030: 38df e2bd 1c74 f8be bc31 f43e e508 0bbe
00000040: 3c19 d63e b063 083f ef39 57be 4104 1ebf
00000050: af00 183d 7df1 6fbe c04c b63d 50dd e93e
00000060: a678 1cbf 2f23 4bbf 1abb a43e a55e d43e
00000070: 4c34 293f e229 d53e c446 3f3f fbc7 89bf
-0.24553017 -0.20641005 -0.48886696 0.2943709 0.5240353 -1.0819639 0.585694 0.4321016
-0.6425461 -0.05183271 0.7586034 -0.70098346 -0.11077732 -0.48526084 0.47694194 -0.13577612
0.41816127 0.5327711 -0.21018194 -0.6172524 0.037110027 -0.23431964 0.08901358 0.4567666
-0.61121595 -0.7935056 0.32173997 0.41478458 0.66095424 0.41633517 0.74717355 -1.0764154

fcAction.bias f4 [16]
00000000: 2a87 273d 20de 64bc 2746 b9be d98b e23d
00000010: fede 7a3d 1df2 d13e 3ec8 2cbf 93ca 103e
00000020: 6307 01bf e60b be3e 1350 603e 49ed 28be
00000030: 3651 04bf 6f7d 14be d3d7 bfbe 74c7 363e
0.040900387 -0.013968974 -0.36186334 0.1106183 0.06124782 0.4100503 -0.67493045 0.14139776
-0.50401896 0.37118453 0.21905546 -0.16496767 -0.5168642 -0.14500974 -0.37469348 0.17849523

fcState_o.weight f4 [64, 24]
00000000: 6c21 023e dac8 bc3d 0fd2 6dbe c4cd 673d
00000010: 98a2 873e d326 c3be bc61 1cbc 5ae9 b7bd
00000020: e180 113e 9e88 14be 2372 0bbe 62e3 d7bd
00000030: 30fd f9bd c30c 1dbe bdd2 743e a5df 14be
00000040: 86f7 c73d 582c 5e3d 85cd 1ebe f151 88bd
00000050: c949 13be 0599 903e 3e21 59be 60cf 1ebd
00000060: 66cf 24be aca5 22be 8efe 023e ea45 873c
00000070: 4fbb 243e ced0 243e d8d6 8b3a ea73 b33d
00000080: e3fd 38bc c1d0 433d dd23 af3d 87d6 483e
00000090: 3f1d 0fbf 814c 1d3e 3c77 3bbd 238b 33be
000000a0: 07e2 fabb b89f cdbd 4ca0 47bd ce9c fd3d
000000b0: 667d 6abf ab15 093d b204 68bd 848f fbbc
000000c0: 9def d73c 49db 04be 7007 88be b0ba 603d
000000d0: 515e afbe 67c9 6bbe 2a4c c93d 50ec fcbd
000000e0: c5cd f2bd acbb 173e 8366 4d3e cf61 06be
000000f0: 635f cebc 9305 8e3d 6805 1a3d 9f8b 79bd
00000100: 00a3 ea3d 005b 0b3e 0d1f 0dbc d867 9fbd
00000110: f732 d33e 8d43 1b3e 5464 393e daaa 3b3e
00000120: 87a1 953d 88af 153e ddfc 7c3e 8a92 d4bd
00000130: 28e6 abbd 0174 5d3e b5f7 48bb aeb3 1abd
00000140: bcac 1a3d 1c55 a2bd 669d 87bd a050 c03d
00000150: bb7f 4cbe 7fa7 4a3d 5c3a 0d3e cb0c e6bd
00000160: 3557 7b3d 0501 8abe a310 003e 7c9f 23be
00000170: f487 6fbd 57b2 dcbe 091f 33be 5af6 4a3e
00000180: 6ad0 43be 0a36 09bc 01f1 60be d6e0 903e
00000190: 3d46 0a3e 08e4 633c 5f07 afbe 632a 093c
000001a0: e91e 0b3e 6928 013e 54d5 633e 7641 68be
000001b0: 4784 3cbe 323e fcbc 8a99 723d 3116 8a3d
000001c0: d8e7 adbd 2bdc b5bc 9bcb 9ebe 7bf7 c53e
000001d0: 0e58 f6bd 7b90 5ebe 3aa7 a5be 5ce9 883e
000001e0: 30f5 c43d 909c 423e dd87 213e 61b0 2eb9
000001f0: 9015 933d 1ebe 1c3e f030 dbbd 473f 1ebe
00000200: 6223 7b3e be83 9bbd 137e 1c3e e203 363d
00000210: 1ab7 253e fa5f 1b3d 1b05 c4bd b73f 1f3e
00000220: 5bdc 7e3e d449 2fbe fce3 c6bd fb82 8fbd
00000230: 08e2 423e a242 263e efc7 c2bd ba15 e33d
00000240: fcb8 63be c800 163e c0d9 fe3d 0c7e 1a3e
00000250: 2efb f9be 7d6b 063e c879 883e c8d2 fc3c
00000260: e552 493e cb7f f93d 01c4 2bbe 9530 853e
00000270: 43ed 9cbe 696e 073e 2192 cebd 6f59 463e
00000280: 4734 8f3d 3f4c fc3d 05d5 173d b8c9 0c3e
00000290: 34dd 053f 9841 1ebe 62bf 8b3e 6e7a d6bd
000002a0: fae7 56be ac49 9d3c 978f 903d 0cdc 113e
000002b0: 874b 65be 82d5 cebd 83ee 8abe a263 033e
000002c0: 48c2 0c3e eed2 133e 5897 8fbe edad 9b3e
000002d0: d06e c23d a3d3 b7be 6624 71bc 60ea cd3d
000002e0: 0b0b d5bc 6ef0 ff3e 11e4 78bd d77d c53d
000002f0: 1851 c23d 0681 81bd 235b 983d 6dc8 8d3d
00000300: f627 323e f302 f2bd 2422 60bd 7435 7dbd
00000310: 5cc9 663d db6f a23e 3cba 84be 9b1d 0bbd
00000320: ff5c 9fbc cb8f 593e a453 4c3e 01e4 11be
00000330: a126 223e 6fec f83d f88e ecbd c985 353d
00000340: 5bfb 5f3e fd8a a33a d850 8a3e b440 89bd
00000350: 3a92 5abe 3d04 333e 834e 38bd 6ec6 7ebe
00000360: b287 213e 3bcc 1dbd 1531 e4bd 1b9d 3abe
00000370: df7a 773e 8ca9 58be ccbf 5fbe 00ad 82be
00000380: 7275 a1be dfea 7c3c 0e7e ed3d 78a5 833e
00000390: cf46 813e 4195 3cbd 04ae c83e b7c2 0e3a
000003a0: 192e f0bd b91d 0a3e f20b 7ebd a2a5 78bd
000003b0: ea27 38be 9e6f 423d 6421 20be dc65 13be
000003c0: d67a acbe beee f6ba d008 86be ec4b 52be
000003d0: 9fbb a63b fd20 ff3d 4b31 86be 2903 1bbc
000003e0: 7db6 18bd e690 11be 8218 e2be 6d2d d83d
000003f0: f8dd 8a3d 5bf2 8abd 894d 14be e26e c43d
0.12708062 0.09217997 -0.23224662 0.056592718 0.26491237 -0.38115558 -0.009544786 -0.08980055
0.1420932 -0.1450524 -0.13617758 -0.10541417 -0.12206495 -0.153369 0.23908515 -0.14538439
0.09764008 0.05424151 -0.15508087 -0.06656254 -0.14383616 0.28241745 -0.21204087 -0.038771987
-0.16094741 -0.15883511 0.12792417 0.01651283 0.16087078 0.16095278 0.0010668887 0.08762343
-0.011291 0.047806505 0.08551762 0.19613086 -0.55904 0.15361215 -0.045768008 -0.17533545
-0.007656339 -0.100402296 -0.048736855 0.12383424 -0.9159759 0.03346793 -0.056645103 -0.030708082
0.026359374 -0.12974276 -0.26568174 0.05486554 -0.34251645 -0.23026048 0.0982898 -0.123497605
-0.11855654 0.14817685 0.20058636 -0.13123249 -0.025191968 0.06934657 0.037602812 -0.06092417
0.11456871 0.13608932 -0.00861336 -0.077834785 0.4124982 0.15162487 0.18104678 0.18326893
0.073061995 0.14617741 0.24705835 -0.103795126 -0.08393508 0.21626283 -0.0030665223 -0.037769012
0.03776239 -0.079263896 -0.06621818 0.09390378 -0.199706 0.049476143 0.13791794 -0.11232909
0.061362464 -0.26953903 0.12506346 -0.15978807 -0.058479264 -0.43104813 -0.17492308 0.19820538
-0.19122472 -0.0083747 -0.21966936 0.28296536 0.13503356 0.013909347 -0.3418531 0.008371922
0.1358601 0.12613072 0.22249347 -0.22681221 -0.18409835 -0.030791376 0.059228458 0.06742514
-0.08491486 -0.02219971 -0.31014714 0.38665375 -0.12028514 -0.21734802 -0.32354146 0.2674054
0.09617078 0.19005036 0.15774484 -0.0001665964 0.07181847 0.15306899 -0.107026935 -0.15453826
0.24525216 -0.07593487 0.15282468 0.044437297 0.16183129 0.037933327 -0.09571286 0.15551649
0.24888746 -0.17118007 -0.09711453 -0.070074044 0.19031537 0.16236356 -0.095107906 0.110881284
-0.22238535 0.14648736 0.12443876 0.15087146 -0.48824447 0.13126941 0.26655412 0.030862227
0.19660528 0.12182578 -0.16773988 0.26013628 -0.30649766 0.13225712 -0.100864656 0.19370054
0.06992393 0.1231923 0.037068386 0.13748825 0.52290654 -0.1545471 0.2729445 -0.1047257
-0.2098693 0.019200169 0.070586376 0.14244097 -0.22392093 -0.10099317 -0.27135095 0.12830976
0.13745987 0.14435932 -0.28045154 0.30406132 0.09493792 -0.35903654 -0.014718151 0.10054469
-0.026006242 0.4998812 -0.060764376 0.09643143 0.09488124 -0.063234374 0.07439258 0.06922994
0.17398056 -0.11816969 -0.05472006 -0.061818555 0.056344375 0.31725964 -0.25923336 -0.03396378
-0.019453524 0.21246259 0.19953781 -0.14247133 0.15835048 0.12154471 -0.115507066 0.04431704
0.21873228 0.0012477335 0.27014804 -0.06701794 -0.21344844 0.17482086 -0.04499675 -0.24880382
0.1577442 -0.038524847 -0.11142174 -0.18223993 0.24167965 -0.21158427 -0.21850508 -0.25522614
-0.31534916 0.015436857 0.11596309 0.2571218 0.25249335 -0.046040777 0.39195263 0.0005445885
-0.117275424 0.13487901 -0.06202311 -0.060704835 -0.17983976 0.047469728 -0.15637738 -0.14394325
-0.33687466 -0.0018839461 -0.26178598 -0.20536774 0.005088284 0.12457464 -0.26209483 -0.009461203
-0.03728341 -0.1421543 -0.44159323 0.10555539 0.067806184 -0.06784507 -0.14482702 0.09591462

fcState_o.bias f4 [64]
00000000: 3b63 3d3c 2f8a 58be c8e3 2ebb 754d c8bd
00000010: 2113 bebe b4e9 bebe 9041 80bd e213 fdbd
00000020: 0aea a63d f9a5 ddbd 94b9 c6bd 8915 acbe
00000030: c876 33be ad84 553e 994d 09bd c619 fb3a
00000040: 3506 9ebe d1d2 8e3c 1f39 8abe 08ba 40be
00000050: 6e3f 8fbe 7ec2 c2bd fed5 3e3c a830 bd3c
00000060: f470 ffbe c070 4b3e c4b7 10be 2cff 34be
00000070: 93e7 f0be b560 8fbe 5f80 98be ae8f 34be
00000080: 5dd4 46be 6e33 d23c 07d7 133d a91e 4bbe
00000090: 5996 29be 5285 1cbd c312 b7be 01b0 b7be
000000a0: abf2 d23d 9638 04be f3fb c9be ff7b dabe
000000b0: 0b80 00be fd68 69be 3907 b3bd 154b a03e
000000c0: 3279 bcbe c52b 77be b684 273e 4a39 0ebf
000000d0: 65b4 dfbe 8974 0b3d b1cb a5be 7821 09bf
000000e0: cc99 c0bd 9651 e1be 4db9 0fbe cd2d e4bd
000000f0: af0e 05bf d3eb b23d 2068 e5be 4e2d 41be
0.011559303 -0.21146463 -0.0026686061 -0.09780399 -0.3712397 -0.37287676 -0.06262505 -0.12357308
0.08150108 -0.108226724 -0.09703365 -0.3361018 -0.1752578 0.20851393 -0.03352127 0.0019157461
-0.3086411 0.01743451 -0.26996705 -0.18820965 -0.2797808 -0.09509753 0.011647699 0.02309449
-0.49890864 0.1986723 -0.14132601 -0.17675465 -0.47051677 -0.2800347 -0.2978544 -0.17632934
-0.19416948 0.02565929 0.036093738 -0.19835915 -0.1656126 -0.03821308 -0.35756502 -0.35876468
0.103001915 -0.12912211 -0.39450034 -0.42672727 -0.12548845 -0.22793956 -0.08741612 0.31307283
-0.36811215 -0.2413779 0.16359219 -0.55556166 -0.43692318 0.034046683 -0.32381967 -0.53566694
-0.094043344 -0.44007558 -0.1403553 -0.11141548 -0.5197553 0.08736386 -0.44806004 -0.18864939

fcAction_o.weight f4 [16, 2]
00000000: 3620 a9be 112e ccbd 9d6e f43d db6d c1bd
00000010: abc8 e2bb 5c6b 4cbe 24a8 3abf ab7a dc3e
00000020: 786b 9b3e 0f63 a33d 81d2 1dbc 563a f23d
00000030: a0df 913d 6c48 5dbe 60e0 513d 103e 613d
00000040: 2899 663f a530 1dbf 2ab2 47bd 6cf4 44be
00000050: 7c6b 413f 097c 1cbf 9d35 e0be 00d9 81be
00000060: 8da0 abbe 0cab 89bf d388 2d3f a761 433f
00000070: 5c19 bc3e 2f5a 79bf aee3 f2bd 8a59 2e3f
-0.33032387 -0.09969724 0.1193516 -0.094447814 -0.006920894 -0.1996283 -0.7291281 0.43062338
0.3035543 0.07977878 -0.009632708 0.11827533 0.07122731 -0.21609658 0.05123937 0.054990828
0.9007745 -0.6140235 -0.048753895 -0.19233865 0.75554633 -0.6112676 -0.43790904 -0.2536087
-0.33520928 -1.0755324 0.677869 0.7632088 0.36738098 -0.97403234 -0.11859833 0.68105376

fcAction_o.bias f4 [16]
00000000: 3dca 023d d7e2 013e a205 0e3e b30e a0be
00000010: f66d 923e 0326 ee3e 01f9 103e d0b6 eebd
00000020: 9ffe f43e 4e94 6e3e f481 e3be 6ac3 f8bc
00000030: b449 90be e691 d33c b3f8 11bf 0d1f 81be
0.03193115 0.12684189 0.13869336 -0.31261215 0.2859952 0.46513376 0.14157487 -0.116559625
0.4785051 0.23298761 -0.44435084 -0.030366618 -0.2818123 0.025826406 -0.5702011 -0.25219002
