MADDPG_agent1_0.pth (torch_old, 791863 bytes, 154 tensors)

bn.weight f4 [24]
000000 e0 e0 88 3f 7b 0b 97 3f f1 cf 91 3f 88 17 99 3f
       1.0693626 1.1800379 1.1391584 1.1960306
000010 36 0e 92 3f f8 da a0 3f 38 2b 71 3f d6 0d 96 3f
       1.1410587 1.2566824 0.9420657 1.1722972
000020 f6 b8 93 3f ea 9c 91 3f 9a da 8c 3f 24 c8 96 3f
       1.1540821 1.1376011 1.1004212 1.1779828
000030 7c bb 9e 3f 46 4c 8f 3f ed 55 96 3f 25 68 99 3f
       1.2400966 1.1195152 1.1744972 1.1984907
000040 2b 8b 8d 3f de 8c 9f 3f 2c 59 79 3f cc e9 a3 3f
       1.1058096 1.2464864 0.9740169 1.2805724
000050 68 e3 b0 3f 98 ae a3 3f cd 88 84 3f 59 96 99 3f
       1.3819399 1.2787657 1.0354248 1.1999007

bn.bias f4 [24]
000000 25 b3 44 be a6 81 c8 3d 99 19 e5 3d 16 83 bb 3d
       -0.19208963 0.097903535 0.11186523 0.09155862
000010 20 b4 e6 3c 68 16 b1 bd 00 e7 17 bd b5 f6 e0 3d
       0.028162062 -0.08646852 -0.037085533 0.10984556
000020 f4 b6 54 3c 8a 04 06 3e 22 a0 5a be 21 b6 2e bc
       0.012983073 0.13087669 -0.21350148 -0.01066354
000030 ed bd 46 bd b1 4b 17 3d 7e 7c 99 3d e2 74 c8 3d
       -0.04852097 0.03693742 0.07494448 0.097879186
000040 ae ff 49 bd e8 4a f9 3d e7 1c e7 3d 4e 55 de 3d
       -0.0493161 0.1217249 0.112848096 0.10856114
000050 b2 1b ce bd e5 53 1f 3e 10 7b d5 3d de c0 8f 3d
       -0.10063876 0.15559347 0.10423863 0.07019208

bn.running_mean f4 [24]
000000 46 8f 0c c1 ba 00 3f be f9 74 6e 3f c0 0a 96 bc
       -8.784979 -0.18652621 0.93147236 -0.018315673
000010 da 20 2e 3d 45 33 75 40 f9 74 6e 3f c0 0a 96 bc
       0.0425118 3.8312542 0.93147236 -0.018315673
000020 15 31 0e c1 de c1 4b be 10 3e 75 3f 9e 94 1b bc
       -8.886983 -0.19898173 0.95797825 -0.009495882
000030 3d 3e 0c 3d 2e cb 73 40 10 3e 75 3f 9e 94 1b bc
       0.034239043 3.809276 0.95797825 -0.009495882
000040 cf 02 10 c1 7c df 56 be e4 0c 70 3f 66 87 dd 3c
       -9.000686 -0.2098369 0.9376967 0.027042102
000050 6b f1 f5 3c 1c 02 72 40 e4 0c 70 3f 66 87 dd 3c
       0.030022344 3.7813787 0.9376967 0.027042102

bn.running_var f4 [24]
000000 60 31 0a 41 cd 2b 4c 3f c5 e0 57 43 02 bf 85 41
       8.637054 0.79754335 215.878 16.718266
000010 03 bc ec 41 27 9a 2c 40 c5 e0 57 43 02 bf 85 41
       29.591803 2.6969087 215.878 16.718266
000020 82 57 f7 40 bf ec 4f 3f 68 fa 5c 43 49 5f 88 41
       7.729432 0.8122062 220.97815 17.046526
000030 36 a5 f5 41 fa f2 32 40 68 fa 5c 43 49 5f 88 41
       30.70567 2.79608 220.97815 17.046526
000040 93 d3 d7 40 66 f0 51 3f 43 05 61 43 92 a6 8a 41
       6.744577 0.82007444 225.02055 17.331333
000050 f7 0e 00 42 54 e9 3f 40 43 05 61 43 92 a6 8a 41
       32.014614 2.9986162 225.02055 17.331333

fc1.weight f4 [32, 24]
000000 2e 45 4c 3e 0a 5c 70 be 26 ae 74 bc 98 bd f2 bd
       0.19948265 -0.2347261 -0.014934098 -0.118525684
000010 b8 9e 90 be e5 41 80 3c 4d 23 91 bc e4 fc de bd
       -0.28246093 0.015656421 -0.017717028 -0.10888079
000020 70 4e 7d 3e 09 2d 20 be e9 99 49 3d b0 88 81 3d
       0.24736953 -0.1564218 0.049219046 0.06324899
000030 69 6d 03 bc 5f 06 77 be b3 20 08 bd 05 69 28 3d
       -0.008021691 -0.24123524 -0.03323431 0.04111578
000040 2e ff 20 3e 23 56 2a be d6 60 9b 3c 94 6d 25 3e
       0.15722343 -0.16634421 0.018967073 0.16155082
000050 d1 00 00 be 8b 26 81 be b0 07 40 be f7 10 54 bb
       -0.12500311 -0.25224718 -0.18752933 -0.0032358745
000060 6a 6e 36 3d 46 52 28 bd e8 ba ff 3d 4c 7b 79 3d
       0.044538893 -0.041094087 0.124868214 0.0609086
000070 1f 1b cb bd cf 05 ac 3e c6 95 63 3d 41 93 1e 3e
       -0.09917282 0.33598182 0.055562757 0.1548586
000080 fd bc 6a 3e 88 cb 79 be 7f 94 31 be 3d 95 9f bd
       0.22923656 -0.24394047 -0.17341803 -0.07792137
000090 9d f0 9e 3e cb 45 cf 3d 28 d5 0c 3e a3 93 59 bd
       0.31042948 0.10120734 0.13753188 -0.053119313
0000a0 c0 7c 8f 3e 81 e3 42 be 10 0a 18 3e fb 21 ae be
       0.28024864 -0.19032098 0.14847589 -0.340103
0000b0 91 a2 3a 3d 80 93 26 3e 50 10 e3 bd 81 d2 95 be
       0.04556519 0.16267204 -0.11087096 -0.29262164
0000c0 19 00 3e bd 56 9b a5 bd ec 93 9a bd fc 41 3a 3d
       -0.046386812 -0.080862686 -0.07547745 0.045473084
0000d0 99 13 12 3e 43 6f 20 3d 54 51 a2 3e 32 6c 9d 3e
       0.14265288 0.039168607 0.31702673 0.3074661
0000e0 18 31 da 3c 3c 67 1d be 06 13 7d 3e 7d 36 35 3e
       0.026634738 -0.15371412 0.24714288 0.17696567
0000f0 41 e2 d6 38 0d db 5d 3e 17 a7 87 3e 89 66 98 3e
       0.00010246458 0.21665592 0.26494667 0.29765728
000100 a4 64 84 bd de 15 16 bc 03 a4 0e bd 4c b4 19 3e
       -0.06464508 -0.009160487 -0.034824383 0.15010184
000110 a6 1c 42 3b 74 67 09 bd be 05 64 3d 82 94 97 3d
       0.0029619127 -0.033545926 0.05566954 0.074013725
000120 8f 5d f9 3d 3b 06 e6 3c e4 98 d6 3d d0 dd 7b 3c
       0.12176048 0.028079143 0.1047838 0.015372708
000130 97 f3 4e 3e 6a d9 7c 3e e8 13 12 be 73 d8 8d 3d
       0.2021011 0.24692312 -0.14265406 0.0692605
000140 6f ae fe bd 0d 60 21 be 9c ad 2f bd c2 a5 78 3a
       -0.12435614 -0.15759297 -0.042890176 0.0009485149
000150 5a 2d 9d 3e 24 f5 0e be 31 af 8d be e0 bd 22 3e
       0.30698663 -0.13960701 -0.27672723 0.15892744
000160 58 db 38 bd 47 ac d6 3d e1 e0 9e 3d a8 c2 54 be
       -0.045131058 0.10482078 0.07757736 -0.2077738
000170 cc 82 9b 3e dd 93 85 bd c8 05 cf bd be ad 13 be
       0.30373228 -0.06522343 -0.101085246 -0.14421746
000180 72 68 06 3e 30 d3 79 3d 32 bc b5 bd f5 4f 7b be
       0.1312578 0.06099242 -0.08873786 -0.2454222
000190 4c d5 8a 3e 9a fe 58 3c 2b f2 f7 3d 84 df c2 bd
       0.27115858 0.0132442955 0.12106737 -0.095152885
0001a0 39 b8 9f bc 1d 96 46 be bd 85 6e 3e 8b b1 29 be
       -0.019497024 -0.19393201 0.23293205 -0.16571634
0001b0 3a 21 26 3e a8 ab 2b bc 3f 30 99 3d f5 66 1b bd
       0.16223612 -0.010477938 0.07479905 -0.037939984
0001c0 aa 07 ed 3e c9 f1 03 be ea 1e 94 bb 96 33 01 3d
       0.4629491 -0.12885202 -0.004520287 0.031543337
0001d0 8f 35 64 3e 07 09 b3 bd 11 67 2a be 89 b9 8f be
       0.22286056 -0.08741956 -0.16640879 -0.2807124
0001e0 82 e1 04 be ec 88 36 3e 1e 2c 62 3e c7 de 33 3c
       -0.1297665 0.17825669 0.22087142 0.010978407
0001f0 fb 26 bc 3d a1 86 8b be 40 cf 43 be 07 55 d1 3d
       0.091871224 -0.2725115 -0.19122028 0.10221296
000200 31 1e b3 3d 0d 4a ae 3e 25 95 26 be f6 97 bc 3c
       0.08745993 0.3404087 -0.16267832 0.02302168
000210 93 16 5d 3e f2 aa 25 3e 1e d1 02 3e 61 73 12 3e
       0.21590643 0.16178492 0.12775084 0.14301826
000220 10 9c 1b 3c c6 50 e5 3d fa 97 17 bd 8a cb 92 be
       0.009497657 0.11197047 -0.03701017 -0.28670913
000230 0a 08 d0 3c 14 e8 f9 3d 6e 94 36 bd de 86 3e bd
       0.025394458 0.122024685 -0.044575147 -0.046515338
000240 91 a6 d1 3d f3 46 e6 b9 d1 a1 24 3e 94 4a 0c 3e
       0.10236848 -0.0004392188 0.16077353 0.13700324
000250 af d3 42 3d 85 2e 72 3e e8 a1 16 bc 77 fc 8c 3e
       0.04756516 0.23650558 -0.009193875 0.27536365
000260 43 9b 3c 3d 10 df 26 3c bd 42 0f be ec 4f 0f be
       0.046046507 0.010185018 -0.13990302 -0.13995332
000270 e9 47 0f be a3 62 f6 3b 9e 15 6d 3e c6 6a 06 bd
       -0.13992275 0.0075190826 0.23152778 -0.03281667
000280 88 16 ef bd 10 71 24 3d fe d3 dc 3d 39 43 65 3d
       -0.11674219 0.040146887 0.10782622 0.05597231
000290 c1 ec fb bd 4c 11 d0 3d 78 2c 9f bd bc 68 02 be
       -0.123010166 0.10159549 -0.077721536 -0.12735265
0002a0 ab f5 4f be 04 22 1f be 15 43 8a be c4 8f 19 3e
       -0.20308559 -0.1554032 -0.27004305 0.14996248
0002b0 24 5a 8c bc fa 9f 6a 3e cc ae 9e 3b ba 60 85 3e
       -0.017132826 0.22912589 0.0048426148 0.2605036
0002c0 66 83 54 3d 51 e3 6a bd 8d f2 4a be 4b 14 a3 3e
       0.051883124 -0.057345692 -0.19819088 0.3185142
0002d0 fd ef ff bb 61 25 50 3d cc 6e 69 be ad 97 e0 3d
       -0.0078105913 0.050816897 -0.22796172 0.1096643
0002e0 73 52 73 be cd 20 31 3e 3c e7 56 be 25 4f 7c bc
       -0.2376192 0.17297669 -0.20986646 -0.015399729
0002f0 7b 31 fd 3d 8c 56 e6 bd b3 ae f2 3c 65 bc 97 3d
       0.12362953 -0.11246976 0.029624319 0.0740898
000300 b5 4d fb bd 89 91 08 3d cc 27 b1 3d bf 18 27 bc
       -0.12270681 0.03334192 0.08650169 -0.010198771
000310 ad 05 d8 bc 06 15 a3 3e 32 8e 0d 3e 49 74 77 bb
       -0.026369894 0.31851977 0.13823774 -0.003775852
000320 97 82 f3 3d cd a6 66 bd 97 bb 52 3e 87 fb 9f bd
       0.118901424 -0.056311417 0.20579372 -0.07811647
000330 8a 77 95 bd c7 34 06 3e 42 84 e3 3c 10 7a 4c 3b
       -0.07298191 0.1310607 0.027773026 0.0031200685
000340 f7 c4 f2 3d 61 08 3b 3e aa 13 be bd a1 f5 d1 bd
       0.11853974 0.18264915 -0.09281094 -0.10251928
000350 bb d7 e0 be d5 c3 91 3e f4 80 56 3d 3d 4e 2e bc
       -0.4391459 0.2846972 0.052369073 -0.010638771
000360 fb c5 e4 3d 4b 04 5d be 04 30 41 be f3 9e 3b 3e
       0.11170574 -0.21583669 -0.18865973 0.18322353
000370 e0 36 fd 3d be 11 8c 3e 8c a1 87 be ce dd 12 be
       0.12363982 0.27357286 -0.26490438 -0.14342424
000380 40 63 89 3d fa df 41 be d3 de 44 be 6d d4 41 3e
       0.067083836 -0.18933097 -0.19225626 0.1892869
000390 ec c0 d3 3e b8 3d 89 3e 9e 21 43 be 4e fe fd bd
       0.41358125 0.268049 -0.19055793 -0.124020204
0003a0 f2 01 52 3d a4 fd 9c bd f2 a7 31 be 38 c5 0d 3e
       0.051271386 -0.076655656 -0.17349222 0.13844764
0003b0 54 04 eb 3d 82 ce 40 3e 43 02 4c 3d 0b 73 8d bd
       0.11475435 0.18828776 0.049806844 -0.06906708
0003c0 0c a5 87 be cc de c9 3d 8a 20 14 3e 0b 0f e2 3d
       -0.26493108 0.09856948 0.14465538 0.110380255
0003d0 d9 b5 84 3e b0 74 27 bd de fe 1d be 8e 25 ce bc
       0.2591999 -0.040882766 -0.15429255 -0.025164392
0003e0 bd da 48 be 5b 5e ab 3e 30 d6 47 3e f1 9e c0 bd
       -0.19614692 0.33470425 0.195153 -0.09405316
0003f0 44 51 64 3e cf 46 10 3e bf fd b2 3d 56 8d db bd
       0.22296625 0.14089511 0.087398045 -0.10720317

fc1.bias f4 [32]
000000 c8 6f 0b bd 43 2c 27 3e 86 b7 92 bd 61 cc 02 be
       -0.03404215 0.16325478 -0.071639106 -0.12773277
000010 2d ac 82 be ad 02 89 3e b7 68 c3 3e f7 d7 27 bd
       -0.25521985 0.26759854 0.3816583 -0.040977444
000020 e1 d9 47 3d 5d ae 06 be 6c ae d5 3d be ea 20 bd
       0.04879177 -0.13152452 0.10433659 -0.039286368
000030 4f 9f 03 be 19 5b 80 3d 96 9b 12 3d 44 c6 26 3d
       -0.1285374 0.062673755 0.03579291 0.040716425
000040 d8 c7 4f be c9 d7 ca 3b 30 bb cd bd f3 a9 89 bd
       -0.20291078 0.0061902744 -0.10045469 -0.06721868
000050 88 25 3c 3e a9 ee de 3d 6a 1f c4 39 a9 a1 02 be
       0.18373692 0.108853646 0.00037407439 -0.12756981
000060 c8 53 0c 3e df a8 a5 3d 7b 60 c8 3e fd 8a c1 3c
       0.13703835 0.0808885 0.3913611 0.023625845
000070 6e b5 58 3e 3d 54 13 bc 03 c4 99 3d 23 66 cf bd
       0.2116296 -0.008992252 0.075080894 -0.10126903

fc2.weight f4 [64, 32]
000000 cf 40 4b bd 4e 34 90 3c d4 fb 2e be 8c bc 8c 3e
       -0.049622353 0.017603066 -0.17088252 0.274876
000010 cc b3 ae bc 51 c8 cb bd c1 86 af 3d 88 f7 d8 3d
       -0.021325968 -0.09950317 0.08570624 0.10594088
000020 17 83 cd be 8e 6d 81 be a7 d8 76 be 3a d6 8a be
       -0.40139076 -0.25278896 -0.24106084 -0.27116567
000030 b0 ba 50 bc ef cc b6 bc 6a 26 4a be 40 25 92 3b
       -0.012739822 -0.022314517 -0.19741216 0.004460007
000040 17 a3 fb 3d 18 df 45 3e 71 d7 73 3a bf 22 34 3d
       0.12286966 0.19323385 0.00093018176 0.04397845
000050 a2 79 51 3e 34 fe 01 3e ea e4 7e be 57 a4 29 3e
       0.20456555 0.12694627 -0.24892011 0.16566597
000060 93 9e 97 bd a4 9e 4b be 79 02 d1 bc 80 20 53 bd
       -0.074032925 -0.19884735 -0.025513874 -0.051544666
000070 1a 56 44 be 07 d0 5b 3d 57 61 9e 3d d1 60 13 3e
       -0.1917347 0.053665187 0.0773341 0.14392401
000080 14 02 73 3d 99 ff 5b be e4 cb f5 bd 28 6c 05 be
       0.059328154 -0.21484222 -0.1200178 -0.1302954
000090 ac 2c 92 3e 9e e4 bb be f2 62 a9 3d 6f c2 10 3e
       0.28549707 -0.3669786 0.082708254 0.1413667
0000a0 cb 51 46 3e f0 2b 8b bb 0b 4a 11 bd b7 ce bf 3d
       0.19367139 -0.004247181 -0.035471004 0.093655996
0000b0 6e f8 8c 3e c8 1d 22 bc 9b 4d d2 3c 7f ac 4f bb
       0.27533287 -0.009894796 0.02567177 -0.003168851
0000c0 0b e3 bf bd c8 96 0f 3e 95 40 14 3d ed 82 53 bd
       -0.09369477 0.14022362 0.036194403 -0.051638532
0000d0 bf ff 13 be e0 56 d6 bc 6d 03 01 be 01 a4 1d 3e
       -0.14453028 -0.026164472 -0.12598963 0.15394594
0000e0 20 a7 1d be bf b9 86 be 2d cc d1 3b 53 34 ad bc
       -0.15395784 -0.26313588 0.0064025135 -0.021143114
0000f0 52 c2 5a 3e 23 d3 0a be a2 06 36 be 16 cd 40 3e
       0.2136319 -0.13557105 -0.17775968 0.18828234
000100 69 ca 81 3d b3 9b b8 3d b3 c1 d5 bd 9a fc 91 be
       0.06337435 0.09014072 -0.10437336 -0.28513032
000110 08 d5 30 bc 95 95 0d 3e f0 c0 87 be c2 05 ec bd
       -0.010792978 0.13826592 -0.26514387 -0.11524536
000120 fa 9c 8b bd 83 a8 07 3e 63 21 f6 3d 07 46 12 bd
       -0.0681705 0.13247876 0.12018087 -0.035711315
000130 43 0f 44 be 61 f9 18 bb 4b 65 69 be fd d4 0d be
       -0.19146447 -0.0023342 -0.22792546 -0.1385078
000140 08 cc fc 3c da 35 e6 bd b5 ce 9d 3e 07 eb 3f 3e
       0.030859008 -0.1124074 0.30821767 0.18742
000150 a8 05 71 3e c5 c0 0b be 6c 5c ae 3c 50 6f 89 3d
       0.23537314 -0.13647754 0.021284305 0.06710684
000160 73 23 76 bd 7e 37 20 3e 0d bf 6b 3e 03 4d 40 3e
       -0.0600924 0.15646169 0.23022099 0.18779378
000170 b6 bb ef 3d 3e a2 00 3e f0 41 2b 3c ef 2b 9d bd
       0.11705725 0.1256189 0.010452732 -0.07674395
000180 df 09 95 3c c4 e3 79 3e e6 4e 10 be 6c f9 ad bd
       0.018193183 0.24403292 -0.14092597 -0.08494839
000190 96 a2 23 be 2a e7 bb bd b4 20 0c be 56 62 21 be
       -0.1597999 -0.091749504 -0.1368435 -0.15760168
0001a0 1b b5 ab 3e fd 14 a2 bd da 61 01 3e 68 4a 08 be
       0.3353661 -0.079141594 0.12634984 -0.13309634
0001b0 53 e5 4c be 9c 79 21 3e 06 fe 62 be b2 76 75 3d
       -0.20009355 0.15769047 -0.22167215 0.05992765
0001c0 9b f9 15 3e ff 30 cc 3d dc 2f e7 3d e8 0d 42 3e
       0.14645998 0.09970283 0.11288425 0.18950617
0001d0 3d a0 43 3e 79 88 bb bc ef 42 f1 bd f7 f7 77 bd
       0.19104095 -0.022892224 -0.11780345 -0.060539212
0001e0 1f df 62 bc fc 3a 7d 3d d4 ea 9b bc f9 50 3a 3e
       -0.0138471415 0.06182383 -0.019032873 0.18194951
0001f0 3d 40 ed ba 86 ed 8c bd 74 70 a5 3d e0 fc 54 3e
       -0.001810081 -0.068812415 0.08078089 0.20799589
000200 9f 51 0a 3e c5 c9 0b 3e 48 7b a7 ba e0 30 1f be
       0.13507698 0.13651188 -0.001277783 -0.15545988
000210 fd 5b 80 bd 98 a2 29 3e a3 8c c5 bd ed 12 bb 3d
       -0.06267545 0.16565931 -0.09645965 0.09134469
000220 9e c5 d7 3d 6f 02 18 3d 76 4c d2 3d cc 18 4e 3c
       0.10535739 0.037111696 0.1026849 0.012579154
000230 99 77 f6 bd 50 b3 e6 3d 94 46 d2 3d 9b 97 5b 3e
       -0.1203453 0.1126467 0.10267368 0.21444552
000240 7a 4a 89 3e fe 07 07 3d cc cc e6 bd 9e 5a 0c 3d
       0.26814634 0.032966606 -0.11269531 0.034266107
000250 da de 36 bc 3f b1 9a 3c c0 b3 35 3e ab bb cc bd
       -0.01116153 0.018883346 0.1774435 -0.09996732
000260 83 58 bc 3d 24 c9 3a 3e 57 cd 51 bd 49 58 c1 bc
       0.0919657 0.18240792 -0.051221218 -0.023601668
000270 26 fd 11 3e ca c9 98 3e 63 a1 56 3d 25 aa 85 bd
       0.14256725 0.29841453 0.052400004 -0.06526593
000280 65 4f e7 3b d6 e1 1a bd e4 25 31 bd 7f 69 b2 bd
       0.007059025 -0.03781303 -0.043249026 -0.08711528
000290 25 fc 47 3e 09 38 57 3e e3 cf 84 3d cd ae 65 3d
       0.1952978 0.2101747 0.06484964 0.056074906
0002a0 be 65 66 3e 61 8f b5 bd a8 72 2e 3e dc de cf bd
       0.22499749 -0.08865238 0.17035925 -0.10149929
0002b0 26 81 1d 3d ac f1 83 bd 6c 4a 9e 3c 85 10 d7 bd
       0.038453244 -0.064425796 0.019322596 -0.10501198
0002c0 6e e4 51 3e 03 0b b9 bd 45 87 52 3e 62 84 41 3e
       0.20497295 -0.090353034 0.20559414 0.18898156
0002d0 ce 10 c1 3c 12 b2 c3 3d 45 cf 13 3e c2 92 45 3e
       0.023567583 0.095554486 0.14434536 0.19294265
0002e0 d7 4b b7 3c 05 8a e6 3d 9a 41 3a bd 05 f7 99 3d
       0.02237503 0.11256794 -0.04547272 0.07517818
0002f0 33 1b 1b be 33 e1 f5 3c d2 93 36 3e 60 5d 99 3e
       -0.15147094 0.03001461 0.17829826 0.29954052
000300 f9 a0 42 3e 7a 83 8a bd 95 db c4 bb 3c c9 a0 3e
       0.19006719 -0.067633584 -0.0060076215 0.3140353
000310 fe 37 3d 3e 32 9f 77 be 93 3c 52 3d 97 e3 d9 3d
       0.1847839 -0.24181822 0.0513273 0.106391124
000320 c7 93 8d bc 36 06 0b bd 3c 0f 1b bd b2 20 9b bc
       -0.01728238 -0.03394147 -0.037856326 -0.018936489
000330 90 bc 84 3d db 79 15 3e 85 a6 86 3d 11 54 93 bd
       0.06481278 0.14597265 0.0657473 -0.07193769
000340 11 0d 51 3d b7 cc 73 be 1c 9e 45 3e 55 8d 19 3e
       0.05103785 -0.23808561 0.19298595 0.1499532
000350 60 f8 68 3e 6e e5 8a 3d 99 89 de bc ac 14 c0 3d
       0.22750998 0.067820415 -0.027165221 0.09378943
000360 36 d8 1c 3e b0 31 39 be fb c2 b3 3d fb 25 60 bd
       0.15316853 -0.1808536 0.08777424 -0.05472372
000370 5d 08 45 be 32 f1 25 3d c3 51 89 bd af 47 69 be
       -0.19241472 0.040513225 -0.06705048 -0.22781251
000380 ca 58 bb 3d 2e f5 b6 3d 9d 10 18 bc 51 8e 0d be
       0.091477945 0.08933483 -0.009281305 -0.1382382
000390 55 87 6c be 1b f0 0b 3c 03 fd c5 bc 9a 95 3d bd
       -0.230985 0.008541132 -0.024168497 -0.04628525
0003a0 80 67 6e 3e 59 09 25 3c 2d bb 14 3e 19 c0 86 bd
       0.2328167 0.010073029 0.14524527 -0.065796085
0003b0 c7 24 23 be 77 c3 3f 3d 92 44 0b be b5 20 b6 3d
       -0.15931998 0.04681727 -0.13600376 0.08892957
0003c0 12 cb 7d bc 06 17 4e 3e 9d 87 d1 bd f7 29 51 3e
       -0.01549031 0.2012597 -0.10230944 0.20426165
0003d0 49 71 2b 3e 84 9a b2 3d bc 77 e2 3d b9 49 02 bd
       0.16742434 0.08720878 0.11057994 -0.03180859
0003e0 d9 dd d4 3c a4 cc 9e 3d dd 08 98 bc ff 01 27 be
       0.025984691 0.07753876 -0.018558914 -0.16309355
0003f0 8f ae 32 3e 04 e7 c9 3d 3a 7b dc 3d 1b 12 85 3d
       0.17449401 0.09858516 0.10765691 0.06497594

fc2.bias f4 [64]
000000 5c d3 85 be 48 a8 d9 3d c6 9a 12 be 59 69 c7 bd
       -0.26137817 0.106278 -0.14316854 -0.0973689
000010 52 95 bb bd 5b de 02 be e7 6a 59 bd 2e d4 3d 3d
       -0.0915934 -0.12780134 -0.053080466 0.04634493
000020 55 56 36 3e 0e 20 c7 3d 56 05 8e 3d 63 a7 94 3d
       0.1780637 0.09722911 0.069346115 0.07258489
000030 23 06 2d 3d 54 5d 76 3e 35 e6 8f bd e4 14 d8 3b
       0.04224218 0.2405904 -0.070263304 0.006594287
000040 2a e8 b5 bd 9c 80 90 bd aa 38 1e bd 53 d2 09 be
       -0.088821724 -0.0705578 -0.038628258 -0.13459139
000050 3d 7e 4c 3e e2 1d a4 3d 01 b7 fb 3d 9d 3c 26 3d
       0.19970031 0.08013512 0.122907646 0.04058515
000060 9f 9d 1d 3d 08 c4 00 be e7 2a 92 be 7e 61 3c 3d
       0.038480397 -0.1257478 -0.28548357 0.045991413
000070 4a a0 34 3e 81 cd ac bc da 96 d2 bb 73 d6 88 3d
       0.1763927 -0.021094086 -0.0064266743 0.06681528
000080 90 eb 45 3e 3b 7a 0e bc 35 99 81 3b af a8 b0 3d
       0.19328141 -0.008696134 0.0039550313 0.08625924
000090 52 a4 63 3e b1 af 53 3e 8d 04 73 bd 11 ab 4e be
       0.22230652 0.2067249 -0.05933051 -0.20182444
0000a0 3d 54 6f 3e c9 cf 33 3d d4 ca aa bd 31 4a 0f bd
       0.23371978 0.04389933 -0.08339468 -0.034982864
0000b0 17 8f e2 3d 67 bc f6 3d fc fb 4b 3e 1b e7 26 3d
       0.110624485 0.12047654 0.19920343 0.040747743
0000c0 cf d3 d1 bc e4 e3 63 bc 38 de 3e 3e 27 df 14 be
       -0.025613694 -0.013909314 0.18639457 -0.14538251
0000d0 ec ef 17 3e 06 b3 f2 bc 9b 45 77 3c 92 89 34 3e
       0.14837617 -0.02962638 0.015092279 0.17630604
0000e0 da 13 a6 bd 6f 07 ae bc 09 e4 b5 3c ea 7e ef 3d
       -0.08109255 -0.021243779 0.022203462 0.11694129
0000f0 18 09 68 3e 77 ba 38 be 66 47 39 3e 16 30 99 bc
       0.22659719 -0.1803988 0.18093643 -0.018699687

fc3.weight f4 [64, 64]
000000 8d bd 43 be 51 a1 bc 3d 95 ed 3e 3e e7 dc 8b 3d
       -0.19115277 0.09210456 0.18645318 0.06829243
000010 d7 a0 ea 3b 83 88 bc 3b 2d 50 a5 bc 9b b0 34 3e
       0.007160287 0.005753578 -0.020179832 0.17645495
000020 01 95 0c be 35 13 95 3d 16 b8 bb 3d a8 42 21 be
       -0.13728715 0.07279054 0.09165971 -0.15748084
000030 18 18 85 3d b4 35 8b 3e f6 de c6 3d 5d 5f 94 bc
       0.06498736 0.2718941 0.09710495 -0.018111879
000040 19 78 91 3c 5c fb d7 3c 52 e6 5c be 40 ab 42 3e
       0.017757462 0.026364975 -0.21572235 0.19010639
000050 f4 c2 69 be 10 75 8c 3c 94 2f 83 3d 64 0b a9 3e
       -0.22828275 0.017145663 0.06405559 0.33016503
000060 ef 18 26 bb 76 ee 3a be 79 79 34 be df c5 63 bc
       -0.0025344451 -0.18255028 -0.17624463 -0.013902157
000070 35 f2 b8 bd 84 2d 19 3d 49 7a fe 3d 4c 0e 44 3e
       -0.09030572 0.037396923 0.12425668 0.19146079
000080 3e 0f 41 3e d6 d6 53 3e 15 88 c7 be 8d 44 69 3c
       0.1885347 0.20687422 -0.3897101 0.014237535
000090 20 ef 14 be a5 f5 7a bd 12 85 63 be a1 60 ba 3e
       -0.14544344 -0.06126942 -0.22218731 0.36401847
0000a0 50 13 c0 3d 45 99 6f bd d6 ae d5 be cf 87 fa be
       0.093786836 -0.05849578 -0.41734952 -0.4893174
0000b0 5a 09 3b 3e 83 dd c7 3e 48 b9 87 3c eb e7 55 3e
       0.18265286 0.39036188 0.016567841 0.20889251
0000c0 ca ba 21 bd f2 56 b2 bd b1 8f 6e bd 9a 08 96 3d
       -0.039484777 -0.0870799 -0.058242504 0.07325859
0000d0 e6 98 72 3e 15 6c 27 be 98 c1 ab be ff 12 b6 3d
       0.23691139 -0.16349824 -0.33546138 0.08890342
0000e0 0e 30 34 be 76 92 2d 3c 67 a6 5d be 60 e7 5d 3c
       -0.17596456 0.010594001 -0.21645509 0.013543934
0000f0 3d 1d 3c 3d a9 ae 93 3d be e3 6b bd 15 25 14 3e
       0.04592632 0.07211048 -0.05759024 0.1446727
000100 fa b5 d0 3c f8 f1 cd bd 4d 71 7c bd 8e 23 59 3d
       0.025477398 -0.100559175 -0.06163149 0.053012423
000110 cd 3a b1 bd ce ec 81 bd d9 7b 03 bd 3b bc f5 bd
       -0.086537935 -0.06343995 -0.032100532 -0.11998793
000120 7d 70 9f bd 7a c6 22 bd 60 ee ff bb 6d fc 2b bd
       -0.07785127 -0.039740063 -0.007810399 -0.04198878
000130 cd 72 a5 3c f0 2f 04 be 67 2c b5 bc e0 e1 f7 bd
       0.020196343 -0.12908912 -0.0221159 -0.12103629
000140 7d 37 51 3d 97 94 de 3d 5c 32 99 bd 2e c4 d8 bd
       0.05107831 0.10868185 -0.074803084 -0.10584293
000150 dc 46 e5 3d c8 25 9e 3d 47 96 93 3d a6 1e b7 bd
       0.11195156 0.0772205 0.072063975 -0.089413926
000160 85 20 0f 3d 34 e0 44 3c c9 de b8 3d b2 6d 87 3d
       0.034943122 0.012016345 0.09026868 0.066127196
000170 b7 b9 52 bc a1 ed 4e 3d c0 7c fa bd 7e 03 fd 3c
       -0.012861661 0.05051959 -0.122308254 0.030885454
000180 91 76 68 bd 3a b4 a9 3d ef 16 c7 bd 06 90 d7 bd
       -0.0567537 0.082863286 -0.09721171 -0.10525517
000190 39 98 cd bd f6 eb b9 bc 2c 90 c2 3b bb 30 d4 ba
       -0.100388 -0.022695523 0.005937597 -0.0016188839
0001a0 46 d6 67 3d 01 f5 f5 bd 17 6e 88 bd 33 8f 14 bd
       0.05660083 -0.120096214 -0.06661623 -0.036269378
0001b0 3b f7 5d 3b 8e 61 8b bc 87 a5 5c 3d c4 e6 7f 3d
       0.0033869285 -0.017014291 0.053868797 0.062475935
0001c0 46 a3 3a bc 03 fa 0f 3c f4 89 ba bc cb 4c 31 3c
       -0.0113914665 0.008787635 -0.02277086 0.0108215315
0001d0 fd af 14 bd b3 d2 db bc 07 7d ca bd e2 6f da 3d
       -0.036300648 -0.026833868 -0.09887128 0.10665871
0001e0 44 ba 89 3d 69 23 d0 bd 84 27 bf 3b 09 91 8c bd
       0.067249805 -0.10163004 0.005833568 -0.06863601
0001f0 0d 8a bc bc 87 29 ec bd 56 83 d0 bc 1e 61 86 bd
       -0.023015046 -0.11531358 -0.02545325 -0.065614924
000200 64 8c 20 be a3 da 89 3e a2 ec 24 3e 4b 8d 58 3e
       -0.15678555 0.2692462 0.16105893 0.21147649
000210 d2 d9 3a 3d 39 03 ea 3b fd 8d 38 3d 83 9c c2 3d
       0.045617886 0.0071414975 0.045057286 0.095025085
000220 a5 1f ff 3d 57 6f f8 3d 64 c8 c8 bd 53 fc ca 3d
       0.124572076 0.121306114 -0.098038465 0.09911408
000230 80 e7 9b 3d 7b 83 f4 bc 77 a3 70 3d 35 e9 25 3e
       0.076125145 -0.029847851 0.058749642 0.16202243
000240 30 28 cc bc 3a e7 11 3e a2 91 24 3e 99 10 e5 bd
       -0.024921507 0.14248362 0.1607118 -0.111848064
000250 cb b4 2c 3d 59 d4 7f 3d 43 8c 2c bd 10 f3 32 3e
       0.042164605 0.06245837 -0.04212595 0.17475533
000260 31 ba fe bc 65 9c 51 3e 22 4e 96 3d cc 30 42 bd
       -0.031094642 0.20469816 0.073391214 -0.047409818
000270 cc e0 32 bc ba 58 c9 3d a3 6d 6e 3d ae 77 20 bd
       -0.010917854 0.098313764 0.058210026 -0.039176635
000280 27 a9 45 3e fc 3d 1a be 9a c6 16 be cd 69 07 3e
       0.19302808 -0.15062708 -0.14724198 0.13223954
000290 65 d9 0a 3d 63 6e ce 3d 4f 9a 78 bb d2 5b 93 3e
       0.03389873 0.10079648 -0.0037933772 0.2878099
0002a0 cd 45 b3 bd 4d be 01 3e 96 e9 80 be 98 42 49 bd
       -0.08753548 0.1267025 -0.25178212 -0.049135774
0002b0 0e 34 38 3e e9 5d 02 bd 9a d0 7d 3d 5c e1 f1 3d
       0.17988607 -0.03182784 0.061966516 0.11810562
0002c0 8d 39 96 3d 28 7a 21 be 34 8a d6 bc c0 c1 af bd
       0.07335196 -0.15769255 -0.026188947 -0.08581877
0002d0 29 61 ab 3c c2 f2 16 be 7c 87 c3 3d 3b 99 c6 3d
       0.020920353 -0.14741042 0.09547326 0.09697195
0002e0 66 de 9e 3c d1 19 40 bd b2 86 93 bd e6 9d 12 3e
       0.019393157 -0.04689962 -0.072034255 0.14318046
0002f0 57 b2 37 bc 05 a9 e8 be 2e 40 ed bc dc 9e 05 3e
       -0.011211953 -0.45441452 -0.028961267 0.13048881
000300 d6 b0 86 3e 66 d7 07 be 60 12 68 3d 75 7c 0d be
       0.2630679 -0.13265762 0.05665815 -0.13817008
000310 bc d4 26 3c ef 13 12 bd 1a 13 c6 3c 6e 16 08 bd
       0.010182556 -0.03566354 0.02417903 -0.033224516
000320 d9 1f 12 3e 69 03 73 3e 32 ae 7c 3d 0d 16 36 3e
       0.14269961 0.2373177 0.061689563 0.17781849
000330 f1 31 4b 3d 7f 44 b4 bd e2 16 98 3c 17 6b 9c bb
       0.049608175 -0.08802127 0.018565599 -0.0047735083
000340 78 4d b0 bc 33 53 c9 3d e6 8e 2d 3d fd 35 0e be
       -0.021521315 0.09830322 0.042372607 -0.13887782
000350 ef 4d 9c 3d 5f 37 3a be d2 6a 88 bc 0f 27 1f be
       0.07632052 -0.18185185 -0.016652498 -0.15542243
000360 38 38 f5 bc 93 dd 83 3e c8 5e 2c 3e 39 29 30 bd
       -0.029934034 0.25754985 0.16833031 -0.043008063
000370 61 15 32 3c 56 86 96 3e 44 c7 cb 3d a2 a0 b8 3c
       0.010869355 0.29399365 0.09950116 0.022537533
000380 1f 10 a0 3b 54 22 34 be 07 10 49 3e 8c 8c ed 3b
       0.0048847343 -0.1759122 0.1963502 0.0072494205
000390 37 ed 8a 3d 10 9d 1e 3d fa 5c 5b 3e 5f db 5f be
       0.067835264 0.038724005 0.21422186 -0.21861027
0003a0 0f 00 b2 3d a7 9f 28 3d 23 b2 b5 3d ad 12 5f 3d
       0.086914174 0.04116788 0.088718675 0.05446117
0003b0 50 b1 e7 bb 30 52 a6 be c8 78 07 3e d5 ae 96 3c
       -0.007070698 -0.3248458 0.13229668 0.018393913
0003c0 67 83 69 3d e6 e7 37 3e a1 17 a5 3d cd ad de bc
       0.05701008 0.17959556 0.080611475 -0.027182484
0003d0 4b 1c 1c bd 4c 63 36 3e 90 09 7f 3e 4e e9 ca bd
       -0.03811292 0.17811316 0.24905992 -0.099077806
0003e0 f3 11 8e bd 0f 80 77 bc 10 59 34 3e bd b9 b3 3d
       -0.06937017 -0.015106215 0.176121 0.08775661
0003f0 6c 18 8b 3d fd 5b a9 bd c9 0e 55 3e 9b e3 bf bd
       0.067917675 -0.082694985 0.20806421 -0.09369584

fc3.bias f4 [64]
000000 31 7c 5e bd 13 1f c3 bc 1c d7 8e 3d c7 68 bc 3c
       -0.054317657 -0.023818528 0.069746226 0.02299918
000010 99 ad 9e 3c d4 1e 99 3d 03 77 ab 3d 5a 11 22 3d
       0.019369887 0.07476583 0.08372309 0.03956733
000020 b1 3a 05 3d 51 c2 dd 3d c7 6b 23 bd 70 29 61 bd
       0.032526676 0.108280785 -0.039897706 -0.05497116
000030 ed 5f 54 bd 87 e3 9d 3d e2 8b c6 3d db c7 ef 3c
       -0.051849294 0.07709413 0.09694649 0.029270103
000040 ee 27 fc 3d 82 6f b7 3d 78 77 c6 3c 19 60 03 3d
       0.123123035 0.08956815 0.024226889 0.032074068
000050 13 04 1c 3e 51 49 fd 3d f4 b3 1d 3e 03 b3 a3 bd
       0.15235929 0.123674996 0.15400678 -0.07993128
000060 14 c0 b9 3b ad b9 79 bd 29 45 eb 3c 36 61 92 3d
       0.0056686494 -0.06096809 0.028719502 0.07147448
000070 27 10 4b 3a 80 5f 4d 3d b8 cb 98 bd be 4d 27 3e
       0.00077462423 0.050139904 -0.07460731 0.1633825
000080 17 20 8a bd d4 46 f9 3d 05 9d 07 3e 13 8a 90 3d
       -0.06744402 0.121717125 0.13243492 0.070575856
000090 d7 80 0c 3e 25 6a ae 3d 67 36 a5 3c 77 bd 99 3d
       0.13721023 0.08516339 0.020167543 0.07506841
0000a0 a3 f8 35 bc dd 1d a5 3d 8f 1a b0 3d 6d cd f9 3d
       -0.011106643 0.080623366 0.08598816 0.12197385
0000b0 c8 3e ce bd 1a 82 ac 3d b5 0a ae 3d f2 3e e8 3d
       -0.10070568 0.084232524 0.08498136 0.11340131
0000c0 3b 5b fa 3d 2c c4 32 3d dd 64 65 bd 7a 9f 70 3d
       0.12224432 0.043644115 -0.056004394 0.05874584
0000d0 ab a1 36 3d 88 13 b9 3d 06 bf ca bb 1a 16 e7 3c
       0.044587772 0.090369284 -0.0061873225 0.028208781
0000e0 a9 a1 06 be bf 0a e5 3c 7e 1e e2 3d 8e af 85 3d
       -0.13147606 0.027959226 0.11040972 0.06527625
0000f0 42 79 42 3d 4c 47 f0 3d 64 41 61 3d a9 0b aa bc
       0.04747892 0.11732349 0.054994002 -0.020757513

fc4.weight f4 [2, 64]
000000 de a2 28 bf 11 55 1c 3d be 09 11 be 95 31 4e 3e
       -0.65873516 0.038167063 -0.14163873 0.20136102
000010 8b 82 39 3e 56 bb 26 3e b6 a0 5c 3e 03 10 b4 bd
       0.18116204 0.162824 0.21545681 -0.087921165
000020 76 b7 82 3e 9c 5e 38 3e 42 10 a0 be 4d 24 20 3d
       0.25530595 0.1800484 -0.31262404 0.03909712
000030 90 68 3c 3e 9c 49 b6 3d 6e 69 5d 3e 88 88 c9 bd
       0.18399262 0.089007586 0.2162225 -0.098404944
000040 18 3f 98 3e 75 62 96 bd 0d d4 9f be 7a 54 7e be
       0.29735637 -0.07342998 -0.3121647 -0.24836913
000050 2d 0b 24 3d 6a da a0 bd 0d 6f 4d be 5e eb 77 be
       0.04004972 -0.07854159 -0.20061894 -0.24210879
000060 ab bf 27 3e 74 1e ea bc 41 70 3f be 81 d2 40 3e
       0.1638171 -0.028578974 -0.18695165 0.18830301
000070 e3 97 76 bd e6 d9 f5 bd 29 2f b5 bd b7 08 85 be
       -0.060203444 -0.120044515 -0.08846886 -0.2598321
000080 9f f9 f1 3d 9a cb 47 bc a3 06 34 be be f9 4f be
       0.118151896 -0.0121945385 -0.17580657 -0.20310113
000090 00 ea 0e bd ba 7b 32 3d da 73 aa bd 40 c6 fd 3d
       -0.03489113 0.043575026 -0.08322878 0.12391329
0000a0 4b 2a 85 be f3 b6 85 bd d4 22 76 3e 51 5e 29 be
       -0.2600883 -0.065290354 0.24036723 -0.16539885
0000b0 88 7e 00 3e c4 d3 62 3e 71 26 b7 be 9d 18 2e 3e
       0.12548268 0.22151095 -0.35771516 0.17001577
0000c0 6a 9d 15 3e 9b 4c 51 3e fb 39 6a 3e 84 89 d2 bc
       0.1461083 0.20439379 0.2287368 -0.025700338
0000d0 ad d1 60 3e 45 12 4d bd 90 17 83 bd 4d 20 d3 be
       0.21954985 -0.05006625 -0.064009786 -0.4123558
0000e0 f1 18 74 bf 10 c2 3a be 34 a4 5d be dd b5 e5 be
       -0.9535056 -0.18238091 -0.2164467 -0.44865313
0000f0 fe ee 80 be d7 22 09 3e 67 59 83 be 9b f5 cc 3c
       -0.25182337 0.13392197 -0.25654146 0.025019458
000100 59 9c 94 be 1e 38 a8 3c 74 36 ea 3d 18 e8 2f 3e
       -0.29025534 0.020534571 0.11436167 0.1717838
000110 23 e5 05 bf 72 4c 1e be 2a b3 2c bd 1f f6 96 3d
       -0.5230276 -0.15458849 -0.04216305 0.073711626
000120 4b 40 6a 3d 0d 92 77 3d 11 da f6 3e 91 1e 93 be
       0.05719022 0.06044202 0.48213246 -0.28734258
000130 fd c6 c7 bd cd 8e 06 3f bd 04 f0 3e 00 61 93 3e
       -0.09754751 0.52561647 0.46878615 0.28784943
000140 6f 2e bb 3e 3f 89 40 be 57 da eb bd 9c 7f 0e 3f
       0.36558864 -0.18802355 -0.115162544 0.55663466
000150 a4 80 f8 3e dd cb 7d be 84 54 2e be 11 dd 0c 3f
       0.48535645 -0.24784799 -0.17024428 0.5502482
000160 99 58 6d 3e 98 fc ce bd 80 e3 56 be 72 25 93 3e
       0.23178329 -0.10106772 -0.20985222 0.28739506
000170 36 bd 62 be 4f e4 d6 bc b8 13 16 3f 44 2a 25 bd
       -0.2214249 -0.026231913 0.5862384 -0.04032351
000180 0f b0 2a 3e c8 98 3d 3e ef a1 c3 3d e3 b7 0f be
       0.16668724 0.18515313 0.09552371 -0.14034991
000190 c6 f1 d1 be dc d1 1a be b4 0a d0 3e 9a 0c 67 3e
       -0.4100477 -0.15119117 0.40633166 0.22563401
0001a0 5c ba 20 3f 95 e7 f3 3d f7 d8 2d bd e8 95 94 3d
       0.6278436 0.11909405 -0.042443242 0.07255155
0001b0 e2 15 87 bc d2 7d a8 bc c9 36 76 3e 45 52 ed 3d
       -0.016489927 -0.020567808 0.24044336 0.11587957
0001c0 fa c4 d6 3d a9 e2 33 3e ad cf d9 bd a7 31 86 3e
       0.10486789 0.17566933 -0.10635314 0.26209757
0001d0 eb cc 69 bd 78 d5 09 3f 2a 19 c8 3e 47 a6 aa 3c
       -0.05708019 0.5384135 0.390817 0.02083124
0001e0 5a 85 a6 be 8d 72 d2 bd 34 14 8e be d4 24 2c 3d
       -0.32523614 -0.10275755 -0.2774979 0.04202731
0001f0 0b e6 8e 3d 61 0a 25 3e cf 79 36 be 10 a0 44 be
       0.06977471 0.1611724 -0.17819904 -0.19201684

fc4.bias f4 [2]
000000 7e a8 e8 bc fb 77 e6 3d
       -0.028400656 0.11253353

bn_s.weight f4 [24]
000000 ce 49 6e 3f f0 76 22 3f 66 9a 1b 3f a3 65 4f 3f
       0.93081367 0.63462734 0.6078247 0.8101446
000010 66 83 ae 3f 53 70 57 3f 2a 55 31 3f 83 df 40 3f
       1.363385 0.8415577 0.69270575 0.7534105
000020 03 e8 3e 3f 61 5e 47 3f 5c af 44 3f a9 db 52 3f
       0.7457277 0.77878386 0.7683008 0.82366425
000030 0a 18 83 3f ef c3 32 3f 3b 0a 30 3f ea 9c 5a 3f
       1.0241711 0.6983022 0.6876561 0.8539568
000040 71 c8 62 3f df b2 40 3f 29 d4 1a 3f 1b 4b 5f 3f
       0.885871 0.75272936 0.6047998 0.87223977
000050 39 f1 ba 3f 70 20 8c 3f 3d 81 41 3f 5c 5c 74 3f
       1.4604865 1.0947399 0.75587827 0.9545343

bn_s.bias f4 [24]
000000 db ea 67 3a 44 ec 17 3e c1 2a c8 3d ca af 4f be
       0.0008846947 0.14836222 0.0977378 -0.20281902
000010 4d 99 0d 3e 31 71 f6 bd e1 d6 e1 3c 6e ae 04 bf
       0.13828011 -0.12033308 0.027568283 -0.5182866
000020 f2 30 28 3e cb 94 be bd 24 c6 01 3b e0 95 46 be
       0.16424921 -0.09305724 0.001980194 -0.1939311
000030 61 ac 3d 3e a1 ac e2 3b d6 68 9a 3d e0 ad 39 be
       0.18522789 0.0069175516 0.07539527 -0.18132734
000040 ab 88 ce bd 59 72 6a 3d 30 30 08 be 41 3c 5c be
       -0.10084661 0.057237957 -0.13299632 -0.2150736
000050 60 84 a4 3d 68 27 6b 3d fb 60 00 3d 18 9f de bd
       0.08033061 0.057410628 0.031342488 -0.108701885

bn_s.running_mean f4 [24]
000000 c3 56 0c c1 0e 55 44 be 64 c7 5d 3f e1 2c f9 3b
       -8.771182 -0.19173071 0.8663237 0.007604227
000010 c6 71 09 3d 85 83 75 40 64 c7 5d 3f e1 2c f9 3b
       0.03355577 3.8361523 0.8663237 0.007604227
000020 ba 14 0e c1 ee fb 4e be 1f 22 6d 3f a7 f7 f5 39
       -8.88006 -0.20213291 0.9263019 0.00046914557
000030 01 5b 48 3c 6c 1a 74 40 1f 22 6d 3f a7 f7 f5 39
       0.012228728 3.8141127 0.9263019 0.00046914557
000040 fa bb 0f c1 bb 86 5b be 28 eb 83 3f 6d 83 ee 3b
       -8.983393 -0.21438114 1.0306139 0.007278851
000050 0c b8 24 3c 0c 42 72 40 28 eb 83 3f 6d 83 ee 3b
       0.010053646 3.7852812 1.0306139 0.007278851

bn_s.running_var f4 [24]
000000 46 e9 0a 41 79 0b 4c 3f 9a b5 5c 43 74 b5 85 41
       8.6819515 0.79705006 220.70938 16.7136
000010 59 7d ec 41 48 95 2c 40 9a b5 5c 43 74 b5 85 41
       29.561205 2.6966114 220.70938 16.7136
000020 ea 8a f8 40 67 ef 4e 3f ae bc 5b 43 15 1b 89 41
       7.7669573 0.8083405 219.73703 17.138224
000030 52 40 f5 41 d7 30 33 40 ae bc 5b 43 15 1b 89 41
       30.656406 2.799856 219.73703 17.138224
000040 0a b9 d9 40 78 04 53 3f f4 d4 63 43 8f 6f 8b 41
       6.803838 0.82428694 227.83185 17.429472
000050 3a fc ff 41 da 0b 41 40 f4 d4 63 43 8f 6f 8b 41
       31.998158 3.0163484 227.83185 17.429472

bn_so.weight f4 [24]
000000 9a 5b 3b 3f 83 70 10 3f 7a dc 4b 3f b8 5b 2b 3f
       0.7318665 0.5642168 0.79633296 0.66936827
000010 4f b0 c3 3f 49 a7 71 3f 3c 7e 2f 3f 5d 1c 2e 3f
       1.528818 0.9439588 0.68551993 0.6801203
000020 57 0b 21 3f 14 8e 3f 3f 3d 32 48 3f 92 6d 27 3f
       0.6290793 0.7482617 0.7820166 0.65401566
000030 e6 28 b2 3f e6 e6 14 3f 48 ed 22 3f 7f 19 2c 3f
       1.3918731 0.58164823 0.6364331 0.67226404
000040 0d a6 57 3f b4 31 44 3f 90 bd 19 3f a9 42 29 3f
       0.8423775 0.7663834 0.60054874 0.6611734
000050 51 c4 e1 3f ac da 91 3f a2 78 1d 3f e9 67 4f 3f
       1.7638036 1.1394858 0.61512196 0.8101793

bn_so.bias f4 [24]
000000 fb 6b b0 3c 91 fb 88 3e 06 87 2a be 17 0c ad bc
       0.021535864 0.2675443 -0.1665307 -0.021123929
000010 99 0b 82 be d7 8b 12 be 2e 8c b6 3d 50 da e8 3d
       -0.25399473 -0.14311157 0.08913456 0.11369765
000020 4c 93 55 be f8 75 78 3e 54 8c 1a 3e 4a f8 f5 3c
       -0.2085697 0.24263752 0.15092593 0.03002562
000030 9e 58 9f bd c7 f3 29 3d 48 c2 dc 3d 9b 6e 94 bd
       -0.07780574 0.04149225 0.10779244 -0.07247659
000040 71 1f aa 3c 41 02 c6 bd 39 30 47 3e 30 9a 83 3d
       0.020766946 -0.09668399 0.19451989 0.06425893
000050 29 21 21 bc 77 56 dc bd 2f 51 93 bd 6c 38 2c bd
       -0.009834566 -0.10758679 -0.07193219 -0.042045996

bn_so.running_mean f4 [24]
000000 72 36 0d c1 00 a9 31 be 10 8d 6d 3f 42 96 8e 3b
       -8.825792 -0.17349625 0.9279337 0.004351408
000010 c6 71 09 bd 85 83 75 40 10 8d 6d 3f 42 96 8e 3b
       -0.03355577 3.8361523 0.9279337 0.004351408
000020 e0 e9 0e c1 a1 32 3a be 7a 9d 66 3f cd 93 91 3c
       -8.932098 -0.18183376 0.9008404 0.017770672
000030 01 5b 48 bc 6c 1a 74 40 7a 9d 66 3f cd 93 91 3c
       -0.012228728 3.8141127 0.9008404 0.017770672
000040 05 ca 10 c1 af 64 44 be 47 06 79 3f e1 30 30 3d
       -9.049321 -0.19179033 0.97275203 0.043015365
000050 0c b8 24 bc 0c 42 72 40 47 06 79 3f e1 30 30 3d
       -0.010053646 3.7852812 0.97275203 0.043015365

bn_so.running_var f4 [24]
000000 e1 80 06 41 c2 35 48 3f 85 5c 56 43 54 3e 88 41
       8.406465 0.7820703 214.3614 17.030434
000010 59 7d ec 41 48 95 2c 40 85 5c 56 43 54 3e 88 41
       29.561205 2.6966114 214.3614 17.030434
000020 c8 23 f3 40 4b b8 49 3f 52 dc 57 43 c3 cf 89 41
       7.598118 0.78796834 215.86063 17.226446
000030 52 40 f5 41 d7 30 33 40 52 dc 57 43 c3 cf 89 41
       30.656406 2.799856 215.86063 17.226446
000040 0d 73 d4 40 36 38 4e 3f cc e9 5a 43 cc bd 8a 41
       6.6390443 0.8055452 218.91327 17.342674
000050 3a fc ff 41 da 0b 41 40 cc e9 5a 43 cc bd 8a 41
       31.998158 3.0163484 218.91327 17.342674

fcState.weight f4 [64, 24]
000000 3d 8b b9 3e 83 36 02 bd d4 48 b7 bc f7 39 11 3e
       0.36239043 -0.031790268 -0.022373594 0.14182268
000010 59 91 c6 be 8b b6 56 3e 60 a3 a0 3c 6d a4 8f 3e
       -0.38782766 0.20968072 0.019609153 0.28055134
000020 2a 59 15 3a 4d c6 19 3e 15 5c b7 3d 07 53 5c bd
       0.00056971854 0.15017052 0.0895311 -0.05379012
000030 64 ba 57 be 5f 90 08 3e c5 41 b2 bc ac 41 de bd
       -0.21067196 0.13336323 -0.021759877 -0.1085237
000040 6d 24 5a 3e 48 c4 b7 3d ba 0c 94 3e 92 ca 39 3e
       0.21302958 0.089729846 0.2891596 0.1814368
000050 69 d9 e2 be df 2d 95 3e e1 09 74 3c 05 aa a7 bc
       -0.44306496 0.2913656 0.014894933 -0.020466814
000060 0b ef 04 3d a1 f9 dc bd 99 06 0a 3d 4e 3d 71 3e
       0.03245453 -0.107898004 0.0336977 0.23558542
000070 d3 d9 96 be 5e 75 12 3e bd 5a e5 3b 0b 77 d9 3e
       -0.29463062 0.14302585 0.0069993422 0.42473635
000080 5c e5 28 3e bc 8c 4c be ec 44 81 be fe a6 0f 3d
       0.16493744 -0.19975561 -0.25247896 0.035071366
000090 4a ee a2 3c 7a 38 c9 bc f8 55 01 bb 62 0e a3 3c
       0.019889016 -0.024563063 -0.001973508 0.01990432
0000a0 43 9f cb 3e 95 65 dc bd ee 29 90 3e db e6 15 bd
       0.39769945 -0.10761563 0.2815699 -0.036597114
0000b0 08 0a bc be 7e f4 7d 3e 9d d0 b3 bc d6 ab 3f bc
       -0.36726403 0.24800298 -0.02195006 -0.011698684
0000c0 73 8e 26 be 8d 96 5f bd 70 18 69 be 85 e4 81 be
       -0.16265278 -0.054586936 -0.22763228 -0.2536966
0000d0 9b 0a 9d 3e 38 4c e9 3d 7b 7e 4b 3e f1 c9 8d 3d
       0.30672154 0.11391491 0.19872467 0.06923283
0000e0 7c 8c 46 bd d9 b4 2c be 89 80 ab 3e 57 6c 93 3d
       -0.04847382 -0.16865863 0.33496502 0.071983986
0000f0 bb 14 81 bd 54 e4 7e 3e 5c e2 8f 3e 0b b2 2e 3e
       -0.06302782 0.24891788 0.28102386 0.17060106
000100 d3 af 8c be 97 18 fc bd 78 27 2f 3e 48 f0 c0 bc
       -0.27477893 -0.12309378 0.171049 -0.023552075
000110 61 9b ac be fe f3 06 be 44 6d 6e 3e 24 11 08 be
       -0.33712295 -0.13179013 0.23283869 -0.13287789
000120 39 7d 56 bb a5 45 38 be 93 93 3f 3d 95 8e 05 bd
       -0.0032728447 -0.17995317 0.046771597 -0.03260668
000130 53 f5 9d 3e cd 51 20 3e 3f 5f 3a be 79 e0 83 3d
       0.3085123 0.15656205 -0.18200396 0.06439299
000140 b9 45 82 be 02 cf 99 be 67 7b 19 3d 06 7a 55 3b
       -0.2544382 -0.30040747 0.0374712 0.0032573952
000150 29 ff 69 3e cf d0 18 be 8c c7 29 be 4a d2 2a 3e
       0.22851242 -0.14923404 -0.16580027 0.16681781
000160 df a5 75 be 66 53 41 bd 0a 1a c0 bd 05 61 40 be
       -0.23989056 -0.047198676 -0.093799666 -0.1878701
000170 09 53 7f 3b 0c 43 b4 3d 23 a3 aa be 14 ae 1c be
       0.0038959405 0.08801851 -0.33327588 -0.1530078
000180 2f 97 18 be 60 b5 ea bb ba 59 a8 bd 31 22 1a be
       -0.14901422 -0.007162735 -0.08220239 -0.15052105
000190 c7 3b 09 3d fc 9a 3b be 9b d6 15 3e 23 c9 a3 3d
       0.033504274 -0.1832084 0.14632647 0.07997348
0001a0 12 73 13 be 12 c1 61 be b7 9e d1 3e 86 88 61 3d
       -0.14399365 -0.22046307 0.40941402 0.05506184
0001b0 55 d3 2b 3d c7 e1 0f 3e 74 d9 76 3e 7d 56 35 3e
       0.04194959 0.14050971 0.2410639 0.17708774
0001c0 6b ed 94 3e ef b0 02 be ff b4 e0 3d 93 3d a3 3d
       0.29087386 -0.12762807 0.10972022 0.07970729
0001d0 af 7f 04 3e 23 76 a6 3e c9 35 01 be 36 64 85 be
       0.12939332 0.32512006 -0.12618174 -0.26053017
0001e0 d0 4a 7a 3d 6d a2 1b 3e 95 d7 3a 3e e9 fd 5f be
       0.061106503 0.1519868 0.182463 -0.21874203
0001f0 18 e8 ff 3e d0 16 12 bd 84 b2 49 be ac 0b f3 bd
       0.4998176 -0.035666287 -0.19697005 -0.118674606
000200 6d ee 41 3e 86 52 81 3e dc 42 3f be 89 fc 25 bd
       0.18938608 0.25258273 -0.18677849 -0.04052404
000210 15 5c b8 3e 74 54 4f 3e c8 f1 57 3d 75 1a 70 3d
       0.36007753 0.2024706 0.052720815 0.05861898
000220 8c c2 6d 3e 64 ff e4 3d ef 1f 6f bd 3b 5c cf bd
       0.23218745 0.111815244 -0.058380064 -0.101250134
000230 2c ca 46 be 53 39 55 bd b9 49 a8 bd 2a e2 f3 3d
       -0.1941306 -0.05205662 -0.082171865 0.11908372
000240 af 81 83 bd d6 ef 9b bd a8 1f a2 3e 34 50 2e bd
       -0.064212196 -0.076141044 0.31664777 -0.042556956
000250 e9 d8 5b 3e c7 eb 18 3e 37 86 4c 3e 9f 42 ed 3d
       0.21469463 0.14933692 0.19973074 0.115849726
000260 82 b0 74 be 1e f5 7f bd 83 b8 94 be 19 fd 2d be
       -0.23895457 -0.06248962 -0.2904702 -0.1699108
000270 96 91 01 be c5 a7 9d bd 7d 14 c6 3c ff 86 e1 bd
       -0.12653193 -0.07698015 0.024179691 -0.110120766
000280 18 88 c4 be b3 45 73 bd d5 3e 02 3e c0 22 4a 3d
       -0.3838508 -0.059392642 0.12719281 0.049349546
000290 61 13 ad be 42 21 89 bd f8 43 67 bc 54 60 10 be
       -0.33803847 -0.066957965 -0.014115326 -0.14099246
0002a0 61 f3 7a bd 44 86 39 be 1e fe ad 3d 27 fd 15 3e
       -0.06126726 -0.18117625 0.08495735 0.14647351
0002b0 f2 d0 4d be e5 1b 2a 3c 8c 0a b4 3e 43 bf 93 3e
       -0.20099238 0.010382627 0.35164297 0.2885686
0002c0 ee 20 11 3e 51 d1 8f bd 87 47 8c be e8 50 e5 3d
       0.14172718 -0.07022346 -0.2739832 0.11197072
0002d0 74 d7 05 be 6a 75 8a bd 98 9f a5 be b5 3f b5 bd
       -0.1307047 -0.06760676 -0.32348323 -0.08850042
0002e0 16 33 1e be 05 fc c1 3d 3d ff 75 be a8 dd 28 be
       -0.15449175 0.09471897 -0.24023147 -0.16490805
0002f0 34 72 7a 3e 80 fe 94 bd f2 b7 17 bd a3 0a d4 bd
       0.24457628 -0.072751045 -0.03704066 -0.10353591
000300 07 47 39 be d4 4c bc bd 83 2b a6 3e 84 30 2a be
       -0.18093501 -0.09194341 0.32455072 -0.1662007
000310 da 34 1c 3e 07 77 8f 3e 9c 16 cd 3e 9b e6 e0 bd
       0.15254536 0.28020498 0.40056312 -0.109814845
000320 31 fc f5 3c b2 08 31 be c2 f5 46 3e 7b 54 dd bd
       0.03002748 -0.17288473 0.19429687 -0.10807129
000330 94 29 9b 3d 85 be 00 bc 11 1a 13 bc 4e ce 32 bd
       0.0757629 -0.007857923 -0.008978383 -0.04365378
000340 66 c2 b3 3c 3a a7 04 3c 70 87 a3 3d cf 05 cb bc
       0.021943282 0.008096511 0.07984817 -0.024783043
000350 d3 67 ce be 96 db b4 3d 11 85 49 3e 34 03 87 3d
       -0.40313587 0.08830945 0.19679667 0.06592408
000360 c8 15 71 3e c3 99 5e bd 64 e9 2a be 57 b7 8f 3e
       0.23543465 -0.054345857 -0.16690594 0.28069565
000370 13 d7 8a 3e 43 7c 4e 3e be 6a 65 be e7 74 c2 3c
       0.27117214 0.2016459 -0.22404 0.023737384
000380 6f c1 d0 3c 56 b2 e6 bd 01 9c e7 bd 3b 75 df 3d
       0.025482861 -0.11264484 -0.11309052 0.10911032
000390 16 39 75 3e 51 8f 50 3e da a2 0b be 01 02 55 be
       0.23947558 0.20367171 -0.13636342 -0.20801546
0003a0 3f 79 e6 3d b3 58 9c bd d2 3d 9c 3d 8b ec 42 3e
       0.112535946 -0.076341055 0.07628979 0.19035546
0003b0 b9 ef 0a bf 93 79 03 3e c6 13 80 3e 79 3c 8e bd
       -0.5427204 0.12839346 0.25015086 -0.06945128
0003c0 7d 79 fd bd 19 c7 93 3d 35 24 7b 3d 05 0d 1d be
       -0.12376688 0.07215709 0.061313827 -0.15336998
0003d0 2f 56 76 be c0 a6 0c be 10 64 5f be f5 5b 9b be
       -0.24056314 -0.13735485 -0.21815515 -0.30343595
0003e0 13 32 bc bd 03 d9 3e 3e d4 d1 2a 3d e6 62 18 be
       -0.091892384 0.18637471 0.041704014 -0.14881477
0003f0 4a c0 25 be d8 99 f0 3d f5 97 db bd 93 97 37 be
       -0.16186634 0.11748093 -0.10722343 -0.17928915

fcState.bias f4 [64]
000000 5a f9 e1 be 6f 53 66 be aa b4 45 bd 24 41 f5 b8
       -0.44135553 -0.22492765 -0.048267998 -0.00011694644
000010 d2 fd 21 be 37 4c 97 3d 00 a7 4f be 3e 72 34 be
       -0.15819481 0.07387584 -0.20278549 -0.17621705
000020 3e ee 82 be ef d9 13 be 43 8b 20 be c5 8f 0b bf
       -0.2557239 -0.14438604 -0.15678124 -0.5451625
000030 72 7c 52 3c 76 cc 9d 3d a8 f1 59 be a7 3a b0 3c
       0.012847053 0.077050135 -0.21283591 0.021512343
000040 b8 77 8c 3c 40 7c ab bd 58 8c 6d be 4d c1 13 bc
       0.01714693 -0.08373308 -0.23198068 -0.0090182545
000050 13 09 94 be 9f 17 f7 bd 1b 85 10 bd 97 4a 2f bf
       -0.28913173 -0.12065052 -0.03528319 -0.6847319
000060 71 44 2e be c0 64 4e be 49 84 84 bd a1 0d 5a 3d
       -0.17018296 -0.2015562 -0.06470544 0.053235654
000070 e0 18 99 be f9 2b 69 be 58 06 c9 be e8 09 8c bd
       -0.2990179 -0.2277068 -0.39262652 -0.06837827
000080 41 14 aa bc f8 e3 1e be a2 44 ba be 35 68 bd be
       -0.020761611 -0.1551665 -0.36380488 -0.36993566
000090 f7 d5 f3 bd a6 ba 80 be aa 47 0a 3d 85 06 28 3d
       -0.11906045 -0.251424 0.03375975 0.041021843
0000a0 72 67 47 be e2 90 6f be 6a fc 0c 3e 50 1f 7c 3e
       -0.19473055 -0.23395112 0.13768163 0.2462132
0000b0 ad 0f c4 3a 40 fb 3d 3d 43 df 84 ba 3d f4 81 be
       0.0014958285 0.04638219 -0.0010137338 -0.25381652
0000c0 d8 73 d2 3d 2b c2 67 3e f7 90 dd be 2c 6a 49 bf
       0.10276002 0.22632663 -0.43274662 -0.7867763
0000d0 9b 2a 09 be b7 18 ab bd 2e c5 05 3c 54 1d 82 bd
       -0.13395159 -0.08354323 0.008164687 -0.0635325
0000e0 03 ae 5e be 68 0a c0 be 10 bf 13 be fa 0d 21 be
       -0.21746068 -0.3750794 -0.14428353 -0.15727988
0000f0 4a 29 e3 bd db 0d b0 bd 54 95 6c 3d 2a bf 2f be
       -0.1109186 -0.08596393 0.057759598 -0.17162767

fcAction.weight f4 [16, 2]
000000 89 18 4a be ec 13 1d be b6 26 00 bf 2a 22 b0 3e
       -0.19735922 -0.15339631 -0.5005907 0.34401065
000010 56 eb 8d 3f 4c 2b 31 bf 58 fa b4 3e 08 a1 aa 3e
       1.1087444 -0.6920669 0.35347247 0.33325982
000020 34 bc 26 bf 3c 07 13 bc 32 1d 54 3f 00 66 f5 be
       -0.65130925 -0.008973893 0.8285705 -0.47929382
000030 38 df e2 bd 1c 74 f8 be 33 80 c5 3e 8e 49 09 be
       -0.11077732 -0.48526084 0.3857437 -0.13406965
000040 68 0e cf 3e ab 3d 16 3f 85 46 bd bd 12 af 8c bf
       0.4044068 0.5868785 -0.09241966 -1.0990927
000050 87 0d 11 bd 80 f4 42 be 93 b5 c3 3d 81 9f ed 3e
       -0.03541329 -0.19038582 0.09556117 0.46410754
000060 91 37 19 bf 40 35 3b bf cf 3f 45 3f a7 b1 3e 3e
       -0.5985041 -0.7312813 0.7705049 0.18622456
000070 08 08 b3 3e 60 5a 03 3f f2 49 50 3f 84 b1 99 bf
       0.34967065 0.51309776 0.8136283 -1.2007298

fcAction.bias f4 [16]
000000 ac 54 53 3d 7b af a2 3d cc 70 9f be d1 2d 1c 3e
       0.05159442 0.079436265 -0.31140745 0.15251853
000010 86 0e 2c 3d a3 8e e3 3e 3e c8 2c bf 42 4c c2 3e
       0.042006038 0.4444476 -0.67493045 0.37948805
000020 59 4f b9 be 2b 00 9a 3e 3a 09 7e 3e ec 6b cc bd
       -0.3619335 0.30078253 0.24808207 -0.09981522
000030 47 1a ca be 70 41 c6 bc 27 5c be be 51 e9 09 3e
       -0.39473173 -0.024201125 -0.37179682 0.1346791
